RobotTraining_PathPlanning/Assets/NNModels/RobotUR10_rb_18.onnx (onnx, 585269 bytes, 9 tensors)

action_model._continuous_distribution.log_sigma f4 [1, 5]
-2.5399208 -3.0788882 -0.77407235 -1.0270523 -2.2671456
00000000: 108e 22c0 810c 45c0 9b29 46bf 7376 83bf
00000010: ea18 11c0

action_model._continuous_distribution.mu.bias f4 [5]
-0.0030790528 -0.023454461 -0.06968458 -0.035809178 0.022872886
00000000: efc9 49bb 9223 c0bc cab6 8ebd a5ac 12bd
00000010: eb5f bb3c

action_model._continuous_distribution.mu.weight f4 [5, 256]
-0.03173122 -0.011915863 -0.01805795 0.010675625 -0.050867658 -0.080117665 0.014383632 0.0061123227
-0.025147509 -0.016474837 -0.011862995 0.016561728 -0.021103084 0.0119991 0.034814004 0.0006431743
0.011365232 0.0035454715 0.07927658 0.07253419 0.026812438 0.00581396 -0.028235136 0.0021543142
0.0021582157 -0.046551283 0.01904217 -0.003261219 0.005799346 0.004569884 -0.009344573 -0.0013982472
-0.011771825 0.01486228 -0.024211308 0.014911384 -0.020852508 -0.031240137 -0.008048059 0.0047530807
0.09033449 -0.04131459 0.010398027 -0.004874043 0.013026191 -0.0026079128 0.018203251 -0.001859397
-0.012486042 -0.0049460526 -0.0068392255 0.025653813 0.019037103 -0.022999471 0.024113664 0.0047911326
-0.007012781 -0.016221493 0.057365816 -0.020001816 -0.036369864 0.0326247 0.0047281613 -0.018739177
-0.004553191 0.019927071 0.0108992 0.01634025 -0.023408653 -0.0025334817 -0.0037628068 0.0073870267
0.0034182658 0.015937084 0.02066712 0.012567972 -0.0078119817 0.01362611 0.00888513 -0.01687101
-0.00915354 -0.01952252 0.03417606 0.017815368 0.025562264 0.030064642 0.02667763 0.012120125
0.0010588854 -0.0070447586 0.04728435 -8.247637e-05 -0.007544458 -0.0025181489 0.012538956 0.053930692
-0.010453309 -0.04791529 -0.005461183 0.0021571591 -0.03605631 0.03262364 0.014009401 -0.00024887297
0.013164185 0.008610094 0.015269055 0.004714305 0.032127563 -0.03211082 -0.005935796 0.016285546
0.027911171 0.008442405 0.004105037 0.011942169 -0.0039366633 0.020458587 -0.015377993 -0.04308899
-0.0033011476 0.009389057 0.042452417 -0.010106271 -0.014414089 -0.015536206 -0.008826424 0.051986985
0.05030734 -0.0013706894 0.017273558 -0.030425852 0.009092767 0.01372682 -0.006897165 0.005311198
-0.013127744 0.01642558 -0.05017957 0.012639581 0.024662958 -0.0060026855 -0.020975562 -0.011011926
0.04055796 0.030449064 0.003575166 0.06845828 0.0004498169 0.023278723 -0.0032932016 -0.0022424585
-0.017570546 0.0031409564 0.051714465 0.0051836045 -8.907446e-05 0.012068759 -0.062806696 0.0042252676
0.021746727 -0.00957714 -0.017656654 -0.008113704 0.015784604 0.023424245 -0.0012924586 0.0042665736
0.004324402 -0.028926328 0.01525884 0.025993254 -0.019797679 0.00078467955 -0.023458522 0.03204876
0.013225241 -0.011142812 -0.009677953 0.006619365 -2.9121502e-05 -0.057158433 -0.046017915 0.08190628
0.010935523 -0.0044224225 -0.0046842746 -0.006765703 0.020613492 -0.022958836 0.0012366313 0.010634053
-0.11386292 0.032732792 0.0025990559 0.009003073 0.024243603 -0.033469718 -0.0076927375 0.00096391875
0.0069843936 -0.012963353 0.005926594 0.046099886 0.018621383 -0.0029132199 -0.0072382465 -0.01042174
-0.038154975 0.017660556 0.014451089 -0.015235377 0.024136966 0.016425611 -0.01079875 -0.0045005283
-0.028629914 -0.046512302 0.040399794 -0.019797716 0.0033782402 0.0077080554 0.021222787 0.020069128
-0.018722642 -0.002701197 0.03421267 0.006827848 -0.007656359 -0.017367847 -0.019770717 -0.0020120596
0.006638508 -0.0030908387 0.0021333934 -0.0064958464 0.006126846 0.017343856 -0.07372983 0.044631857
-0.034669377 0.00068311894 0.011903992 -0.010250208 -0.0014710735 0.1276136 0.025673969 -0.009817924
-0.005346607 0.014713762 -0.038642276 -0.0014788032 -0.015650498 -0.027998341 0.026998691 -0.033114865
00000000: 99f8 01bd c03a 43bc 44ee 93bc d1e8 2e3c
00000010: 9b5a 50bd bb14 a4bd 53a9 6b3c e149 c83b
00000020: 2602 cebc 3df6 86bc 025d 42bc 76ac 873c
00000030: 60e0 acbc e097 443c 2199 0e3d b29a 283a
00000040: 3d35 3a3c 245b 683b c25b a23d ce8c 943d
00000050: c2a5 db3c 0883 be3b 5f4d e7bc 652f 0d3b
00000060: da70 0d3b 8fac 3ebd 53fe 9b3c 2dba 55bb
00000070: 7108 be3b f7be 953b fb19 19bc 6445 b7ba
00000080: 9dde 40bc ec80 733c cb56 c6bc e14e 743c
00000090: e1d2 aabc 51eb ffbc 02dc 03bc bbbf 9b3b
000000a0: 4a01 b93d 7d39 29bd 7c5c 2a3c 70b6 9fbb
000000b0: ce6b 553c 84e9 2abb fc1e 953c 03b7 f3ba
000000c0: 4292 4cbc 7f12 a2bb 951b e0bb f227 d23c
000000d0: b3f3 9b3c 6369 bcbc 058a c53c effe 9c3b
000000e0: 79cb e5bb f0e2 84bc 6bf8 6a3d d9da a3bc
000000f0: 91f8 14bd 7aa1 053d b1ee 9a3b e782 99bc
00000100: ef32 95bb 193e a33c 8f92 323c fddb 853c
00000110: 81c3 bfbc c508 26bb 6c99 76bb df0e f23b
00000120: fc04 603b 7d8e 823c 184e a93c e5e9 4d3c
00000130: a7fb ffbb 0c40 5f3c f092 113c 1335 8abc
00000140: bbf8 15bc b1ed 9fbc 32fc 0b3d 89f1 913c
00000150: f467 d13c 204a f63c 0c8b da3c 7d93 463c
00000160: 4cca 8a3a b8d7 e6bb 3cad 413d 2af7 acb8
00000170: 8037 f7bb 8707 25bb 3170 4d3c 6ee6 5c3d
00000180: 5b44 2bbc d342 44bd b9f3 b2bb 205f 0d3b
00000190: c8af 13bd 5ea0 053d b087 653c 2a7b 82b9
000001a0: 98ae 573c 5a11 0d3c 0f2b 7a3c 757a 9a3b
000001b0: 3198 033d a386 03bd 1181 c2bb 4469 853c
000001c0: f8a5 e43c 0352 0a3c 8c83 863b 16a9 433c
000001d0: 20ff 80bb c498 a73c faf3 7bbc 157e 30bd
000001e0: 1158 58bb 8fd4 193c 96e2 2d3d c694 25bc
000001f0: 1229 6cbc 928b 7ebc b59c 10bc 4ef0 543d
00000200: 120f 4e3d b4a8 b3ba 4781 8d3c a33f f9bc
00000210: d4f9 143c 75e6 603c 9d01 e2bb 8f09 ae3b
00000220: c015 57bc f08e 863c 1889 4dbd 3f16 4f3c
00000230: f909 ca3c 2db2 c4bb f1d4 abbc 5e6b 34bc
00000240: 1a20 263d 5170 f93c 554d 6a3b db33 8c3d
00000250: 67d5 eb39 05b3 be3c c1d2 57bb 36f6 12bb
00000260: 1bf0 8fbc 81d8 4d3b 8cd2 533d 3adb a93b
00000270: 7dcd bab8 0bbc 453c cca0 80bd 1d74 8a3b
00000280: 3126 b23c 70e9 1cbc b0a4 90bc 57ef 04bc
00000290: b74e 813c 34e4 bf3c b767 a9ba 9dce 8b3b
000002a0: b7b3 8d3b e8f6 ecbc 3700 7a3c ceef d43c
000002b0: be2e a2bc f4b2 4d3a 162c c0bc 9045 033d
000002c0: aeae 583c 5790 36bc 4790 1ebc 42e7 d83b
000002d0: f349 f4b7 f61e 6abd 487d 3cbd 7bbe a73d
000002e0: e82a 333c f8e9 90bb 8b7e 99bb d5b2 ddbb
000002f0: a0dd a83c 2b14 bcbc 7616 a23a 733a 2e3c
00000300: f630 e9bd d212 063d ec54 2a3b a081 133c
00000310: 859a c63c 8b17 09bd 5c13 fcbb 7eaf 7c3a
00000320: 57dd e43b 3e64 54bc e033 c23b 3cd3 3c3d
00000330: df8b 983c b8eb 3ebb d02e edbb f2bf 2abc
00000340: 6448 1cbd dfac 903c 43c4 6c3c cd9d 79bc
00000350: e3ba c53c 018f 863c 3eed 30bc 2b79 93bb
00000360: 4889 eabc af83 3ebd 417a 253d d22e a2bc
00000370: 7765 5d3b db93 fc3b 69db ad3c 0368 a43c
00000380: 3a60 99bc 9106 31bb 9622 0c3d 24bc df3b
00000390: 32e2 fabb 0447 8ebc 33f6 a1bc c2dc 03bb
000003a0: d787 d93b ab8f 4abb 67d0 0b3b 1cdb d4bb
000003b0: b6c3 c83b b414 8e3c aaff 96bd e5cf 363d
000003c0: 7a01 0ebd 5613 333a f608 433c 7df0 27bc
000003d0: 09d1 c0ba 24ad 023e 3752 d23c 5cdb 20bc
000003e0: 9732 afbb fe11 713c 5d47 1ebd 67d4 c1ba
000003f0: 7935 80bc c75c e5bc 5c2c dd3c 74a3 07bd

network_body.linear_encoder.seq_layers.0.bias f4 [256]
-0.019726306 0.02383684 0.0075536584 -0.0035420249 -0.008435609 0.03110056 -0.019819183 -0.0061417227
-0.0013316678 0.0052528656 0.0054208124 0.0030337374 0.008166308 0.016071593 0.0048251664 0.00971079
-0.007533258 0.016740596 0.016363634 0.0035789555 0.01376413 -0.008567918 0.010149302 -0.052906428
0.0007721014 0.034727808 0.022064347 0.00484198 0.020482836 0.009293409 0.0005424918 0.0053435545
0.0052782763 0.019212479 0.020331595 0.011154698 -0.0102627445 0.024831671 0.0106016705 -0.002656411
0.02959804 -0.0009463216 0.043407384 -0.0059255282 0.029254036 0.013357406 0.0028446075 0.021404117
0.0016206255 0.03368633 0.055493288 -0.00034891095 -0.0066734515 0.003788912 0.0016023193 0.011940698
0.019194426 0.0077710575 0.0072698174 -0.003791349 -0.0027392912 -0.009089026 0.022054149 -0.043813407
0.0066446904 -0.039676156 -0.00822787 -0.0638093 -0.009095938 -0.05032947 -0.016731605 0.01946627
-0.055542033 0.007577594 0.016236965 -0.0072649424 -0.005976693 0.0028160233 0.008651363 -0.012571148
-0.0063036666 -0.0018238703 0.010883208 -0.046178848 0.008512045 0.005943075 0.028967729 0.0029814113
0.0018092277 0.017566502 0.0018832362 -0.003314963 -0.010007175 0.008998628 -0.012807925 0.0068072546
0.002531421 0.007566504 -0.0015478291 -0.018112538 -0.01575096 -0.0028364726 0.026036149 3.100697e-05
0.007189099 -0.01443249 0.019514795 0.008166537 0.012541183 0.01201269 0.026416717 0.01396527
0.013991475 0.0072580455 0.0112808775 0.007110845 0.019471295 -0.004509827 -0.009955299 0.020720892
0.012177666 -0.0013743709 0.0030689857 -0.075203925 -0.004306613 0.0014050237 0.0057981918 -0.059818268
0.0075702155 0.010844339 0.0055082696 -0.0073642493 -0.002357315 -0.0037618112 -0.052486777 -0.009568807
0.009547101 -0.002046008 0.006441763 0.010837437 0.020227302 0.012311299 0.004611849 -0.054686464
0.034130353 0.039056018 -0.0014741642 -0.0076055024 0.023517651 0.026647268 0.025566079 0.0056105345
0.009052173 -0.0015954124 -0.0302943 9.7420976e-05 0.019935412 0.0037716164 0.013164886 0.010027596
0.004160679 0.012358771 0.012637749 0.015063859 0.006395771 -0.008246569 0.017204471 -0.067769304
0.006512543 -0.0053091687 0.022551293 -0.009350723 0.010049212 -0.02867816 0.020720126 0.0043123756
-0.011606737 0.011987691 0.0067529012 0.0077956156 -0.06952693 0.012259282 -0.011559907 0.016722005
-0.0045247874 0.0026741652 0.013524192 -0.015225649 -0.013640489 0.013383721 -0.047125727 0.009512933
-0.0043591326 -0.03729146 -0.04130684 0.008138395 -0.025641749 0.011824599 0.009969108 -0.00620501
-0.0043859323 0.0052784747 -0.006132257 -0.00016128147 -0.009572551 0.002057331 0.004294887 -0.01814198
0.017610995 0.008070235 0.017063335 0.027778056 0.022903033 0.0003486969 0.030980762 -0.0036417823
0.0055952934 0.0036233508 0.003840989 0.0023449282 0.016323717 0.009737825 0.030426014 -0.015711535
0.030273074 0.014225688 0.0163632 -0.03676366 0.032468434 -0.0034917875 0.010867727 -0.022907179
0.013861216 -0.008425837 -0.023661615 0.0077040745 0.0068767844 0.012577555 0.005331376 -0.0010061965
-0.008533852 -0.0035185593 -0.0064445673 0.0125172995 0.014360959 -0.0017183276 0.014152994 0.008076924
0.021143356 -0.0033366424 0.015528098 -0.0032322998 -0.0008662129 0.00799897 0.02787887 0.036480412
00000000: 1099 a1bc 7a45 c33c ae84 f73b 5121 68bb
00000010: 8235 0abc 9ac6 fe3c d75b a2bc 8140 c9bb
00000020: 5b8b aeba 3b20 ac3b 12a1 b13b abd1 463b
00000030: facb 053c 93a8 833c 6e1c 9e3b 011a 1f3c
00000040: 8cd9 f6bb 9323 893c 070d 863c e98c 6a3b
00000050: f282 613c 7460 0cbc 4249 263c 69b4 58bd
00000060: d966 4a3a bf3e 0e3d 4ac0 b43c 79a9 9e3b
00000070: 9fcb a73c 6243 183c 0236 0e3a fc18 af3b
00000080: 64f5 ac3b 7d63 9d3c 728e a63c 32c2 363c
00000090: 1225 28bc ca6b cb3c a1b2 2d3c 2e17 2ebb
000000a0: 9777 f23c 9112 78ba f1cb 313d ef2a c2bb
000000b0: 29a6 ef3c 05d9 5a3c 986c 3a3b b057 af3c
000000c0: 2b6b d43a adfa 093d ee4c 633d 09ee b6b9
000000d0: f8ac dabb 654f 783b ea04 d23a eba2 433c
000000e0: a13d 9d3c 5ba4 fe3b a637 ee3b 4878 78bb
000000f0: ae85 33bb 23ea 14bc e7aa b43c b075 33bd
00000100: b4bb d93b 7783 22bd 30ce 06bc 73ae 82bd
00000110: 2107 15bc 4626 4ebd b810 89bc ba77 9f3c
00000120: 0b80 63bd 774d f83b 6203 853c c10e eebb
00000130: 22d8 c3bb 088d 383b 72be 0d3c 37f7 4dbc
00000140: fd8e cebb ef0e efba 7c4f 323c 0826 3dbd
00000150: 1b76 0b3c 20be c23b bb4d ed3c c863 433b
00000160: 9c23 ed3a a0e7 8f3c ecd6 f63a da3f 59bb
00000170: 22f5 23bc fb6e 133c 55d8 51bc 640f df3b
00000180: 32e6 253b 70f0 f73b 87e0 caba bf60 94bc
00000190: 2808 81bc 1de4 39bb c349 d53c 7b0d 0238
000001a0: 8992 eb3b 4076 6cbc 7edd 9f3c f0cc 053c
000001b0: 8979 4d3c e0d0 443c df67 d83c 96ce 643c
000001c0: 803c 653c e6d4 ed3b 6ed3 383c 1702 e93b
000001d0: 4482 9f3c 2cc7 93bb 8d1b 23bc dcbe a93c
000001e0: d584 473c 3c24 b4ba 0921 493b 8404 9abd
000001f0: 7d1e 8dbb c628 b83a c2fe bd3b 0004 75bd
00000200: 920f f83b 74ac 313c b77e b43b cd4f f1bb
00000210: 2f7d 1abb b888 76bb 60fc 56bd 7cc6 1cbc
00000220: 726b 1c3c 5116 06bb 6d15 d33b 818f 313c
00000230: bab3 a53c 55b5 493c fe1e 973b eafe 5fbd
00000240: 45cc 0b3d 34f9 1f3d be38 c1ba 9437 f9bb
00000250: 17a8 c03c 5f4b da3c f46f d13c 93d8 b73b
00000260: 914f 143c 281d d1ba c02b f8bc 7d4e cc38
00000270: 974f a33c 392d 773b 89b1 573c c94a 243c
00000280: 4e56 883b 717c 4a3c 900e 4f3c 67ce 763c
00000290: 9e93 d13b 9e1c 07bc 64f0 8c3c a2ca 8abd
000002a0: 2c67 d53b 89f8 adbb 7dbd b83c c633 19bc
000002b0: 73a5 243c 76ee eabc 41bd a93c d44e 8d3b
000002c0: 2f2a 3ebc 0568 443c 7147 dd3b 5d72 ff3b
000002d0: 2364 8ebd 28db 483c c465 3dbc 96fc 883c
000002e0: ab44 94bb 0c41 2f3b 9394 5d3c 0075 79bc
000002f0: 5c7c 5fbc 6547 5b3c e806 41bd 22dc 1b3c
00000300: 0ed7 8ebb eebe 18bd 5c31 29bd e756 053c
00000310: a50e d2bc f6bb 413c 7855 233c 6653 cbbb
00000320: deb7 8fbb 0ef7 ac3b 1af1 c8bb aa1d 29b9
00000330: 30d6 1cbc 49d4 063b 20bc 8c3b 7d9e 94bc
00000340: ef44 903c 0539 043c 68c8 8b3c ce8e e33c
00000350: 249f bb3c 4ed1 b639 5ecb fd3c f8aa 6ebb
00000360: b958 b73b bd75 6d3b 1ab9 7b3b 5ead 193b
00000370: 51b9 853c 668b 1f3c fa3f f93c 7ab5 80bc
00000380: 3dff f73c dc12 693c 1e0c 863c 7e95 16bd
00000390: 9ffd 043d 79d6 64bb 8d0e 323c d6a7 bbbc
000003a0: 271a 633c 860c 0abc 01d6 c1bc 7672 fc3b
000003b0: a656 e13b 1712 4e3c d3b2 ae3b 5ae2 83ba
000003c0: 92d1 0bbc a197 66bb f32c d3bb 5c15 4d3c
000003d0: 3a4a 6b3c 8239 e1ba f6e1 673c 1355 043c
000003e0: d534 ad3c 92ab 5abb 9069 7e3c fed4 53bb
000003f0: 9012 63ba 1d0e 033c 3a62 e43c 7c6c 153d

network_body.linear_encoder.seq_layers.0.weight f4 [256, 49]
-0.12003111 0.14194866 0.067986436 0.13200139 -0.23673391 -0.09789613 -0.10130797 0.19119228
-0.20780787 -0.009796214 -0.15352026 -0.21904017 -0.12125976 0.08438648 0.03452824 0.048083056
-0.15117604 -0.10464093 -0.18133248 -0.036715217 0.06661833 0.401163 -0.014906468 0.022916736
0.25281504 -0.024554234 -0.043589003 0.2043331 -0.24811149 0.03471949 0.25191227 -0.27473778
-0.16598661 -0.20695677 0.20626381 -0.0032112894 0.04732639 -0.033510596 -0.022920908 -0.041341946
-0.08511318 -0.06990202 0.018625055 -0.11000491 -0.37887368 0.12025766 0.26713154 -0.36074272
0.18656135 -0.14248085 0.012751698 0.0822176 -0.2286339 -0.0054329694 -0.016657935 0.07090239
0.03711714 0.08473519 -0.07781003 0.0166432 0.09944344 0.20661612 -0.09818775 -0.034981284
-0.02235315 -0.223463 0.09763805 -0.052945945 0.06972613 -0.18656398 -0.027224906 0.19123502
-0.041236017 -0.05395009 -0.14489211 0.08356341 0.10704075 -0.008612473 0.10164583 0.4109101
0.04335356 0.1371704 -0.14322275 -0.06340739 -0.17465445 0.050331734 -0.038838044 -0.044000693
0.03712458 0.20968342 0.2596536 -0.00036073307 -0.23571369 0.023765277 -0.059214752 -0.33450553
-0.04322732 -0.3785012 -0.24132396 -0.017667556 -0.023248484 0.19549894 0.23803826 0.2679135
0.034158 0.19332398 0.086311124 -0.19648223 0.036422692 -0.24920611 0.005323937 -0.040206894
-0.028159548 -0.032234307 -0.119119406 -0.25040954 0.045652673 -0.34996706 0.022175174 -0.23509528
0.013006455 -0.040819693 0.09496119 0.12908702 -0.1353473 -0.18920442 -0.018885236 0.16436133
-0.2658318 -0.1644886 0.118402876 0.20310734 -0.04952618 0.072093874 -0.13494155 -0.20163995
-0.13991472 -0.019483952 0.23806193 0.13585858 0.0187378 -0.11593898 -0.09993427 0.16952966
0.057688747 0.33865505 -0.12658471 0.18988352 -0.08797412 0.23881012 -0.22712359 -0.017416464
0.26274392 -0.06419961 -0.12650616 -0.0015443627 -0.022792004 -0.17560859 0.076873004 0.25028422
0.13131754 -0.2571977 -0.038263604 0.025683818 0.24426128 -0.0659927 0.054249715 -0.19735083
-0.08965974 -0.0579719 -0.021616887 0.1937494 0.038286913 -0.029488076 0.048380665 0.013474278
0.0553892 0.23743193 0.09738283 -0.1812791 0.08630872 0.3071108 -0.17388208 0.17240281
0.18530993 -0.14929128 0.0028836492 -0.008244761 -0.060853515 0.12383312 0.15587805 -0.348069
0.035646826 0.078666896 -0.1028642 0.15456587 0.1243077 -0.08024188 0.091470145 0.058494832
0.09988714 -0.115983166 0.2220507 0.25589043 -0.05779196 -0.27387357 -0.18280964 -0.09237875
-0.091682784 0.09114408 -0.02102787 -0.017267242 -0.1960044 0.14367574 0.023953559 0.058659684
0.15165034 0.06682351 0.04328201 -0.005345022 0.041632883 0.19026372 -0.15075113 -0.07429028
0.039226577 0.0029029294 0.29451323 0.03173079 -0.1324565 -0.06321581 0.15037762 0.09802208
-0.008590188 -0.012208267 -0.00967076 0.01555138 0.07675215 0.073596045 -0.27111775 -0.14970456
-0.34731922 -0.24411948 -0.32893148 0.021089239 0.06655407 -0.083551355 -0.20095105 -0.10808368
0.018128177 -0.23289017 0.072317556 -0.26605833 0.06384838 -0.20232075 0.11003134 0.19425389
00000000: dfd2 f5bd fd5a 113e 793c 8b3d 5f2b 073e
00000010: 606a 72be c47d c8bd 8e7a cfbd e9c7 433e
00000020: 96cb 54be 4d80 20bc 6a34 1dbe 114c 60be
00000030: 0957 f8bd d2d2 ac3d 7c6d 0d3d bdf2 443d
00000040: e4cd 1abe fc4d d6bd 39af 39be b262 16bd
00000050: 316f 883d 3d65 cd3e 423a 74bc e1bb bb3c
00000060: f970 813e f625 c9bc 628a 32bd b23c 513e
00000070: f010 7ebe 0636 0e3d a5fa 803e 6eaa 8cbe
00000080: 65f8 29be 7aec 53be d236 533e 7f74 52bb
00000090: 51d9 413d 6842 09bd a1c4 bbbc 2c56 29bd
000000a0: d24f aebd ca28 8fbd 9293 983c 414a e1bd
000000b0: bbfb c1be a649 f63d 77c5 883e 45b3 b8be
000000c0: f009 3f3e 80e6 11be 7fec 503c b361 a83d
000000d0: 011f 6abe 0d07 b2bb 3976 88bc 4635 913d
000000e0: 2408 183d a589 ad3d dd5a 9fbd 5257 883c
000000f0: 01a9 cb3d 2d93 533e a916 c9bd 8948 0fbd
00000100: f41d b7bc 7cd3 64be 75f6 c73d d9dd 58bd
00000110: 93cc 8e3d a10a 3fbe c406 dfbc 1dd3 433e
00000120: 19e7 28bd c5fa 5cbd 995e 14be 4b23 ab3d
00000130: 2e38 db3d 541b 0dbc b02b d03d cf62 d23e
00000140: 8193 313d 6676 0c3e fca8 12be bcdb 81bd
00000150: 9ed8 32be a628 4e3d a414 1fbd 123a 34bd
00000160: f20f 183d 40b7 563e 51f1 843e c620 bdb9
00000170: ee5e 71be 66af c23c 2b8b 72bd 4f44 abbe
00000180: 210f 31bd e9ca c1be a11d 77be 8dbb 90bc
00000190: 9b73 bebc e030 483e 4dc0 733e f52b 893e
000001a0: 42e9 0b3d b9f6 453e e3c3 b03d a332 49be
000001b0: f62f 153d e32f 7fbe 6c74 ae3b fcaf 24bd
000001c0: daae e6bc 1f08 04bd e0f4 f3bd ae35 80be
000001d0: 4cfe 3a3d e22e b3be b6a8 b53c d1bc 70be
000001e0: 0719 553c 8d32 27bd 037b c23d 632f 043e
000001f0: 7c98 0abe cebe 41be 36b5 9abc 564e 283e
00000200: 1b1b 88be b36f 28be 357d f23d 5ffb 4f3e
00000210: f7db 4abd f4a5 933d 1e2e 0abe b47a 4ebe
00000220: ce45 0fbe cf9c 9fbc 82c6 733e 831e 0b3e
00000230: 0480 993c 6a71 edbd 57aa ccbd 2f99 2d3e
00000240: 094b 6c3d 3264 ad3e 6c9f 01be d370 423e
00000250: c72b b4bd a48a 743e 1693 68be f9ac 8ebc
00000260: 5f86 863e 167b 83bd d58a 01be 376c caba
00000270: 4cb6 babc bdd2 33be 986f 9d3d 4125 803e
00000280: 1b78 063e 6baf 83be 4cba 1cbd df66 d23c
00000290: a11f 7a3e 2e27 87bd f334 5e3d 5616 4abe
000002a0: 879f b7bd f173 6dbd e615 b1bc 3e66 463e
000002b0: bdd2 1c3d fa90 f1bc ce2a 463d 38c3 5c3c
000002c0: c9df 623d 5b21 733e a670 c73d 3aa1 39be
000002d0: a0c2 b03d a03d 9d3e 250e 32be 5d8a 303e
000002e0: e3c1 3d3e d0df 18be 9bfb 3c3b 0915 07bc
000002f0: 8941 79bd 389c fd3d 7f9e 1f3e 1a36 b2be
00000300: 6802 123d 1c1c a13d 77aa d2bd 8446 1e3e
00000310: 0995 fe3d db55 a4bd b354 bb3d 4798 6f3d
00000320: a191 cc3d 9588 edbd 4261 633e 1204 833e
00000330: 43b7 6cbd 2839 8cbe 7332 3bbe 1231 bdbd
00000340: 2fc4 bbbd bfa9 ba3d a442 acbc 0874 8dbc
00000350: 61b5 48be bc1f 133e 413a c43c 2345 703d
00000360: 3a4a 1b3e c4da 883d 7a48 313d 4b25 afbb
00000370: 3e87 2a3d 7ed4 423e 815e 1abe 8125 98bd
00000380: 0cac 203d 133f 3e3b 70ca 963e 25f8 013d
00000390: ada2 07be 4a77 81bd 97fc 193e cdbf c83d
000003a0: dcbd 0cbc 2f05 48bc 1b72 1ebc 37cb 7e3c
000003b0: 3b30 9d3d 86b9 963d f2cf 8abe 274c 19be
000003c0: d3d3 b1be 75fa 79be b569 a8be 57c3 ac3c
000003d0: 804d 883d f91c abbd 1dc6 4dbe fa5a ddbd
000003e0: 8b81 943c c37a 6ebe 3a1b 943d cc38 88be
000003f0: f1c2 823d 2c2d 4fbe 1c58 e13d 7eea 463e

network_body.linear_encoder.seq_layers.2.bias f4 [256]
-0.018855236 0.015843393 0.0022398175 0.009833988 0.018933035 0.018743424 0.010158476 0.019169535
0.0062482255 -0.0031595665 -0.027306406 0.012832695 -0.01593639 0.011461442 -0.020116828 -0.035424888
-0.017761927 0.0054371003 0.003917139 0.011586619 -0.036718868 0.016144669 0.0069623347 0.0036857915
0.014777914 -0.008089494 -0.01399127 -0.018863592 0.005519843 -0.0035385531 -0.00027113385 0.008143222
-0.02942866 -0.011003669 0.009562649 0.013770851 0.022019776 0.0077730953 -0.0026179708 -0.012485036
0.0041032983 0.006393456 0.0015822151 -0.0037116837 0.0086294785 0.0017808164 0.015237634 0.018573215
0.019987939 0.011410395 -0.000937758 -0.024659496 0.015763866 -0.03080291 0.010567799 0.0035268092
-0.0038024324 -0.0012284707 -0.023228576 0.00061742356 -0.0008749556 0.0046059494 0.025774257 0.0067642597
0.0009430416 0.002994182 0.016337223 -0.017080758 -0.0031517006 -0.004986966 -0.017543165 -0.005446098
-0.019966941 -0.02937633 0.019337902 0.0053448835 0.008067716 -0.019819783 -0.03088767 -0.029040316
-0.035711873 -0.021124486 0.009718873 0.0129446965 0.036962096 0.017170146 -0.0027091457 -0.0016687274
0.0004407368 0.0070692836 0.0015346764 -0.017525837 -0.017561099 -0.012038047 0.014749753 0.0056892354
-0.03078993 -0.005301537 0.011135087 -0.03271432 -0.0030339109 0.018559966 -0.018885462 0.008361175
0.0101436 0.007986123 0.01579197 0.0027965042 -0.0049080397 -0.0055846614 0.005905013 -0.037618857
-0.024511084 -0.010356867 -0.027041253 0.009297648 -0.020964215 0.011354364 0.021165386 0.01821473
-0.0107768 -0.024871925 0.019369185 0.0013743966 -0.04114672 -0.0065833637 0.0070241853 0.021619838
0.016304854 0.006959076 -0.026425354 0.0051622596 -0.015329881 -0.02426118 0.0068206056 0.011642735
0.017222686 0.006450827 0.0023388136 -0.025382774 0.012743469 -0.03973631 0.01334926 0.0025857636
-0.034529973 -0.027176434 0.0015127478 0.0063255336 0.008784692 -0.0006924882 0.005409237 0.01286632
0.016096128 -0.0025987832 0.015236012 0.00780125 0.018326681 0.012565517 0.008418632 -0.0028742107
-0.0016547112 -0.012500272 -0.026872778 -0.0025341776 0.0063753733 -0.012391431 -0.004238899 -0.009140649
-0.01573474 0.0105467085 -0.00039071112 0.0046265693 0.010725045 0.0139697045 -0.00317354 0.016560914
-0.009921854 0.012644049 -0.0041238307 0.015152362 -0.0041401098 -0.0023055281 -0.0019825243 0.00012195762
0.015065407 0.005202079 0.01878561 -0.011504854 -0.021652667 0.018592494 -0.019971984 -0.011232518
-0.006449285 0.014404433 -0.025366485 0.021226494 -0.021454938 -0.011385976 -0.03399611 -0.0057969745
0.009359126 -0.004092142 -0.016253874 0.022370238 0.016365573 0.011192435 0.0060860915 0.003151446
0.015082608 0.018880185 0.011793312 0.021497445 -0.024275573 -0.025313513 -0.020817379 0.013959708
0.006041774 0.019726168 0.019188145 -0.028038226 0.010265499 0.005258908 0.010211538 0.00045997452
0.008157558 0.003950457 0.011995528 0.0024852736 0.017248081 0.014233767 0.003196998 -0.011721533
-0.0046623 -0.011718395 0.007220958 -0.013096342 0.019668313 0.019049933 0.01600857 -0.026296774
0.020094238 -0.010540119 0.01290259 0.021762159 -0.01075439 -0.024312368 0.005812024 0.028855424
-0.026337301 -0.02551925 0.0049021123 -0.011080913 -0.010682154 0.00925516 -0.03493611 0.00920866
00000000: 4c76 9abc 01ca 813c e7c9 123b bc1e 213c
00000010: 7419 9b3c cf8b 993c bd6f 263c 6e09 9d3c
00000020: eabd cc3b bb10 4fbb afb1 dfbc 3940 523c
00000030: 088d 82bc c6c8 3b3c 0ccc a4bc b019 11bd
00000040: 7681 91bc b429 b23b 585b 803b cdd5 3d3c
00000050: 8666 16bd d341 843c 4c24 e43b 528d 713b
00000060: 101f 723c cc89 04bc a43b 65bc d287 9abc
00000070: cddf b43b 12e7 67bb f826 8eb9 266b 053c
00000080: 6014 f1bc bc48 34bc a8ac 1c3c 239f 613c
00000090: d162 b43c 73b5 fe3b 4392 2bbb 098e 4cbc
000000a0: f674 863b 3280 d13b 5462 cf3a b83f 73bb
000000b0: a862 0d3c 486a e93a 45a7 793c db26 983c
000000c0: bfbd a33c aaf2 3a3c e0d3 75ba b602 cabc
000000d0: 3923 813c 6256 fcbc 9024 2d3c 0a22 673b
000000e0: 3b32 79bb a304 a1ba db49 bebc 98da 213a
000000f0: 475d 65ba 81ed 963b 8924 d33c b9a6 dd3b
00000100: 7336 773a 0a3a 443b a4d5 853c f2ec 8bbc
00000110: c38c 4ebb b469 a3bb afb6 8fbc 2e75 b2bb
00000120: b691 a3bc a1a6 f0bc 856a 9e3c 2224 af3b
00000130: 742e 043c 195d a2bc 2408 fdbc f5e5 edbc
00000140: 9d46 12bd 420d adbc e83b 1f3c fe15 543c
00000150: 9165 173d 68a8 8c3c ec8b 31bb 33b9 daba
00000160: b112 e739 73a5 e73b 3227 c93a 5892 8fbc
00000170: 4bdc 8fbc 3b3b 45bc f3a8 713c c46c ba3b
00000180: 2a3b fcbc 84b8 adbb f16f 363c 73ff 05bd
00000190: 94d4 46bb 120b 983c afb5 9abc 4ffd 083c
000001a0: 5831 263c 3ad8 023c 295e 813c 8e45 373b
000001b0: 9fd3 a0bb 89ff b6bb d77e c13b 3b16 1abd
000001c0: 78cb c8bc d9af 29bc 9e85 ddbc 2a55 183c
000001d0: 25bd abbc a807 3a3c 0863 ad3c 0f37 953c
000001e0: 2d91 30bc 35c0 cbbc 20ac 9e3c 1925 b43a
000001f0: 7789 28bd 42b9 d7bb 232b e63b 161c b13c
00000200: c291 853c f608 e43b fc79 d8bc 2c28 a93b
00000210: 2e2a 7bbc 62bf c6bc 637f df3b 2cc1 3e3c
00000220: 9716 8d3c 7561 d33b c846 193b 89ef cfbc
00000230: fcc9 503c 8ac2 22bd dbb6 5a3c ea75 293b
00000240: 4d6f 0dbd 1da1 debc 6547 c63a 6c46 cf3b
00000250: abed 0f3c 1988 35ba f83f b13b 42cd 523c
00000260: 07dc 833c 5950 2abb 77a0 793c a1a1 ff3b
00000270: d621 963c 99df 4d3c 4dee 093c 415d 3cbb
00000280: e5e2 d8ba f1cd 4cbc 4d24 dcbc 7214 26bb
00000290: 82e8 d03b 6e05 4bbc 76e6 8abb a9c2 15bc
000002a0: 24e6 80bc 1acc 2c3c 5cd8 ccb9 7a9a 973b
000002b0: 19b8 2f3c 30e1 643c 2bfb 4fbb c1aa 873c
000002c0: 468f 22bc fc28 4f3c 3321 87bb 9d41 783c
000002d0: c2a9 87bb 5818 17bb 3ded 01bb 80c3 ff38
000002e0: e6d4 763c 3476 aa3b 48e4 993c db7e 3cbc
000002f0: ef60 b1bc 494f 983c 499c a3bc 9808 38bc
00000300: 8654 d3bb 9200 6c3c 60cd cfbc 2fe3 ad3c
00000310: 44c2 afbc 3f8c 3abc 813f 0bbd 8cf4 bdbb
00000320: 0557 193c 6017 86bb d826 85bc ca41 b73c
00000330: 1811 863c 7a60 373c d66d c73b 7e88 4e3b
00000340: 0b1d 773c 9eaa 9a3c bc38 413c 691b b03c
00000350: 91dd c6bc 495e cfbc 3589 aabc 42b7 643c
00000360: 13fa c53b c698 a13c 7530 9d3c 6cb0 e5bc
00000370: a030 283c eb52 ac3b 4b4e 273c bc28 f139
00000380: 47a7 053c d672 813b e488 443c f9df 223b
00000390: d94b 8d3c bf34 693c ba84 513b ac0b 40bc
000003a0: 35c6 98bb 83fe 3fbc c99d ec3b 0a92 56bc
000003b0: 711f a13c 9b0e 9c3c 6824 833c 556c d7bc
000003c0: ac9c a43c 77b0 2cbc 6365 533c 8e46 b23c
000003d0: 2e33 30bc bb2a c7bc cb72 be3b 3662 ec3c
000003e0: 53c1 d7bc bf0d d1bc e6a1 a03b b88c 35bc
000003f0: 3404 2fbc f4a2 173c 2b19 0fbd ebdf 163c

network_body.linear_encoder.seq_layers.2.weight f4 [256, 256]
0.07702885 -0.040644497 0.07457268 -0.049281854 -0.07937834 0.09247853 -0.02579361 0.028693944
0.043513373 -0.012087804 -0.008076894 -0.05064849 -0.05122982 0.12672661 -0.08880481 0.0972691
-0.039762247 -0.06852494 -0.036245085 0.04445068 -0.029759422 0.019153709 -0.086041756 0.015788797
-0.06290845 -0.025490463 0.037150033 -0.10513538 -0.05180559 -0.080016695 -0.0006466319 -0.012869789
-0.027910272 -0.09229934 -0.07238717 -0.121582404 0.027122354 -0.07054479 -0.017359283 0.21280262
0.101830624 0.065237775 0.035979755 -0.08807475 0.030991932 0.02641525 -0.028332887 -0.074308455
-0.15547606 0.062022407 -0.04059224 0.042796068 -0.09215054 -0.10326919 0.026653856 -0.07095624
0.018750448 -0.00035078626 0.06181427 -0.088055454 -0.052102737 0.13276596 0.11462328 0.119586244
0.04773017 -0.01451873 -0.100222126 0.0699308 0.09733307 0.035834122 -0.03422596 -0.018068062
-0.13811947 -0.09875206 -0.071110114 0.033733685 -0.026857452 -0.1277934 -0.060785785 0.00986904
-0.008948054 -0.00083437515 -0.15514895 0.0916401 0.11663592 0.037416525 0.012670237 0.083926655
0.056583285 -0.018464036 0.07283708 0.033582374 -0.037163455 -0.030252751 -0.19480152 -0.03877299
-0.06895105 -0.10196167 -0.034110237 -0.086370245 -0.05082232 0.03084612 0.06657827 0.085173436
-0.04982599 -0.03906854 -0.03478998 -0.14808889 0.044722058 -0.010410817 -0.13224654 0.096681446
-0.09455949 0.092303306 -0.02370261 -0.20935611 0.020221874 -0.0061155558 -0.02657017 -0.0678697
-0.08422812 0.06551172 0.052903656 -0.115881845 0.11767157 -0.11840632 -0.017188203 0.06493194
0.0063742115 0.098162085 0.05234966 0.04325376 0.09952295 0.03727539 0.009867547 -0.017809916
0.06773358 -0.06444729 -0.0083195055 -0.008217878 -0.03691911 -0.08639429 0.008970897 0.06909528
0.06117838 -0.10502595 -0.05691139 -0.06930469 -0.051893692 0.047717277 0.037439942 0.1162304
-0.20481665 0.06367101 -0.047077924 -0.0028954218 -0.011001744 -0.09351111 -0.059066467 -0.15769736
0.08818712 -0.03467406 -0.13403639 0.09880207 -0.08842268 -0.0742855 -0.026249379 0.0708166
0.03940667 0.054481834 -0.041295238 0.036656987 -0.041115057 -0.016230205 -0.0067144213 -0.11150634
0.0009426678 -0.08839919 -0.09388357 0.0071523576 0.09774759 0.012341187 -0.061122052 0.022924095
0.05770859 0.02283981 0.04328832 -0.07084803 -0.021748424 -0.09153977 0.122243926 -0.09919542
-0.013131482 0.11803077 0.047825757 0.01132082 -0.02311533 -0.079243585 -0.022483233 -0.041318934
-0.09065438 0.011880395 -0.010198607 -0.20060976 -0.00056501303 -0.0025287329 -0.023232372 -0.11515381
0.09400178 0.020126605 0.016248066 -0.07997759 -0.15802577 0.11340591 -0.1006551 -0.027553257
-0.15272269 -0.049934894 -0.07320954 -0.08640301 0.005712655 0.0033119384 0.028620176 -0.07706641
-0.047777887 -0.053536188 -0.050075363 -0.036649592 0.07537602 -0.025056219 -0.03605924 -0.0327924
-0.15061074 -0.07440989 0.059311815 0.0054840636 -0.008465487 0.033133674 0.17292997 0.06844316
-0.059240885 -0.009233665 -0.049311113 -0.032756254 0.020322585 -0.029782802 0.08176746 0.005114401
0.0031998397 -0.042283922 -0.025055613 -0.054690126 -0.14342389 -0.03240243 -0.028120926 0.05762887
00000000: 4dc1 9d3d d87a 26bd 90b9 983d c5db 49bd
00000010: 1c91 a2bd 6265 bd3d 1f4d d3bc 900f eb3c
00000020: 143b 323d ed0b 46bc f354 04bc cb74 4fbd
00000030: 5cd6 51bd 9fc4 013e 4cdf b5bd 0635 c73d
00000040: bddd 22bd ce56 8cbd ba75 14bd eb11 363d
00000050: 08ca f3bc 3de8 9c3c a936 b0bd 8257 813c
00000060: 25d6 80bd 60d1 d0bc a22a 183d 3851 d7bd
00000070: 1932 54bd cbdf a3bd bb82 29ba cfdb 52bc
00000080: 15a4 e4bc 7007 bdbd b93f 94bd 3200 f9bd
00000090: b32f de3c c979 90bd 0e35 8ebc eee8 593e
000000a0: 938c d03d 629b 853d 825f 133d 8960 b4bd
000000b0: cbe2 fd3c cb64 d83c 5f1a e8bc 082f 98bd
000000c0: 1e35 1fbe 350b 7e3d 0c44 26bd ee4a 2f3d
000000d0: 6cb9 bcbd cc7e d3bd 3059 da3c 8151 91bd
000000e0: 8a9a 993c bce9 b7b9 f630 7d3d 6b56 b4bd
000000f0: ae69 55bd cdf3 073e 9cbf ea3d a2e9 f43d
00000100: b680 433d f8df 6dbc 4241 cdbd e137 8f3d
00000110: 9056 c73d cdc6 123d 8530 0cbd 7903 94bc
00000120: 316f 0dbe 853e cabd 2ea2 91bd 552c 0a3d
00000130: 2904 dcbc 46dc 02be 84fa 78bd c1b1 213c
00000140: dc9a 12bc f8b9 5aba 5edf 1ebe cead bb3d
00000150: d0de ee3d 1242 193d d396 4f3c bde1 ab3d
00000160: e0c3 673d e441 97bc 9b2b 953d ac8d 093d
00000170: b538 18bd 9ed4 f7bc 0d7a 47be 6dd0 1ebd
00000180: 3536 8dbd 48d1 d0bd 2db7 0bbd e2e2 b0bd
00000190: 112b 50bd 01b1 fc3c 305a 883d 696f ae3d
000001a0: 5616 4cbd 5506 20bd f07f 0ebd 9da4 17be
000001b0: 7a2e 373d 2292 2abc a36b 07be ec00 c63d
000001c0: 68a8 c1bd 8409 bd3d fa2b c2bc 7361 56be
000001d0: 58a8 a53c 0065 c8bb afa9 d9bc 45ff 8abd
000001e0: cb7f acbd 022b 863d 81b1 583d 7653 edbd
000001f0: cbfd f03d 037f f2bd 46ce 8cbc 09fb 843d
00000200: c3de d03b 3409 c93d 996c 563d db2a 313d
00000210: b0d2 cb3d 14ae 183d 7eab 213c 1ae6 91bc
00000220: e7b7 8a3d f1fc 83bd 894e 08bc 47a4 06bc
00000230: 7e38 17bd 7def b0bd abfa 123c d381 8d3d
00000240: 2e96 7a3d d817 d7bd eb1b 69bd 9eef 8dbd
00000250: 7b8e 54bd 3173 433d a05a 193d 340a ee3d
00000260: 75bb 51be f265 823d c8d4 40bd 1ec1 3dbb
00000270: a940 34bc c182 bfbd aeef 71bd 6b7b 21be
00000280: 739b b43d 6306 0ebd d640 09be bd58 ca3d
00000290: f316 b5bd ff22 98bd f008 d7bc 4b08 913d
000002a0: e368 213d 5828 5f3d 3225 29bd a325 163d
000002b0: 4368 28bd 35f5 84bc a604 dcbb 705d e4bd
000002c0: 5d1d 773a a20a b5bd 0746 c0bd 535e ea3b
000002d0: e32f c83d b132 4a3c 1e5b 7abd 50cb bb3c
000002e0: d85f 6c3d 8e1a bb3c 184f 313d c618 91bd
000002f0: c029 b2bc 3479 bbbd 065b fa3d f826 cbbd
00000300: 6d25 57bc 1eba f13d f1e4 433d f67a 393c
00000310: 5c5c bdbc 764a a2bd c22e b8bc 0b3e 29bd
00000320: 01a9 b9bd fda5 423c 0f18 27bc a56c 4dbe
00000330: 621d 14ba 19b9 25bb d151 bebc c3d5 ebbd
00000340: 0184 c03d 8de0 a43c aa1a 853c 4acb a3bd
00000350: 82d1 21be 5c41 e83d 4324 cebd 5eb7 e1bc
00000360: 5663 1cbe 8888 4cbd e2ee 95bd 10f4 b0bd
00000370: 3931 bb3b 1b0d 593b dc74 ea3c fed4 9dbd
00000380: bfb2 43bd c348 5bbd d31b 4dbd e21d 16bd
00000390: be5e 9a3d b342 cdbc dbb2 13bd 5351 06bd
000003a0: b439 1abe 3664 98bd f2f0 723d a9b3 b33b
000003b0: d3b2 0abc 2db7 073d 8e14 313e ed2b 8c3d
000003c0: 92a6 72bd cc48 17bc 73fa 49bd 6c2b 06bd
000003d0: 8d7b a63c 10fb f3bc b375 a73d b596 a73b
000003e0: 67b4 513b e831 2dbd 6e41 cdbc c102 60bd
000003f0: b6dd 12be 69b8 04bd db5d e6bc 400c 6c3d

network_body.linear_encoder.seq_layers.4.bias f4 [256]
0.012306641 0.02026917 -0.0042100563 0.029902723 -0.0040913043 0.018904706 0.04126937 0.014628958
0.024238236 0.011924765 0.016042026 -0.01149774 -0.000100605626 -0.0033832276 0.008643504 0.029456222
-0.024245419 -0.019634666 -0.029168693 -0.0235643 -0.010855534 -0.003133009 0.03076733 -0.0033969013
-0.0100513045 0.0060231024 -0.017250486 -0.012496811 0.0006119236 0.03653561 0.018634928 0.015910443
0.0042421725 -0.005877371 -0.0006813159 -0.0055181948 0.039470613 0.011585864 0.021879813 0.01215752
-0.033802856 0.023474373 0.021374889 0.040996633 -0.007011236 -0.0029987292 0.022560554 -0.01769649
0.022432009 0.0121917585 -0.03688681 -0.028387604 0.026973851 0.005246936 0.01528764 -0.008740995
0.043019425 0.014998852 -0.025729176 0.02908822 -0.023860414 -0.01340504 0.022295753 0.026670137
0.022175597 -0.009865844 0.011865915 0.014293366 -0.014406743 0.008090289 0.036442496 0.009988987
0.017548937 -0.007497051 -0.009513489 -0.016969131 -0.014572577 -0.02217198 -0.0018264309 0.021271903
-0.011433178 -0.0051055937 -0.007209653 -0.014849023 0.01725486 -0.020155288 0.0029432501 0.040459834
-0.008823418 0.011900946 -0.025963811 -0.024917822 0.011150185 0.0012629576 0.022719027 0.0055821855
-0.017434841 0.0031005996 0.013430334 0.029375736 -0.01654269 0.019422056 -0.018235458 -0.00069291133
-0.018663801 0.021581832 0.010502906 -0.0074432353 -0.013273285 -0.0038430982 0.018638507 0.00025315853
-0.01880904 -0.0077481326 -0.004112709 -0.0113549195 0.03955086 -0.00090193865 0.029084736 0.011330166
0.026458656 0.0066394294 -0.021691438 -0.020940838 0.0053079347 0.030343037 -0.012704527 -0.023523668
0.010650072 -0.0017523644 -0.005915273 0.026577255 -0.022507716 -0.014138191 0.038237996 0.025905935
0.02501023 -0.01122905 -0.006694566 -0.008691273 -0.027399719 0.01205848 0.013186101 -0.020942025
-0.009508893 -0.012643097 -0.020600822 -0.020506741 0.025441203 0.015260172 0.040237464 0.0056801843
0.008019986 -0.008039099 0.010398043 -0.021094484 0.017096462 -0.019665854 -0.0006961866 -0.0038149627
-0.0011170885 -0.017002702 0.027580185 -0.011955311 -0.028426042 -0.005767597 0.049470868 0.028361253
-0.005779137 -0.022554541 -0.0075977365 -0.011060747 -0.026388725 -0.014812617 -0.013556293 0.018718123
-0.026071906 0.010882472 0.01143055 -0.02092671 -0.012945389 0.00011575784 -0.02001546 -0.02379567
0.048606154 0.018037083 0.008616255 -0.0058519747 0.01934538 0.007769912 -0.011374195 -0.014308977
-0.015144967 0.018239506 -0.02464175 0.017650792 -0.022041377 -0.0065111965 -0.022127634 0.0016875048
-0.021972947 0.008864913 -0.02507232 -0.003273938 -0.014085159 -0.026869822 0.013160545 -0.007674094
-0.01384976 0.0055273683 -0.009930501 0.017142469 -0.016993849 -0.00497147 0.041844856 0.007832524
-0.03625201 -0.016339876 0.016636917 -0.024559759 -0.0012972507 0.022503283 -0.024464805 0.03593147
0.01934804 -0.0045792544 -0.020967864 0.015561127 -0.01505079 0.028733838 0.013241274 0.01289961
0.010853977 0.0035044034 -0.029310502 -0.011041445 -0.015469073 -0.024268785 -0.015692545 -0.023280818
-0.004530888 -0.01770835 -0.012908032 0.012504945 0.010857053 -0.011376629 0.015910488 -0.01424362
0.020852135 0.011459141 0.012945227 -0.026232718 -0.01100752 0.016844897 -0.018247725 0.017680347
00000000: cba1 493c 880b a63c 83f4 89bb 8ef6 f43c
00000010: 5910 86bb 0bde 9a3c 120a 293d 4cae 6f3c
00000020: 448f c63c 1760 433c 916a 833c 0461 3cbc
00000030: 3cfc d2b8 24b9 5dbb 7c9d 0d3c 2d4e f13c
00000040: 549e c6bc e1d8 a0bc 2ff3 eebc eb09 c1bc
00000050: 69db 31bc 2b53 4dbb c50b fc3c 8c9e 5ebb
00000060: 3aae 24bc 725d c53b e450 8dbc 6dbf 4cbc
00000070: 7f69 203a 5da6 153d 47a8 983c 9e56 823c
00000080: ec01 8b3b f696 c0bb 569a 32ba f9d1 b4bb
00000090: f0ab 213d a3d2 3d3c 4b3d b33c 5630 473c
000000a0: dd74 0abd 544d c03c 641a af3c 16ec 273d
000000b0: 83be e5bb 5486 44bb e9d0 b83c 3bf8 90bc
000000c0: 55c3 b73c f1bf 473c a016 17bd 1f8d e8bc
000000d0: 44f8 dc3c 7dee ab3b 0279 7a3c 6436 0fbc
000000e0: 2335 303d bfbd 753c fec5 d2bc 6b4a ee3c
000000f0: ea76 c3bc d0a0 5bbc 95a5 b63c 557b da3c
00000100: 99a9 b53c 59a4 21bc 4169 423c b92e 6a3c
00000110: 430a 6cbc 228d 043c ba44 153d d9a8 233c
00000120: cac2 8f3c d2a9 f5bb 77de 1bbc d902 8bbc
00000130: d1c1 6ebc 03a2 b5bc da64 efba 6a42 ae3c
00000140: 3952 3bbc d34c a7bb f43e ecbb 5149 73bc
00000150: 105a 8d3c b41c a5bc 8be3 403b 36b9 253d
00000160: 1990 10bc 2ffc 423c 0fb2 d4bc 7620 ccbc
00000170: 44af 363c d389 a53a 411d ba3c c4ea b63b
00000180: 83d3 8ebc 6e33 4b3b e70a 5c3c 62a5 f03c
00000190: 8984 87bc 011b 9f3c 8762 95bc 7ea4 35ba
000001a0: d4e4 98bc 62cc b03c 6114 2c3c 62e6 f3bb
000001b0: 3178 59bc 7ddc 7bbb c8af 983c 5dba 8439
000001c0: 6a15 9abc 0ce4 fdbb e7c3 86bb fc09 3abc
000001d0: 1500 223d 1470 6cba 1d43 ee3c 29a2 393c
000001e0: d3bf d83c 928f d93b 3eb2 b1bc 1f8c abbc
000001f0: 2fee ad3b f691 f83c a626 50bc b5b4 c0bc
00000200: a47d 2e3c 98af e5ba e8d4 c1bb 8bb8 d93c
00000210: 1a62 b8bc dfa3 67bc 729f 1c3d af38 d43c
00000220: 41e2 cc3c 0dfa 37bc 175e dbbb d765 0ebc
00000230: 6075 e0bc ee90 453c 840a 583c 9c8e abbc
00000240: 30cb 1bbc fe24 4fbc 0ec3 a8bc c1fd a7bc
00000250: 126a d03c cd05 7a3c 0ad0 243d d720 ba3b
00000260: 4266 033c 6db6 03bc 8e5c 2a3c 57ce acbc
00000270: e10d 8c3c 491a a1bc 4b80 36ba 7404 7abb
00000280: 456b 92ba 4049 8bbc d7ef e13c 35e0 43bc
00000290: bbdd e8bc 1cfe bcbb f7a1 4a3d dc55 e83c
000002a0: ea5e bdbb 4dc4 b8bc 6ff6 f8bb 2338 35bc
000002b0: 2b2d d8bc 9eb0 72bc 371b 5ebc c056 993c
000002c0: c094 d5bc 654c 323c 3447 3b3c 7e6e abbc
000002d0: e618 54bc 04c3 f238 76f7 a3bc 23ef c2bc
000002e0: 3f17 473d 81c2 933c 312b 0d3c ecc1 bfbb
000002f0: 347a 9e3c bf9a fe3b d55a 3abc 3370 6abc
00000300: 9822 78bc 046b 953c 7fdd c9bc 6598 903c
00000310: 1e90 b4bc e05b d5bb 0345 b5bc 442f dd3a
00000320: 9c00 b4bc 243e 113c 7764 cdbc 918f 56bb
00000330: 70c5 66bc 1a1e dcbc 549f 573c f776 fbbb
00000340: 1bea 62bc ed1e b53b 8ab3 22bc 5d6e 8c3c
00000350: af36 8bbc b7e7 a2bb 8365 2b3d fd53 003c
00000360: fd7c 14bd 34db 85bc 254a 883c 8c31 c9bc
00000370: 8308 aaba ce58 b83c 6a6a c8bc e12c 133d
00000380: c87f 9e3c 920d 96bb ccc4 abbc 19f4 7e3c
00000390: 9797 76bc 3a63 eb3c eef1 583c e358 533c
000003a0: e1d4 313c 22aa 653b 941c f0bc 2de7 34bc
000003b0: ff71 7dbc 55cf c6bc a78d 80bc 6ab7 bebc
000003c0: d877 94bb 1a11 91bc 367c 53bc 8ae1 4c3c
000003d0: c8e1 313c 0a65 3abc b656 823c 135e 69bc
000003e0: 19d2 aa3c 1fbf 3b3c 3818 543c ffe5 d6bc
000003f0: e358 34bc 4ffe 893c 417c 95bc 60d6 903c

network_body.linear_encoder.seq_layers.4.weight f4 [256, 256]
0.012194798 -0.0004267239 -0.11896903 0.13917096 0.08311333 0.031066025 0.0065019475 -0.08252272
0.047682993 -0.09923359 -0.036883224 0.037851375 -0.022839753 0.056783833 -0.107873134 0.027142553
0.11707002 0.109987915 0.052915122 0.1705377 0.059294995 -0.01683672 -0.012299433 -0.060292333
-0.00062511675 0.018460134 -0.036549263 -0.099888764 0.036009487 -0.058346882 0.09011839 -0.026837254
0.0043571414 -0.09787349 0.008406615 -0.007221397 -0.22014539 0.102628194 -0.0046583507 0.06402383
0.050216347 0.019804036 0.07411253 0.04056579 0.026003351 0.021614447 -0.17101064 0.09791424
-0.14513478 0.04209802 0.036491707 0.059879348 -0.05717792 -0.15830898 -0.020109206 -0.17469652
0.0856606 -0.005512306 0.0505166 0.15644686 0.011676133 0.016661063 -0.06775309 -0.10508033
0.059910875 0.1330629 -0.09751424 0.026579004 -0.05630942 0.027047213 -0.05697192 0.09028514
0.011142457 0.02537132 0.06709809 -0.012625682 -0.050514966 -0.09565974 0.002200778 0.034699395
-0.015628355 -0.015437413 0.14207813 -0.011507718 -0.069850154 -0.017423987 0.017498014 -0.14556257
-0.019018086 0.034686342 -0.06843717 0.098269865 -0.0102902595 -0.007971834 -0.022543473 0.08628444
0.059791993 0.05581084 0.06925949 0.04073138 -0.11480463 0.0066835675 -0.035436716 0.038096547
0.06482495 -0.011169836 -0.009459984 0.0091713695 0.011528734 -0.06835618 -0.021337885 0.036114074
0.034595653 0.07331887 0.01986923 0.09087221 -0.0070208875 -0.055797093 0.033322003 0.08006226
0.03467831 0.085310414 0.048540156 0.19126827 0.005720873 0.12124049 -0.06555662 -0.093706146
-0.07722995 0.057883475 -0.009645829 -0.057133235 0.038979176 -0.06846511 0.036968037 0.04395382
-0.065239266 -0.05205948 -0.014647645 -0.1267251 -0.04142828 -0.011604892 -0.054896817 -0.03885809
-0.08299801 -0.06990048 -0.061835203 0.071089685 -0.051576346 0.051066175 0.037569143 0.050747447
0.05495093 -0.024015732 0.09727011 -0.06565799 -0.21918592 -0.074651465 0.023407854 0.051695876
0.0194981 0.112816416 -0.0016272737 0.011594048 0.06975253 -0.038621265 0.039994944 0.03221662
-0.023247963 0.04220539 0.07001954 -0.10148405 -0.17182545 0.08326217 0.1172702 0.045957062
0.09882786 0.027432164 0.18953274 0.069925934 0.0034522759 -0.011195852 0.15048654 -0.015217072
0.003008884 0.02797316 -0.035939407 -0.039639987 -0.042402297 -0.025525073 -0.00027539596 0.054343782
0.056232177 -0.014737944 0.062429514 0.07667554 -0.031189865 0.048657138 0.026743107 -0.019644199
0.099137016 0.0966322 -0.06745937 -0.19690566 0.044536293 0.023037178 0.058916934 -0.042259213
0.078974545 -0.061996896 -0.05523785 0.08221668 0.083725385 -0.022831134 0.025167767 -0.05940041
-0.11196717 -0.07362008 -0.18644024 -0.12724769 0.19516239 -0.049795114 -0.03281092 0.00085630064
0.102838665 -0.05649253 -0.009804871 0.019458102 0.042427253 0.01020589 -0.09403622 -0.01238767
0.12802012 -0.08756584 0.17900848 0.075632766 0.00010477819 0.028245684 -0.020541865 0.094177365
-0.048483364 -0.040078048 0.11180268 -0.066669956 -0.10815554 0.014238975 0.028450767 -0.20295246
0.19463894 -0.14789918 0.11969604 0.088543504 -0.00061060645 0.0788793 0.04504053 -0.0727257
00000000: b1cc 473c eab9 dfb9 09a6 f3bd d582 0e3e
00000010: 5237 aa3d 2d7e fe3c 4a0e d53b ac01 a9bd
00000020: 3e4f 433d fb3a cbbd dd12 17bd 0b0a 1b3d
00000030: 6f1a bbbc 2a96 683d 97ec dcbd 0f5a de3c
00000040: 68c2 ef3d 5841 e13d 87bd 583d 6fa1 2e3e
00000050: 4fdf 723d 29ed 89bc 9083 49bc 18f5 76bd
00000060: e0de 23ba b539 973c aeb4 15bd 7b92 ccbd
00000070: af7e 133d 24fd 6ebd fe8f b83d cdd9 dbbc
00000080: 5ac6 8e3b e571 c8bd e6bb 093c 78a1 ecbb
00000090: cb6d 61be bb2e d23d 14a5 98bb ed1e 833d
000000a0: a8af 4d3d 133c a23c 4fc8 973d 5028 263d
000000b0: fb04 d53c c810 b13c 6a1d 2fbe 4387 c83d
000000c0: 369e 14be f96e 2c3d 5478 153d 0c44 753d
000000d0: 6533 6abd c01b 22be 10bc a4bc a5e3 32be
000000e0: d36e af3d 93a0 b4bb 7fea 4e3d 9b33 203e
000000f0: 404d 3f3c c87c 883c 22c2 8abd 5b34 d7bd
00000100: 1b65 753d a441 083e 8cb5 c7bd 36bc d93c
00000110: b5a4 66bd 1e92 dd3c 635b 69bd 6ae7 b83d
00000120: da8e 363c 84d7 cf3c b96a 893d f3db 4ebc
00000130: c8e8 4ebd 41e9 c3bd ee3a 103b f420 0e3d
00000140: 0907 80bc 34ed 7cbc ee7c 113e de8a 3cbc
00000150: 990d 8fbd c0bc 8ebc ff57 8f3c 5b0e 15be
00000160: d1cb 9bbc 4413 0e3d c928 8cbd b641 c93d
00000170: 7a98 28bc 4c9c 02bc 17ad b8bc e5b5 b03d
00000180: 73e8 743d e899 643d ebd7 8d3d f3d5 263d
00000190: b11e ebbd d401 db3b 1726 11bd 200b 1c3d
000001a0: f2c2 843d b001 37bc 0cfe 1abc 8343 163c
000001b0: 04e3 3c3c 53fe 8bbd cacc aebc 5aec 133d
000001c0: 2cb4 0d3d 3428 963d ccc4 a23c 361b ba3d
000001d0: 790f e6bb 7e8b 64bd a77c 083d aff7 a33d
000001e0: d80a 0e3d 3ab7 ae3d 0bd2 463d d4db 433e
000001f0: 2976 bb3b ef4c f83d 8d42 86bd 02e9 bfbd
00000200: bc2a 9ebd 3917 6d3d 8a09 1ebc 8a04 6abd
00000210: a1a8 1f3d 7037 8cbd cc6b 173d ec08 343d
00000220: 2a9c 85bd 523c 55bd adfc 6fbc 3ac4 01be
00000230: b3b0 29bd 7222 3ebc 7cdb 60bd a929 1fbd
00000240: dcfa a9bd fc27 8fbd e946 7dbd 7897 913d
00000250: b841 53bd c42a 513d 1ae2 193d 8edc 4f3d
00000260: 3a14 613d a4bc c4bc 8d35 c73d b277 86bd
00000270: 4672 60be dee2 98bd d4c1 bf3c 0ebf 533d
00000280: 7bba 9f3c 4b0c e73d 3f4a d5ba f6f4 3d3c
00000290: 6ada 8e3d 5531 1ebd bdd1 233d 93f5 033d
000002a0: 8372 bebc 8fdf 2c3d 6866 8f3d dfd6 cfbd
000002b0: 03f3 2fbe 5b85 aa3d 5c2b f03d 793d 3c3d
000002c0: 4366 ca3d 6bb9 e03c df14 423e 5435 8f3d
000002d0: 943f 623b cf6e 37bc 2519 1a3e 0751 79bc
000002e0: b230 453b f827 e53c 3335 13bd 8a5d 22bd
000002f0: 08ae 2dbd f519 d1bc 0563 90b9 9697 5e3d
00000300: b653 663d 6b77 71bc 17b6 7f3d 1108 9d3d
00000310: e381 ffbc b54c 473d 5c14 db3c dfec a0bc
00000320: 5908 cb3d 1ae7 c53d 2328 8abd a3a1 49be
00000330: b06b 363d 77b8 bc3c e252 713d ff17 2dbd
00000340: 68bd a13d 75f0 7dbd 1541 62bd 3861 a83d
00000350: 3778 ab3d 5c08 bbbc a22c ce3c d84d 73bd
00000360: 0b4f e5bd 20c6 96bd 31ea 3ebe 384d 02be
00000370: a6d8 473e f6f5 4bbd be64 06bd 5d79 603a
00000380: 149d d23d b664 67bd 9ca4 20bc 9966 9f3c
00000390: 33c8 2d3d 9b36 273c 1096 c0bd a7f5 4abc
000003a0: b517 033e b855 b3bd 004e 373e 5ae5 9a3d
000003b0: 5dbc db38 7e63 e73c 6a47 a8bc 10e0 c03d
000003c0: 7e96 46bd e128 24bd cef8 e43d 428a 88bd
000003d0: a780 ddbd 974a 693c 9511 e93c c5d2 4fbe
000003e0: 6e4f 473e e272 17be 3323 f53d 4c56 b53d
000003f0: 1b11 20ba 788b a13d 6b7c 383d 36f1 94bd
