RobotTraining_PathPlanning/Assets/NNModels/RobotUR10_rbpp_03.onnx (onnx, 555573 bytes, 9 tensors)

action_model._continuous_distribution.log_sigma f4 [1, 5]
0	0xbfd256fd	-1.6432797
1	0xbfe4cb17	-1.7874478
2	0xbf14ca30	-0.58121014
3	0xbed79dbc	-0.4211253
4	0xbfa9c073	-1.3261856

action_model._continuous_distribution.mu.bias f4 [5]
0	0xbbf729be	-0.007542818
1	0xbca5da93	-0.020245826
2	0xbd1ffb3c	-0.039057955
3	0xbd22b368	-0.039721876
4	0x3cce84a1	0.025209727

action_model._continuous_distribution.mu.weight f4 [5, 256]
0	0xbb9a4beb	-0.004708757
1	0x3b3e8ecc	0.0029076813
2	0x3c9a643d	0.018846625
3	0xbcf710ae	-0.03015932
4	0x3e093dd4	0.13402492
5	0xbc908ed0	-0.017646223
6	0xbc869c3d	-0.016431922
7	0xbcb8a1da	-0.022538114
8	0x3d3fbd6d	0.04681151
9	0xbbc7e75e	-0.006100579
10	0xbc989074	-0.018623568
11	0xbb4f96f1	-0.0031675661
12	0xbc8e9f79	-0.017410027
13	0xbd2e1f14	-0.042510107
14	0xbc04b98b	-0.0081008775
15	0xbd318a60	-0.043344855
16	0x3c946cea	0.01811834
17	0x3bac867a	0.0052650543
18	0xbc8563a6	-0.016282868
19	0xbcd23d50	-0.025664002
20	0x3c6ca65f	0.014443963
21	0xbbb6c010	-0.005577095
22	0xbc38ed22	-0.011287006
23	0x3d26c763	0.040717494
24	0x3d91b6bf	0.07114934
25	0x3d40f3f2	0.047107644
26	0x3c8a6463	0.016893571
27	0x3c655ef1	0.013999687
28	0xbd20c6b4	-0.039251998
29	0xbb7d38b6	-0.0038638539
30	0x3cbef2ad	0.023309076
31	0xbb42ef10	-0.0029744543
32	0xbb45e3cc	-0.0030195592
33	0xb9da0f6f	-0.000415917
34	0x3b584208	0.0032998342
35	0x3b87d271	0.0041449596
36	0x3ceb8660	0.028750598
37	0x3bca20a3	0.0061684414
38	0xbae3377d	-0.0017335262
39	0x3b8ae077	0.004238184
40	0xbc91c0ee	-0.017792191
41	0xbd32159f	-0.04347765
42	0x3bd05d84	0.006358804
43	0x3a5f409f	0.0008516404
44	0x3bd6187a	0.0065336796
45	0x3b4e0e2b	0.003144155
46	0xbbaa3fa2	-0.005195574
47	0x3d2b2d38	0.04179117
48	0x3bacb7b0	0.0052709207
49	0x3b8e12df	0.0043357457
50	0xbc29542a	-0.010335008
51	0x3d25ac9d	0.04044782
52	0xb8bbc751	-8.9539804e-05
53	0x3c6d130c	0.014469873
54	0x3c112b90	0.008860484
55	0xbcdca846	-0.026935708
56	0xbac35df0	-0.0014905315
57	0xb956108c	-0.00020414795
58	0x3c391ae7	0.011297918
59	0xbd5ca7c8	-0.053870946
60	0x3cc6569e	0.024211224
61	0x3c6aa5f9	0.0143217975
62	0x3ca3000e	0.019897487
63	0xbc1410b1	-0.009037183
64	0x3d0b6ea2	0.034041055
65	0x3ca41f48	0.020034447
66	0xb98c97d2	-0.00026815996
67	0xbd2840e3	-0.041077506
68	0x3b7917b7	0.003800852
69	0x394480ae	0.00018739954
70	0x39b51899	0.00034541337
71	0xbc27f78f	-0.010251894
72	0x3cb3f2c8	0.021966353
73	0x3c5e1328	0.013554372
74	0xbb46c102	-0.0030327444
75	0xbc377a71	-0.011198626
76	0x3b478fb7	0.003045065
77	0xbdaee54e	-0.0853983
78	0x3c72ee85	0.014827375
79	0x3b46b8a6	0.0030322461
80	0xbcf3a7eb	-0.029743155
81	0x3c8531fa	0.016259182
82	0xbba17550	-0.004927315
83	0xbd19e9bd	-0.037576426
84	0xbcce43b6	-0.025178771
85	0xbd7fc3cb	-0.062442582
86	0x3d9a25ea	0.07526763
87	0x3d49781f	0.049186822
88	0xbbcd8624	-0.0062720943
89	0x3d069c6f	0.03286403
90	0x3c785c14	0.015158672
91	0xbcf60c4e	-0.030035164
92	0xbc0be956	-0.008539518
93	0x3c0edb9a	0.008719349
94	0x3cdf8441	0.027284743
95	0x3d039a99	0.032129858
96	0x3d962f87	0.07333284
97	0x3bcbedfb	0.006223438
98	0xbca525e9	-0.020159679
99	0x3c98f64b	0.01867213
100	0xbd2e5161	-0.042558078
101	0xbcb7da86	-0.022443067
102	0x3d03405f	0.03204381
103	0xbd8e72fd	-0.06955526
104	0xbcf18475	-0.029482106
105	0x3ce13f0f	0.027495889
106	0x3b544587	0.0032390074
107	0x3c4bc5e2	0.012437316
108	0x3c81840e	0.015810039
109	0x3c57ab77	0.013163439
110	0xbc40457d	-0.011735317
111	0xbbcb7904	-0.0062094945
112	0x3c33ab42	0.010966124
113	0x3bcb843f	0.0062108333
114	0xbd8349a0	-0.06410527
115	0x3cd6c5bd	0.026217336
116	0x3d09b885	0.033623237
117	0x3b53622b	0.0032254558
118	0x3caf7f8f	0.02142313
119	0xbc892d4f	-0.016745238
120	0x3cb5e619	0.022204446
121	0xbd04c242	-0.03241182
122	0x3c6005db	0.013673271
123	0x3c1038f1	0.008802638
124	0x3c77a7da	0.0151157025
125	0x3c7ba6e8	0.015359618
126	0xbdb4b8bb	-0.08824297
127	0xbcb75568	-0.022379592
128	0xbb9b054c	-0.004730856
129	0x3aabb6a6	0.0013100698
130	0xbd08a327	-0.03335872
131	0xbc69434a	-0.014237234
132	0x3cd7269f	0.026263533
133	0x3cbb92d4	0.022897162
134	0x3c903ccc	0.017607115
135	0xbc76605e	-0.015037624
136	0xbc82a6a9	-0.01594861
137	0x3caaedbc	0.020865314
138	0xbcc2f607	-0.023798956
139	0xbb94abda	-0.004537088
140	0xbd607c28	-0.054805905
141	0x3d0fd75e	0.0351175
142	0x3bdee87d	0.006802617
143	0x3ce24f4e	0.027625706
144	0x3c3d0b0d	0.011538279
145	0xbc97c968	-0.018528655
146	0xb9e16b9f	-0.00042995528
147	0x3c5c8b06	0.01346088
148	0xbc5c3818	-0.013441108
149	0x3ce08a1e	0.02740961
150	0xbbd3903c	-0.006456403
151	0xbc9fb5bb	-0.019495836
152	0x396704cc	0.00022031664
153	0x3d012181	0.031526092
154	0x3b947616	0.0045306785
155	0xbc8f75f1	-0.017512294
156	0xbdf233a2	-0.118262544
157	0x3cb1b6c2	0.021693591
158	0x3c47b72f	0.0121896705
159	0x3b9fc478	0.004875716
160	0x3b22bc62	0.0024831523
161	0x3cf35744	0.029704697
162	0x3c657ecc	0.0140072815
163	0x3c10ea6f	0.008844956
164	0xbb080445	-0.0020754498
165	0x3cf28b36	0.029607397
166	0xbb773a45	-0.003772394
167	0x3d0cdbfd	0.034389485
168	0xbca96e6d	-0.020682538
169	0xbcae86db	-0.021304538
170	0xbb1e1ed8	-0.002412727
171	0xbc813289	-0.015771167
172	0x3c8cb720	0.017177165
173	0xbb4916ed	-0.003068383
174	0x3a9d7593	0.0012013189
175	0x3d3ddb15	0.04635151
176	0x3c7a2ae0	0.015269011
177	0x3d3ddbaf	0.046352085
178	0x3b7dff86	0.003875704
179	0x3c3d2955	0.011545499
180	0xbc56e294	-0.013115544
181	0xbbfbda04	-0.0076859016
182	0x3c13aeb8	0.009013824
183	0x3c984890	0.018589288
184	0x3c9449f8	0.018101677
185	0x3b828511	0.003983148
186	0x3bc5ad4f	0.006032623
187	0x3c77ead9	0.015131676
188	0x3c890cdf	0.01672977
189	0xbbb64247	-0.0055621
190	0x3c8dd23e	0.017312165
191	0xbd01e36f	-0.03171104
192	0xb999b748	-0.0002931899
193	0x3c9a5c03	0.018842703
194	0xbc0590ee	-0.00815223
195	0xbc2c4ce7	-0.010516382
196	0xbcdbaa29	-0.026814537
197	0x3c756c89	0.01497949
198	0x3c5f5928	0.013632096
199	0x3ab8d568	0.0014101686
200	0xbc44506b	-0.011982064
201	0x3c02c687	0.007981903
202	0xbd133fc1	-0.035949472
203	0x3d66cf23	0.056349885
204	0x3c5017c9	0.012700983
205	0xbc87a534	-0.016558267
206	0x3d1ce877	0.038307633
207	0xbba16bcd	-0.004926181
208	0xbc4efad4	-0.012633044
209	0x3ba5938e	0.0050529903
210	0x3bbbf983	0.005736531
211	0x3c7a7ca9	0.01528851
212	0xbc01ab0c	-0.007914316
213	0xbc933d91	-0.017973693
214	0xbccc97ff	-0.024974821
215	0x3cda4e23	0.026648587
216	0xbdfa874f	-0.12232839
217	0x3c74466a	0.014909366
218	0xbcc69006	-0.024238598
219	0xba985196	-0.0011620994
220	0x3bab866f	0.0052345316
221	0x3bb129f8	0.0054066144
222	0x3cb7cc36	0.022436243
223	0xbbe35ef1	-0.006938808
224	0xbbeb787b	-0.0071859933
225	0x3cb0e080	0.021591425
226	0x37be69a2	2.2698954e-05
227	0xbbf48224	-0.007461803
228	0xbb9855dc	-0.004648907
229	0x3dc9fef9	0.09863085
230	0xbbfb5993	-0.00767059
231	0xbada4e0b	-0.0016655339
232	0x3c23815e	0.009979574
233	0x3cbabb82	0.022794489
234	0xba5eb875	-0.0008496114
235	0xbcf552e4	-0.029946752
236	0x3c35486b	0.011064629
237	0x3d4f9fd6	0.05068954
238	0x3c4288a5	0.011873399
239	0xbcba7143	-0.022759086
240	0x3c52838e	0.012848748
241	0xbac1622a	-0.0014753987
242	0xbc5e5501	-0.013570071
243	0xbb4db952	-0.0031390977
244	0x3c6f94d5	0.014622887
245	0x3c22660a	0.009912023
246	0xbbc6a5ed	-0.0060622604
247	0x3b4b4fb0	0.003102284
248	0x3c8ab2a2	0.016930882
249	0x3d11d83d	0.03560661
250	0xbb745692	-0.0037283045
251	0xbcf6e067	-0.0301363
252	0x3ba87463	0.0051408275
253	0x3cf883db	0.030336311
254	0x3d3ecc98	0.046581835
255	0xbba5daea	-0.005061497

network_body.linear_encoder.seq_layers.0.bias f4 [256]
0	0xbb671a03	-0.0035263307
1	0x39eced84	0.0004519039
2	0x3cd68f3d	0.026191348
3	0x3cf3ff87	0.02978493
4	0xbd740f26	-0.05958476
5	0x3c7f80a9	0.01559464
6	0x3d3d0f2d	0.04615705
7	0x3d0e918a	0.034806766
8	0x3cba1114	0.022713222
9	0x3d51d027	0.0512239
10	0x3cbb2648	0.022845402
11	0x3a9be17c	0.0011892761
12	0x3c37800f	0.011199965
13	0xbd1402f2	-0.03613562
14	0x3c3313dc	0.010930028
15	0xbc5b5290	-0.013386384
16	0x3ccfda0d	0.02537253
17	0xbc4a7fe8	-0.012359597
18	0x3cc8469e	0.024447735
19	0xbcf49959	-0.029858278
20	0x3cea8780	0.028629065
21	0x3cdba95c	0.026814155
22	0xbdb1791b	-0.08665677
23	0x3d1d406a	0.03839151
24	0x3d05fbae	0.032710724
25	0x3cce74ba	0.025202144
26	0x3d109b65	0.035304446
27	0x3c657425	0.014004742
28	0x3cf42e7a	0.029807318
29	0xbb823747	-0.0039738747
30	0xbd4b9e6a	-0.049711622
31	0x3d16ce77	0.036817994
32	0x3cc5b233	0.024132824
33	0xbcf43a46	-0.029812943
34	0x3bfb21f4	0.0076639596
35	0x3cbc0620	0.02295214
36	0x3d7b26d3	0.061316323
37	0xbc213111	-0.0098383585
38	0xbc2c4c80	-0.010516286
39	0x3ca814be	0.020517703
40	0x3ccbd167	0.024880124
41	0xbd78b5bc	-0.06072019
42	0xbc8c1c51	-0.017103346
43	0x3d1ade42	0.037809618
44	0x3c703cab	0.014662902
45	0x3c2a29da	0.010385955
46	0xbb19326d	-0.0023376003
47	0x3c8e5fc7	0.017379655
48	0x3c29fce3	0.010375234
49	0x3c2b6379	0.010460728
50	0xbcc2ba9a	-0.02377062
51	0x3d11882b	0.03553025
52	0xbcf147ff	-0.029453276
53	0x3d1014a6	0.035175942
54	0x3b95e314	0.004574189
55	0x3b00c87e	0.0019650753
56	0x3ce437d2	0.027858648
57	0x3c671f23	0.014106545
58	0x3c6ee062	0.014579864
59	0x3c88082e	0.016605463
60	0x3b050d65	0.0020302173
61	0x3c61c99f	0.01378098
62	0x3c8793b9	0.016549932
63	0x3caee41d	0.021349007
64	0x3a7e9848	0.0009712023
65	0xbb822074	-0.003971154
66	0x3c9dd105	0.019264707
67	0x3baacede	0.005212649
68	0x3d27c0fc	0.04095553
69	0x3ce28772	0.027652476
70	0xbc7c0a2c	-0.015383285
71	0x3cb0c03d	0.021576041
72	0xbdaa68f5	-0.083208
73	0xbbc35417	-0.005960952
74	0xbcc0657c	-0.023485892
75	0x3cda91a6	0.026680779
76	0x3cac1f4c	0.021011017
77	0xbb6a9beb	-0.00357985
78	0xbce5738d	-0.0280092
79	0x3cb46775	0.022021988
80	0xbd2c6268	-0.042086035
81	0x3c61ebfc	0.013789173
82	0x3ccd87d5	0.025089184
83	0xbc3e4966	-0.011614179
84	0x3d12ef4d	0.035872746
85	0x3cbfcfad	0.023414457
86	0xbc889e8c	-0.016677164
87	0x3c3f0265	0.011658286
88	0xbc99a1c4	-0.018753894
89	0x3bbd7cc7	0.005782697
90	0xbc73880e	-0.014863981
91	0x3c821f7b	0.015884152
92	0xbb9081be	-0.0044099977
93	0xbc907944	-0.017635949
94	0x3bbd716e	0.005781344
95	0x3cca0d9f	0.024664698
96	0x3d04051d	0.03223144
97	0xbd3796ce	-0.044821553
98	0x3c9eb063	0.019371217
99	0xbb81725a	-0.0039503993
100	0x3ce07b9a	0.027402688
101	0x3bf23ec1	0.0073927348
102	0x3bc9ec25	0.006162184
103	0x3cc32c20	0.023824751
104	0x3cfcd9d7	0.030865593
105	0xbc99c102	-0.018768791
106	0xb88d4f5f	-6.738188e-05
107	0x3ca26c24	0.019826956
108	0xbc0c8606	-0.008576876
109	0xbd1f7d20	-0.038937688
110	0x3ba505fd	0.0050361142
111	0x3ba87275	0.0051405975
112	0x3d451701	0.04811764
113	0x3c91ffa8	0.017822102
114	0xbc5eab40	-0.013590634
115	0x3c354bff	0.011065482
116	0x3c5f01cd	0.013611269
117	0x3d4c1947	0.049828794
118	0xbceb8c55	-0.028753439
119	0x3d086f11	0.033309046
120	0xbcb828d9	-0.022480415
121	0x3b1340b8	0.0022468995
122	0x3cef40b7	0.029205663
123	0x38e547a9	0.00010932919
124	0xbbab4eb8	-0.00522789
125	0xbc23b0bc	-0.009990867
126	0x3cd16ba9	0.025564032
127	0xbca20c9c	-0.019781403
128	0x3b83fc88	0.004027907
129	0x3c3aa74e	0.011392428
130	0xbc2ee8a1	-0.01067558
131	0x3c3383a3	0.010956678
132	0x3cb48e40	0.022040486
133	0xbccda72a	-0.025104124
134	0xbbf1fc19	-0.0073847887
135	0x3bb337ca	0.005469297
136	0x3c22dffa	0.0099410955
137	0xbcefe497	-0.029283805
138	0xbd9e38ae	-0.077256545
139	0x3cc1ac88	0.02364184
140	0x3c56ae5b	0.013103093
141	0x3d093d8f	0.033505972
142	0x3d0a2556	0.033727013
143	0x3c35249c	0.011056092
144	0x3c965fff	0.018356321
145	0xbca852df	-0.020547329
146	0xbd302a52	-0.04300911
147	0x3d15abba	0.036540724
148	0x37a71f43	1.9922509e-05
149	0x3d03e474	0.03220029
150	0x3cdb3b98	0.026761815
151	0x3c8d34ef	0.017237155
152	0x3a60e6d7	0.00085793197
153	0xbc8c408a	-0.017120618
154	0x3ca9269d	0.020648295
155	0x3d4fda10	0.05074507
156	0x3c764edd	0.015033451
157	0xbc28cc2c	-0.010302585
158	0xbd3bf69c	-0.045889482
159	0x3c12e939	0.008966737
160	0x3c9981ce	0.018738654
161	0x3b32e951	0.0027299712
162	0x3cefae81	0.029258015
163	0xbdd3160f	-0.10306942
164	0xbc923b71	-0.01785061
165	0x3d34b8ef	0.04412168
166	0x3b9d13d5	0.004793624
167	0x39bedea7	0.00036405513
168	0x3cbd6671	0.023120137
169	0x3c1d01e4	0.00958297
170	0x3c8d1634	0.017222501
171	0xbdf7396e	-0.12071501
172	0xbc47cc5f	-0.012194722
173	0xbd26573e	-0.040610544
174	0xbb805b3a	-0.003917125
175	0x3d072aa6	0.032999657
176	0xbc923926	-0.017849516
177	0x3c2a49bb	0.010393555
178	0xbdba6141	-0.09100581
179	0x3c4a0ea1	0.012332589
180	0x3c8ebd07	0.01742412
181	0x3d0d204a	0.03445462
182	0xbdd31c7e	-0.10308169
183	0x3b97cd8b	0.004632657
184	0x3ca93f3c	0.020660035
185	0xbc1e7c48	-0.009673186
186	0x3bb5904e	0.005540884
187	0x3c051be4	0.008124325
188	0xbcceb1a9	-0.0252312
189	0x3cd78efe	0.026313301
190	0xbc903154	-0.017601646
191	0xbb6aa2c0	-0.0035802573
192	0xbcdcd7a2	-0.02695829
193	0x3ca98d0e	0.020697143
194	0x3c8f3d21	0.017485203
195	0x3c92ed87	0.017935527
196	0x3cfd9011	0.030952485
197	0xbc9ab6f2	-0.018886063
198	0x3c48eaca	0.012263009
199	0x3cfef1a6	0.031121086
200	0x3ced29ac	0.028950535
201	0xbc66bd80	-0.014083266
202	0x3c82fe38	0.015990362
203	0x3d0b3208	0.03398326
204	0x3cef6734	0.029224016
205	0x3cf23208	0.029564872
206	0x3d2de79f	0.04245722
207	0xbbab647a	-0.0052304836
208	0x3cb13636	0.021632295
209	0x3c927ee0	0.017882764
210	0x3d140239	0.036134932
211	0x3c9752c8	0.01847209
212	0xbc1067fd	-0.008813855
213	0x3cd63e64	0.026152797
214	0x3cb4fe6d	0.022093976
215	0x3c6a47b6	0.014299324
216	0xbbb6d1b4	-0.005579198
217	0xbcdceeba	-0.026969302
218	0x3bfbf50e	0.007689125
219	0x3812d3e7	3.5006462e-05
220	0x3d118b50	0.03553325
221	0xbc198682	-0.009370448
222	0xbd1b8b3c	-0.03797458
223	0xbcbb68e7	-0.02287717
224	0x3c6d774e	0.0144937765
225	0xbca1b2a4	-0.019738503
226	0x3bd3be22	0.0064618746
227	0x3c61e480	0.013787389
228	0x3caa291c	0.020771556
229	0xbd86f6cf	-0.06590044
230	0x3d317fe7	0.043334868
231	0x3cf5676e	0.029956546
232	0x3d32a8e0	0.043618083
233	0xbbbd0ddb	-0.005769474
234	0x3cffcfb6	0.031226974
235	0xbdad5b63	-0.08464696
236	0x3c697a28	0.014250316
237	0x3c890058	0.016723797
238	0x3c76653d	0.0150387855
239	0x3d6e4a00	0.05817604
240	0x3c6e9da5	0.014563953
241	0x3cb85b13	0.022504365
242	0x3d5adb10	0.05343157
243	0x3d214ad6	0.03937801
244	0x3cbe5598	0.023234174
245	0x3c96910c	0.01837971
246	0x3ca128bc	0.019672744
247	0xbb541214	-0.0032359408
248	0xbb817e34	-0.003951812
249	0x3c8ee294	0.017442025
250	0x3c8fe8c6	0.01756705
251	0xbc718f91	-0.014743702
252	0xbb96e173	-0.0046045124
253	0x3d09a035	0.03360005
254	0xbd4695c7	-0.048482683
255	0xbb8928ed	-0.004185787

network_body.linear_encoder.seq_layers.0.weight f4 [256, 20]
0	0x3e91bb9d	0.2846345
1	0xbede5b80	-0.43429184
2	0x3eaaf375	0.33388868
3	0x3e01f14f	0.12689708
4	0xbc2fa440	-0.010720313
5	0xbcd8cca9	-0.026464777
6	0x3cf98ad5	0.030461708
7	0x3e7774d4	0.2416566
8	0xbe1bf66c	-0.15230721
9	0xbf118dba	-0.5685688
10	0xbdade11a	-0.084902
11	0xbe3d34d6	-0.18477187
12	0x3e2976ce	0.16549227
13	0x3e2e4a85	0.17020614
14	0xbd2243bd	-0.03961538
15	0x3e41e24c	0.18933982
16	0xbe1b1e3b	-0.15148251
17	0x3d1a4afc	0.037669167
18	0xbc8e5430	-0.017374128
19	0xbef23cbd	-0.47311965
20	0xbdc4c993	-0.0960876
21	0xbe5f1af5	-0.21787627
22	0xbe4a71f0	-0.19770026
23	0x3e46eacf	0.1942551
24	0xbe94c046	-0.29052943
25	0xbe536c1d	-0.2064671
26	0x3e0aeccb	0.13566892
27	0xbe7ebbca	-0.24876323
28	0xbea9af69	-0.3314164
29	0x3e2327a5	0.15933092
30	0x3ecaac1b	0.3958443
31	0xbda6c91b	-0.081438266
32	0xbe20f034	-0.1571663
33	0xbd80aea2	-0.062833086
34	0x3d5d85d9	0.054082725
35	0xbe934178	-0.28760886
36	0x3d94525b	0.072422706
37	0xbe4ac3be	-0.19801232
38	0xbe2079e3	-0.15671496
39	0xbe151d87	-0.14562045
40	0xbdd1b3e7	-0.10239392
41	0x3eb8d9d6	0.36103696
42	0x3e461c9b	0.1934685
43	0xbe47a310	-0.19495797
44	0xbe06138e	-0.13093397
45	0x3f19b4ef	0.6004171
46	0xbd61d69b	-0.055136304
47	0xbe99bb63	-0.30025777
48	0x3e216b63	0.15763621
49	0x3d8e2498	0.069405735
50	0x3e012f2e	0.12615654
51	0xbe767a5b	-0.24070112
52	0xbe80a4c3	-0.25125703
53	0x3db41311	0.08792699
54	0xbe5c7f21	-0.21532871
55	0xbee705f0	-0.45121717
56	0x3dce54d7	0.10074776
57	0x3f0257a0	0.50914955
58	0x3ddb53f8	0.10709375
59	0x3e237f9b	0.15966646
60	0x3eff9d0e	0.4992451
61	0xbdd40eef	-0.10354411
62	0xbc348789	-0.011018642
63	0x3c95afa7	0.018272234
64	0x3df1f4d6	0.11814277
65	0xbd96f1f2	-0.07370366
66	0xbe296218	-0.16541326
67	0xbe5abb93	-0.21360616
68	0x3d9ca6bb	0.07648989
69	0x3cd6d9ca	0.026226897
70	0x3d8a27cd	0.06745873
71	0x3e85be26	0.26121634
72	0xbedcf080	-0.43152237
73	0x3f01fda5	0.50777656
74	0x3e8fabfe	0.28060907
75	0xbeb7e41d	-0.35916224
76	0x3e668a36	0.22513661
77	0x3e9b0938	0.3028047
78	0x3d19918f	0.03749233
79	0xbe2305bb	-0.15920155
80	0x3e72c67d	0.2370853
81	0x3e4a6fd4	0.19769222
82	0xbde99705	-0.11405758
83	0xbd1adfb6	-0.037811004
84	0xbf198acc	-0.5997741
85	0xbedbad05	-0.4290544
86	0xbc2b6f47	-0.010463542
87	0xbf2136d4	-0.62974286
88	0xbe96cac9	-0.29451588
89	0xbd111b5f	-0.035426494
90	0xbe06dc43	-0.1316996
91	0xbe53f399	-0.20698394
92	0x3d2f61b6	0.042817794
93	0xbe5a6a1e	-0.21329543
94	0x3e93b4f1	0.28848985
95	0xbe93c085	-0.28857818
96	0xbe02110c	-0.12701815
97	0xbf517a73	-0.8182747
98	0xbdc88116	-0.09790246
99	0x3e8feac3	0.28108796
100	0x3f0010bc	0.50025535
101	0xbe822690	-0.25420046
102	0x3e4a7e62	0.19774774
103	0xbe92a61f	-0.28642365
104	0xbdf25e86	-0.11834435
105	0x3d96058e	0.07325278
106	0xbcfffb7b	-0.031247845
107	0x3ecd21a1	0.4006472
108	0x3d96dba1	0.0736611
109	0xbe864f8c	-0.26232564
110	0x3e8a2d2b	0.26987585
111	0xbe04e48f	-0.12977813
112	0x3e12ebe1	0.14347793
113	0xbe6591ec	-0.22418946
114	0x3e8e1be6	0.2775566
115	0x3e420069	0.18945469
116	0xbeccd1ac	-0.40003717
117	0xbc55a6da	-0.013040269
118	0x3e244604	0.16042334
119	0x3d38b299	0.0450922
120	0x3e7eb38d	0.2487318
121	0x3ded9fc6	0.1160274
122	0x3deac836	0.114639685
123	0x3d39cc27	0.04536071
124	0x3dc95880	0.09831333
125	0x3d544c89	0.051830802
126	0xbea556d3	-0.32292804
127	0xbe33e8ef	-0.17569326
128	0x3eb49080	0.35266495
129	0x3ea908e3	0.33014593
130	0x3bf89abd	0.0075868056
131	0x3ecd7c44	0.4013387
132	0x3e5c5b9b	0.2151932
133	0xbe2cf0c9	-0.16888727
134	0x3c9f25b5	0.01942716
135	0x3edec36d	0.43508473
136	0xbe300483	-0.17189221
137	0xbb173787	-0.0023073868
138	0xbdb37097	-0.08761709
139	0xbf0a804e	-0.5410203
140	0x3d6cb10c	0.057786033
141	0x3e437d42	0.19090751
142	0xbe878cd1	-0.26474622
143	0xbd360581	-0.044438843
144	0xbc959202	-0.018258099
145	0xbd8c71e8	-0.068576634
146	0x3e931b08	0.2873156
147	0xbe3a4d2b	-0.181935
148	0xbd8bcd10	-0.06826222
149	0x3eb479fe	0.35249323
150	0xbca6a70d	-0.020343328
151	0xbce465b3	-0.027880525
152	0x3dd27c91	0.102776654
153	0xbecc453e	-0.39896578
154	0xbd5631cf	-0.052293595
155	0x3e992954	0.29914343
156	0x3ea83dcb	0.32859644
157	0x3d377954	0.044793442
158	0x3efb1a1c	0.49043357
159	0xbe2bc770	-0.16775298
160	0xbe0a66c7	-0.13515769
161	0xbe49c799	-0.19705047
162	0xbed59dad	-0.4172186
163	0x3c97ac8a	0.01851489
164	0x3cde18f4	0.027111508
165	0x3e15a6a6	0.14614353
166	0xbe75fecf	-0.24022983
167	0x3e87ff31	0.26561883
168	0xbd2dab8e	-0.042399935
169	0x3d93537f	0.0719366
170	0x3e579123	0.21051459
171	0xbb347983	-0.0027538247
172	0xbe83d691	-0.2574964
173	0xbe2770e9	-0.16351666
174	0xbccf833c	-0.025331132
175	0xbe3081c8	-0.17237008
176	0xbea0e63a	-0.3142565
177	0xbe43c43c	-0.19117826
178	0xbe53e71d	-0.20693631
179	0x3e26c9f3	0.16287975
180	0x3f1c54e7	0.6106705
181	0x3da42a48	0.08015877
182	0xbea13f1e	-0.31493467
183	0x3e5138c1	0.20431806
184	0xbe8c762c	-0.27433908
185	0xbe33a1f7	-0.17542253
186	0x3e112f09	0.14178099
187	0xbdf874fa	-0.121316865
188	0x3ea93061	0.33044723
189	0x3dfd5012	0.12368788
190	0x3d47125a	0.048601486
191	0xbd690915	-0.056893427
192	0x3cddd0ed	0.027077163
193	0xbea33676	-0.31877488
194	0x3f0222c8	0.5083432
195	0x3f113958	0.56728125
196	0xbb3d04c4	-0.0028841952
197	0x3d210343	0.03930975
198	0xbe0ae7fa	-0.13565055
199	0x3cad6a50	0.021168858
200	0x3ea42329	0.32058075
201	0xbe1a2e41	-0.15056707
202	0xbe26078a	-0.16213813
203	0xbe6226c1	-0.22085096
204	0x3dc6e2df	0.09711241
205	0xbd48b2e9	-0.048998747
206	0xbe1e5024	-0.15460259
207	0xbd937ef4	-0.07201949
208	0xbe31fcc0	-0.17381573
209	0x3e8170b5	0.252813
210	0x3c07a13f	0.00827819
211	0xbe3dec13	-0.18547086
212	0x3e3ac6ff	0.18239973
213	0x3e41df37	0.18932806
214	0x3dd47871	0.10374535
215	0x3e15e3a9	0.14637627
216	0xbe5efacb	-0.21775357
217	0xbe99d40d	-0.30044594
218	0x3e180a02	0.14847568
219	0xbd8e5540	-0.06949854
220	0xbeed500f	-0.46350142
221	0xbe1cd765	-0.15316541
222	0x3e2cd351	0.16877486
223	0xbcc428fb	-0.023945322
224	0xbdf92c3d	-0.12166641
225	0xbe9c6ead	-0.3055319
226	0xbe9b3a2f	-0.30317828
227	0x3d45ab78	0.04825923
228	0xbd7be9de	-0.06150233
229	0xbe79e44d	-0.24403496
230	0x3cb5e91e	0.022205885
231	0xbd49de4b	-0.04928426
232	0x3d794ce6	0.06086435
233	0x3e969a65	0.2941467
234	0x3d59637a	0.053073384
235	0xbe98ddab	-0.2985662
236	0xbea7d1b0	-0.32777166
237	0xbdd4f7ed	-0.103988506
238	0xbdd28abe	-0.10280369
239	0xbddcfb39	-0.107901044
240	0x3e8d8b96	0.27645558
241	0xbe237909	-0.1596414
242	0xbe0d6c58	-0.13810861
243	0x3da357a9	0.07975704
244	0xbd768185	-0.060182113
245	0x3db5e33d	0.08881233
246	0xbde767b0	-0.11299074
247	0xbe03b115	-0.1286052
248	0x3ea6b0b4	0.3255669
249	0xbe846c4d	-0.25863877
250	0x3dc7afd4	0.097503334
251	0x3ed5a49f	0.41727158
252	0x3ec8db77	0.39229938
253	0xbe0ff181	-0.1405697
254	0x3d4851c8	0.048906118
255	0xbdbb1dd3	-0.09136548

network_body.linear_encoder.seq_layers.2.bias f4 [256]
0	0x3c965a31	0.018353553
1	0x3cdbcf79	0.02683233
2	0x3ae5034b	0.0017472295
3	0x3c605993	0.013693231
4	0x3cb53fab	0.022125086
5	0x3c7596d9	0.014989578
6	0xbc8a88df	-0.016910968
7	0x3cb28b2a	0.021794874
8	0xbc56a613	-0.013101119
9	0xbd39908c	-0.045303866
10	0xbcb77b1f	-0.022397576
11	0xbcdc1aa7	-0.026868178
12	0x3c21ed05	0.00988317
13	0x3cf50f43	0.029914504
14	0x3c54c99a	0.012987519
15	0xb9fa2a5d	-0.0004771528
16	0xbd79ecec	-0.061016962
17	0x3cb58892	0.022159848
18	0x3c85f7bb	0.016353479
19	0x3b890c5e	0.0041823825
20	0x3c5e2252	0.013557987
21	0x3c637206	0.013882166
22	0xbcb76eb0	-0.022391647
23	0xbd5cfcba	-0.053951956
24	0x3cbfb497	0.023401542
25	0x3ca36837	0.019947154
26	0x3c88512a	0.016640265
27	0x3c50a8ab	0.012735526
28	0x3c88b79a	0.01668911
29	0x3c9b6786	0.018970262
30	0x3c763231	0.015026615
31	0x3ce10ce9	0.027471976
32	0x3d23bba1	0.03997386
33	0xbd443958	-0.04790625
34	0x3cd4b532	0.025965307
35	0x3d0a57f1	0.033775274
36	0xbd20ad20	-0.039227605
37	0x3b85e3bd	0.0040859864
38	0x3c8429ff	0.016133307
39	0x3cf4ee78	0.029898867
40	0xbd6f71bc	-0.058458075
41	0x3c2d5239	0.010578685
42	0xbcb4f050	-0.022087246
43	0x3c5968f1	0.013269649
44	0xbd454fd6	-0.04817184
45	0xbc2850a6	-0.010273134
46	0xbcd7aa06	-0.02632619
47	0x3d0e27ba	0.034705855
48	0x3cf54288	0.029938951
49	0xbba19a3d	-0.0049317167
50	0x3cbb5f8d	0.02287271
51	0xbd4e204b	-0.050323766
52	0x3b5a502d	0.0033311949
53	0x3ce99787	0.028514637
54	0x3c435a14	0.011923332
55	0x3cf83aad	0.030301416
56	0xbcaa16ca	-0.02076282
57	0x3c60f892	0.013731139
58	0xbd5a83b7	-0.05334827
59	0x3ce88e2e	0.028388109
60	0x3c8c9f59	0.017165827
61	0x3d1a8b0c	0.03773026
62	0x3cd75f82	0.026290659
63	0x3cbcfb7e	0.02306914
64	0x3cbea755	0.02327315
65	0x3a848289	0.0010109703
66	0x3cd4abca	0.025960822
67	0xbd6d6dae	-0.057965927
68	0x3c02b2db	0.007977213
69	0x3cbd55e4	0.023112245
70	0xbd606fc6	-0.054794095
71	0xba8f9058	-0.0010953052
72	0x3ce64316	0.028108161
73	0x3d0892ae	0.03334301
74	0x3d07c502	0.033146866
75	0x3ccc6a8f	0.024953155
76	0x3cf9404e	0.03042617
77	0xbd29d38b	-0.04146151
78	0x3cc4fe3d	0.024047012
79	0x3c59071f	0.013246327
80	0x3babe2be	0.0052455356
81	0x3ca3b21b	0.019982388
82	0x3cfcb7c8	0.030849352
83	0xbd3c9f86	-0.04605057
84	0xbc81bbf4	-0.015836693
85	0xbca8f6f9	-0.020625578
86	0x3c52f3c0	0.012875497
87	0xbd4a78b2	-0.04943151
88	0x3ca68b07	0.020329965
89	0xbd7bcea8	-0.06147638
90	0xbd6052dc	-0.05476652
91	0xbcf6deac	-0.030135475
92	0x3c602191	0.013679878
93	0x3b99eaf2	0.004697197
94	0x3990d02a	0.00027620915
95	0x3b95cf9f	0.0045718695
96	0x3c5e06bc	0.01355141
97	0xbd4fecfc	-0.050763115
98	0x3c9cdd4b	0.01914849
99	0xbd3acb54	-0.045604065
100	0xbc72ccd9	-0.014819347
101	0xbc416f49	-0.011806318
102	0x3c908aa4	0.017644234
103	0xbbc067ba	-0.00587174
104	0x3c637d2f	0.013884827
105	0x3cce7b6e	0.02520534
106	0x3ca3775e	0.01995438
107	0x3cb70f6a	0.022346217
108	0xbcc5949c	-0.024118714
109	0xbd507c9c	-0.050900087
110	0x3cac91ea	0.021065671
111	0xbd78f8c4	-0.060784116
112	0xbab1ea22	-0.0013573805
113	0xbd584fb1	-0.052810375
114	0x3ce269ed	0.0276384
115	0x3ceb2d94	0.028708257
116	0x3b925296	0.0044654114
117	0x3cfa629e	0.030564602
118	0xbd533f5d	-0.0515741
119	0xbd61e8d6	-0.05515369
120	0x3c4a1c96	0.012335917
121	0xbd3a6e70	-0.045515478
122	0x3d01919a	0.031632997
123	0xbd2fa72d	-0.04288404
124	0x3ca3f259	0.020013021
125	0x3a92862f	0.0011178906
126	0x3ac918bc	0.0015342454
127	0x3c8670f8	0.01641129
128	0x3cd62ba1	0.02614385
129	0x3c1756a5	0.009236966
130	0x3cdeaa62	0.027180854
131	0xbc58f7cb	-0.013242672
132	0xbb3d4bfe	-0.0028884406
133	0xbd7b2757	-0.061316814
134	0xbd3cf07d	-0.046127785
135	0x3ce765c5	0.02824677
136	0xbcc6bbcb	-0.024259469
137	0x3c8bd134	0.01706753
138	0xbd3e31cf	-0.04643422
139	0xbc46acff	-0.012126206
140	0x3cce882a	0.025211412
141	0xbc8a58fd	-0.016888136
142	0x3c808a0f	0.015690831
143	0xbc96e824	-0.01842124
144	0x3c8aa979	0.016926514
145	0x3c950156	0.018189114
146	0xbd2d6018	-0.04232797
147	0xbd2c3212	-0.04203994
148	0x3cd31d13	0.0257707
149	0xbd711f57	-0.05886778
150	0xbd7da653	-0.061926197
151	0x3c5a9235	0.013340523
152	0x3cf5a03b	0.02998363
153	0x3d29bea8	0.04144159
154	0xb9983b54	-0.00029035902
155	0xbd0ee96f	-0.03489059
156	0xbb7bd68f	-0.0038427447
157	0x3c052014	0.008125324
158	0xbd34c6b0	-0.044134796
159	0xbd6a31a5	-0.05717625
160	0xbd732e47	-0.059370305
161	0xbd524788	-0.05133775
162	0xbc2354ba	-0.009968931
163	0xbd5b5297	-0.05354556
164	0xbc2d7b27	-0.010588444
165	0x3b7a81d1	0.003822435
166	0x3cc601d2	0.02417079
167	0xbd741212	-0.059587546
168	0xbd269449	-0.04066876
169	0xbd341e33	-0.043974113
170	0x3bcd5aba	0.006266919
171	0x3cc7eb73	0.024404263
172	0x3c839d31	0.016066166
173	0xbcc830b3	-0.024437284
174	0x3c4cbc20	0.012496024
175	0x3ca0a910	0.019611865
176	0xbcfec045	-0.03109754
177	0x3c8a8a0d	0.01691153
178	0x3ccb17f1	0.02479169
179	0xbd241bf9	-0.04006574
180	0x3c6a5b4b	0.0143039925
181	0x3ca25e55	0.019820372
182	0xbb8badd8	-0.004262667
183	0x3cc92773	0.024554944
184	0xbd4919f7	-0.049097028
185	0x3d188039	0.037231658
186	0x3ccc24f9	0.024919974
187	0x3cff62e2	0.03117508
188	0xbb80513d	-0.0039159344
189	0xbbe0677d	-0.0068482743
190	0x3cc1d462	0.023660842
191	0xbd52ba3f	-0.05144715
192	0xbd5c129e	-0.053728692
193	0xbd12e317	-0.0358611
194	0x3ccb093e	0.02478468
195	0x3cfc67dc	0.030811243
196	0xbd37ed74	-0.044904187
197	0x3b3a53f1	0.002843138
198	0x3ce2ee57	0.02770154
199	0x3ceb5413	0.028726613
200	0x3bd7cacb	0.006585454
201	0xbd26e471	-0.040745202
202	0x3ba4f51e	0.005034103
203	0xbbacd23c	-0.0052740853
204	0x3d127ad5	0.035761673
205	0xbbfc8167	-0.0077058556
206	0xbcc58f99	-0.024116324
207	0xbc3c7ed1	-0.011504845
208	0xbd80c44b	-0.0628744
209	0xbcf6c184	-0.030121572
210	0xbc98cc6a	-0.01865216
211	0xbd338367	-0.043826487
212	0x3ce12c1f	0.027486859
213	0x3b7afca8	0.0038297568
214	0x3ce71599	0.02820854
215	0x3c8a8401	0.016908647
216	0x3c8d0db7	0.017218454
217	0xbce5c0e4	-0.028046079
218	0x3cdbbcc8	0.026823416
219	0x3bfc31f0	0.0076963827
220	0xbcd12d3a	-0.025534261
221	0xbd28eb39	-0.04123995
222	0x3c9dfda8	0.019285992
223	0x3ccae313	0.02476648
224	0x3ccb0a29	0.024785118
225	0x3caa24e0	0.020769536
226	0xbcd4e273	-0.025986886
227	0x3cb922d1	0.02259961
228	0x3ca4fe6d	0.02014085
229	0x3cac0319	0.02099757
230	0x3cdddc62	0.027082626
231	0x3d049005	0.03236391
232	0x3caee0c6	0.021347415
233	0xbd3e6788	-0.046485454
234	0x3c945666	0.018107604
235	0xbd4b8159	-0.049683902
236	0x3ce608a5	0.028080294
237	0x3cda4ac2	0.026646975
238	0xbbadacd5	-0.005300144
239	0x3d1cf071	0.03831524
240	0xbd383e65	-0.04498138
241	0xbd358f56	-0.04432615
242	0x3cc5217f	0.024063824
243	0xbd230ab7	-0.03980514
244	0x3cabc700	0.020968914
245	0x3c9d05d0	0.01916781
246	0x3b99e23d	0.004696159
247	0x3ce607c5	0.028079877
248	0xbca52975	-0.02016137
249	0xbd097d1f	-0.03356659
250	0xbd2d397e	-0.042291157
251	0x3c8e61c8	0.01738061
252	0x3afceecf	0.0019297245
253	0xbbb687d0	-0.0055703893
254	0x3c4b5b31	0.012411878
255	0x3cda4dcf	0.02664843

network_body.linear_encoder.seq_layers.2.weight f4 [256, 256]
0	0xbd9cd00a	-0.07656868
1	0x3cf644f7	0.030062182
2	0xbe1b08c2	-0.1514006
3	0x3ce9b23a	0.028527368
4	0xbdb9cfaa	-0.09072812
5	0x3c5c969d	0.013463643
6	0x3caaede5	0.02086539
7	0x3c603cb3	0.013686347
8	0xbdaa8638	-0.083263814
9	0x3d3420ff	0.04397678
10	0x3ded9dfe	0.116024
11	0xbd6731c5	-0.05644395
12	0xbcac8c4e	-0.021062996
13	0xbcc24bec	-0.023717843
14	0xbd34a4ce	-0.044102482
15	0x3cd098c8	0.025463477
16	0x3da08e83	0.07839682
17	0x3c1324c5	0.0089809345
18	0x3aa09794	0.0012252205
19	0x3d1299f1	0.03579134
20	0xbdaaa3f5	-0.083320536
21	0x3d934a4e	0.07191907
22	0x3d1b7ea3	0.037962567
23	0x3d90f9b9	0.07078881
24	0x3c22f1b5	0.009945323
25	0xbc47c2da	-0.012192452
26	0x3d53a9a5	0.051675458
27	0x3d2133e3	0.039356124
28	0xbd31c3d8	-0.04339966
29	0xbd159a70	-0.036524236
30	0xbc7fca25	-0.01561216
31	0x3d1c6012	0.038177557
32	0x3ca6320c	0.020287536
33	0x3b9bc29b	0.0047534234
34	0x3d158a7f	0.036509033
35	0xbdbe0de6	-0.09279995
36	0x3d55811c	0.05212508
37	0x3dc6f168	0.09714013
38	0x3c462ff3	0.012096393
39	0x3d9e1071	0.0771798
40	0x3cca3568	0.02468367
41	0xbcb7c15f	-0.022431074
42	0xbd34d0aa	-0.04414431
43	0x3daaa42a	0.08332093
44	0xbddc1e72	-0.107479945
45	0x3c059abd	0.008154568
46	0x3ce29e6a	0.027663428
47	0x3e24c929	0.16092362
48	0x3e0f490f	0.13992713
49	0x3d898130	0.06714094
50	0xbda12486	-0.078682944
51	0x3d798a57	0.060922947
52	0x3d1dcc0e	0.03852468
53	0xbde2a6d2	-0.11066975
54	0x3c91fd5a	0.017821003
55	0x3d6a4817	0.057197656
56	0x3dd9383d	0.1060643
57	0x3d6a1850	0.057152092
58	0xbbd00342	-0.0063480446
59	0x3d9e4a83	0.07729056
60	0x3d2f258e	0.042760424
61	0x3dcd981c	0.10038778
62	0xbe38ae3a	-0.18035212
63	0xbdc906bc	-0.098157376
64	0x3d8f9adf	0.07011961
65	0x3b43942b	0.0029842954
66	0xbda40f7f	-0.08010768
67	0x3d050f49	0.03248528
68	0x3d24f9d6	0.040277325
69	0x3de51b37	0.111868314
70	0x3d86f9d3	0.06590619
71	0xbd20e35d	-0.03927933
72	0x3ddb4ad8	0.10707635
73	0xbd61a517	-0.055089083
74	0xbc15b07d	-0.009136316
75	0xbcb86d83	-0.022513157
76	0x3d139279	0.03602836
77	0x3db72f3e	0.089445576
78	0x3b666c09	0.0035159609
79	0x3d31f907	0.04345038
80	0xbb8b17c2	-0.0042447755
81	0x3c376074	0.01119243
82	0x3bfed313	0.007776627
83	0xbc01a5bf	-0.007913052
84	0xbcad983f	-0.02119076
85	0xbb6413e6	-0.00348019
86	0x3a6cb0c1	0.0009029024
87	0xbd38e63a	-0.045141436
88	0x3cfa9553	0.030588781
89	0xbd6d1a9d	-0.05788671
90	0x3e35c4dc	0.17750877
91	0xbd769210	-0.06019789
92	0xbc4b570f	-0.012410893
93	0xbc859687	-0.016307129
94	0x3c956f25	0.018241474
95	0xbcaab432	-0.020837877
96	0x3d5407b7	0.05176517
97	0xbc1a6bb9	-0.009425097
98	0x3d63dd83	0.055631172
99	0x3cbff4df	0.023432193
100	0x3ca3c049	0.01998915
101	0x3d4561ef	0.0481891
102	0x3c42551c	0.011861112
103	0xbcda4529	-0.026644306
104	0x3e23de80	0.16002846
105	0xbd7bd526	-0.06148257
106	0xbd998c7d	-0.07497499
107	0x3d76c1dd	0.060243476
108	0x3d54309e	0.051804177
109	0x3d67797b	0.056512337
110	0x384c9126	4.877257e-05
111	0x3d392c8e	0.045208506
112	0x39f3ad11	0.00046477516
113	0xbdb1da22	-0.08684184
114	0x3e194130	0.14966273
115	0x3d5260fb	0.05136202
116	0x3c061168	0.008182861
117	0xbd6d6f1b	-0.057967287
118	0x3dcaa1ea	0.09894164
119	0x3da06fbc	0.07833812
120	0x3d67a66d	0.0565552
121	0x3c88e204	0.016709335
122	0xbcaeba28	-0.021329
123	0x3d0319b9	0.032006953
124	0xbc988a41	-0.018620612
125	0x3c3c30f2	0.011486279
126	0x3d46c5fe	0.048528664
127	0x3dbce25e	0.092228636
128	0x3c108bc5	0.008822386
129	0x3d86bd3a	0.06579061
130	0xbe2211af	-0.15827058
131	0x3cbb5944	0.022869714
132	0xbd516288	-0.051119357
133	0x3d9468db	0.07246562
134	0xbdb2633d	-0.087103345
135	0x3d2130ac	0.039353058
136	0x3d4b3d60	0.04961908
137	0x3d3bd45f	0.04585683
138	0xbd87b236	-0.06625788
139	0xbde251e0	-0.11050773
140	0xbe035e08	-0.12828839
141	0x3d04ed43	0.032452833
142	0xbc0613b8	-0.008183412
143	0x3c3365b5	0.010949542
144	0xbc0dfb86	-0.008665925
145	0x3ba1fa53	0.004943171
146	0x3db91663	0.09037473
147	0xbcd22b7d	-0.025655502
148	0x3e097070	0.13421798
149	0xbddb73bf	-0.10715436
150	0xbd250265	-0.040285487
151	0xbcd8c46f	-0.026460854
152	0xbd1326cb	-0.035925668
153	0xbc94c081	-0.0181582
154	0x3c8227fb	0.015888205
155	0xbd8614d6	-0.06546943
156	0xbc45205a	-0.012031639
157	0x3c1c8942	0.009554209
158	0x3d0d4ade	0.034495227
159	0x3c1830b1	0.009288953
160	0xbe23212a	-0.1593062
161	0x3d7ab847	0.061210897
162	0xbd4bd2bf	-0.04976153
163	0xbd4c7330	-0.04991454
164	0x3db4d884	0.088303596
165	0x3d623070	0.055221975
166	0xbd0f0f18	-0.034926504
167	0xbdd8ce2d	-0.105862
168	0x3dc13c41	0.09435321
169	0x3c5b3ab7	0.013380698
170	0xbc3f0eea	-0.011661271
171	0xbd08c67a	-0.033392407
172	0xbbbfb489	-0.005850379
173	0xbd3a6c9f	-0.045513745
174	0x3c8edc04	0.017438896
175	0xbd5d035f	-0.053958293
176	0xbd96d17d	-0.073641755
177	0x3b14ffa1	0.0022735375
178	0xbdd52c9f	-0.104089014
179	0xbdfd0a8e	-0.12355529
180	0x3cd2ea67	0.025746537
181	0x3e187824	0.1488958
182	0x3c4ca6ec	0.012490969
183	0xbaeb0e86	-0.0017933405
184	0x3db6968d	0.08915434
185	0x3dd76f60	0.1051929
186	0x3c6c7e9c	0.014434483
187	0x3d2aa310	0.041659415
188	0xbd3eeb38	-0.04661104
189	0xbc70fbe7	-0.014708496
190	0x3c80cd77	0.015722973
191	0x3cc4587d	0.023967976
192	0xbda345df	-0.07972311
193	0x3b01ceda	0.001980713
194	0xbcbd8fb8	-0.02313982
195	0xbd8c7989	-0.068591185
196	0x3c69558e	0.014241589
197	0x3e0fcbad	0.1404254
198	0x3dbca5eb	0.09211334
199	0x3d39565f	0.045248386
200	0xbdadc0d6	-0.08484046
201	0xbd791d52	-0.060818978
202	0x3e53e682	0.206934
203	0x3dce0993	0.1006042
204	0x3d244130	0.04010123
205	0xbcccd996	-0.025006097
206	0x3b33b89e	0.0027423273
207	0x3d795a6b	0.060877245
208	0x3cf5d645	0.030009398
209	0xbc40b0e8	-0.011760928
210	0x3be8a85f	0.0071001495
211	0x3d57caef	0.052683767
212	0xbb72a3de	-0.0037023942
213	0xbc3bcb00	-0.011461973
214	0xbde6e6d1	-0.112744935
215	0x3da1e766	0.07905464
216	0x3d0e6646	0.034765504
217	0xbd044c09	-0.032299075
218	0x3d036853	0.032081913
219	0x3dcfced5	0.10146872
220	0x3ae61b1a	0.0017555684
221	0x3d4346be	0.047674887
222	0x3d340e50	0.043958962
223	0xbd380b4e	-0.044932656
224	0x3d2b398c	0.041802928
225	0xbd872639	-0.06599087
226	0xbb4a97ff	-0.003091335
227	0x3c5fc73b	0.01365834
228	0x3d0b8441	0.034061674
229	0xbd168e7e	-0.036756985
230	0x3c9abda5	0.018889258
231	0xbd0bd38f	-0.034137305
232	0x3c945d35	0.01811085
233	0x3d31db81	0.043422226
234	0x3d2e0fd2	0.042495556
235	0x3d07b8d1	0.03313524
236	0x3cdd906f	0.02704641
237	0xbdde19d5	-0.10844771
238	0x3d843b38	0.064566076
239	0x3d3c7a0a	0.046014823
240	0xbc24c854	-0.010057528
241	0x3dec0734	0.115248114
242	0x3cd2e731	0.025745006
243	0xbdbf0ae1	-0.09328247
244	0xbc8008fd	-0.015629286
245	0x3d820ff0	0.06350696
246	0xbc9f4d8f	-0.019446163
247	0x3d90380a	0.070419386
248	0x3d217fc5	0.03942849
249	0x3d0152f1	0.03157324
250	0x3c212592	0.009835618
251	0xbab72a5b	-0.0013974415
252	0xbd60609e	-0.05477964
253	0xbd211240	-0.039324045
254	0x3b8c0590	0.004273124
255	0xbbad7a1f	-0.005294099

network_body.linear_encoder.seq_layers.4.bias f4 [256]
0	0x3d2287fa	0.03968046
1	0xbc8734e8	-0.01650472
2	0xbc6698c7	-0.014074511
3	0x3d157e5e	0.036497466
4	0xbc5aaba0	-0.013346583
5	0x3d28b13f	0.04118466
6	0xbb9a2304	-0.004703881
7	0xbb55181e	-0.0032515596
8	0x3c87013c	0.01648008
9	0x3ce12209	0.02748205
10	0xbc86a7b1	-0.016437383
11	0xbc5b5f36	-0.013389399
12	0x3d12f823	0.035881173
13	0x3ceaf756	0.028682392
14	0x3cfba6a4	0.030719109
15	0x3cc4985b	0.02399843
16	0x3cf76711	0.030200513
17	0xbb928852	-0.004471817
18	0x3d367f73	0.04455514
19	0x3cbfb8d2	0.023403559
20	0xbcc70d5e	-0.024298366
21	0x3bd5c82f	0.006524108
22	0x3b415806	0.002950193
23	0xbce35659	-0.027751135
24	0xba587767	-0.00082575384
25	0xba43ce3e	-0.0007469392
26	0x3cebb697	0.028773589
27	0xbca14fa5	-0.019691298
28	0x3d039ad4	0.032130077
29	0xbcd6cb86	-0.026220094
30	0xbcf4ac1f	-0.02986723
31	0x3cc968f1	0.024586173
32	0x3cdbbe7f	0.026824234
33	0xbcd9ebeb	-0.026601752
34	0xbc609348	-0.01370699
35	0xbc241a02	-0.010015966
36	0xbd17ff34	-0.037108615
37	0xbc3c5eb9	-0.011497193
38	0xbb79948d	-0.0038082928
39	0xbc889803	-0.016674047
40	0x3cda873b	0.026675811
41	0x3c9e8a24	0.01935298
42	0xbcf4837b	-0.029847851
43	0x3cb50fa1	0.022102179
44	0xbcbf1445	-0.023325095
45	0xba6e1c5a	-0.0009083204
46	0x3c9d9fd8	0.019241259
47	0x3cb54c5b	0.022131136
48	0xbc0c55f7	-0.0085654175
49	0x3d1de625	0.03854956
50	0x3c355388	0.011067279
51	0xbc502e2f	-0.0127063235
52	0x3d0c16ed	0.03420155
53	0xbcd5d9ac	-0.02610477
54	0x3ce35449	0.027750151
55	0x3c8cbf4d	0.017181063
56	0xbc9cdcd9	-0.019148277
57	0x3d2e3702	0.04253293
58	0xbc953002	-0.018211368
59	0x3cd8d932	0.026470754
60	0xbca387d7	-0.019962234
61	0xbc125543	-0.008931461
62	0xbc6618ee	-0.01404403
63	0x3ca7a65e	0.020465072
64	0xbcece73e	-0.028918859
65	0x3cd06d89	0.025442855
66	0x3d1ad6fe	0.03780269
67	0x3c386f8a	0.011257062
68	0xbc2b8481	-0.010468603
69	0xbc61712b	-0.0137598915
70	0xbc9c7bdf	-0.019102035
71	0x3d3957d3	0.04524977
72	0xbcc2c11c	-0.023773722
73	0xbc8a7baf	-0.01690468
74	0xbcd59950	-0.026074082
75	0xbca9d6a0	-0.020732224
76	0x3d409781	0.047019485
77	0xbcf57ec7	-0.029967679
78	0xbca0d437	-0.019632442
79	0x3cdae626	0.026721071
80	0x3d421d7a	0.047391392
81	0x3d22b6aa	0.039724983
82	0xbcb76835	-0.022388557
83	0xbc85e4d5	-0.016344467
84	0xbc85088a	-0.016239423
85	0x3c525ba4	0.012839232
86	0xb93fb8e2	-0.00018284054
87	0x3ba12ad0	0.0049184337
88	0xbc392e91	-0.011302606
89	0xbbf969f6	-0.0076115085
90	0xbcd3f7b4	-0.02587495
91	0xbc51d62e	-0.012807412
92	0xbc67a816	-0.014139196
93	0x3cb45a02	0.022015575
94	0xbbdda58f	-0.006764121
95	0xbcc4ca55	-0.02402226
96	0x3c32ffe0	0.010925263
97	0xbccb0d0e	-0.024786498
98	0x3cf5ee63	0.030020898
99	0x3cd84cb6	0.026403766
100	0x3c45e6a9	0.012078919
101	0xbc8583f7	-0.016298277
102	0xbcaa131a	-0.020761061
103	0x3be8d503	0.007105471
104	0x3bc5f307	0.006040934
105	0xbc6fa88b	-0.014627586
106	0x3cc91927	0.024548126
107	0xbc360bd4	-0.0111112185
108	0xbc39dc0f	-0.01134397
109	0x3d09a595	0.033605177
110	0x3bd2823e	0.0064242175
111	0x3ccd59d1	0.025067242
112	0x3cfa6536	0.03056584
113	0x3d3a99b1	0.045556728
114	0x3d007e44	0.031370416
115	0xbc38c3c0	-0.011277139
116	0xbce2f399	-0.027704047
117	0xbc802e3d	-0.015647048
118	0x3c8c9da8	0.01716502
119	0xbbd1fd75	-0.0064083883
120	0xbc3cfef0	-0.011535391
121	0x3c8cf685	0.017207393
122	0xbd12e47f	-0.035862442
123	0x3d03c5f0	0.03217119
124	0x3b02754e	0.0019906345
125	0xbcc36a42	-0.023854379
126	0x3c82a55c	0.01594799
127	0x3c399554	0.0113271065
128	0x3cadc269	0.021210866
129	0xbc85b300	-0.016320705
130	0x3c71cb6f	0.014757975
131	0x3cf19ccb	0.02949371
132	0x3caf1600	0.021372795
133	0xbc36b843	-0.01115233
134	0xbc985edc	-0.01859992
135	0x3bb07e64	0.0053861607
136	0x3d0b399c	0.033990487
137	0x3d03e256	0.032198273
138	0xbc4b270c	-0.012399446
139	0xbc5b2a45	-0.013376777
140	0x3c8a8071	0.016906949
141	0x3c270e0b	0.010196219
142	0xbc81340c	-0.015771888
143	0x3cbbd8ff	0.02293062
144	0x3b57aa73	0.0032907992
145	0xbc4bb1f7	-0.012432567
146	0xbc3007dc	-0.010744061
147	0xbc879ba9	-0.016553717
148	0xbc97cd14	-0.018530406
149	0xbcd33689	-0.02578284
150	0xbc2a50ac	-0.01039521
151	0x3d137db1	0.03600854
152	0xbca3ddcb	-0.02000322
153	0xbbe182a8	-0.0068820305
154	0xbcf138da	-0.029446054
155	0x3d0013ad	0.031268764
156	0x3c626c69	0.013819792
157	0xbbbc6c7f	-0.0057502384
158	0x3d06fc95	0.032955725
159	0xbccc145a	-0.024912048
160	0xbbe570e5	-0.0070019835
161	0x3c4614d7	0.01208993
162	0x3cb4274e	0.021991398
163	0xbcabd84b	-0.02097716
164	0x3d058e26	0.032606266
165	0xbc4463ea	-0.011986712
166	0xbbc4c635	-0.0060050734
167	0x3ce3ab4a	0.027791638
168	0x3c9c267b	0.019061318
169	0x3d07577c	0.033042416
170	0x3cf93af8	0.030423626
171	0xbca63e66	-0.020293426
172	0xbc3ee1fc	-0.011650559
173	0xbc25411f	-0.010086327
174	0x3d07cbe2	0.033153422
175	0x3bb88830	0.005631469
176	0xbcae0285	-0.021241436
177	0x3c2a5521	0.010396273
178	0x3cddae1b	0.027060559
179	0x3c3eefd4	0.011653859
180	0x3ca9a843	0.020710116
181	0xbca37cf9	-0.019957053
182	0xbbf0a72e	-0.007344148
183	0xbc095dff	-0.008384227
184	0xbd199b4d	-0.037501622
185	0xb8ba3d5e	-8.880602e-05
186	0xbcbf3e3d	-0.023345107
187	0xbcc9f8c1	-0.024654748
188	0xbcb5b6f9	-0.022181975
189	0xbc37fe28	-0.011230029
190	0xbcb35ca9	-0.02189477
191	0xba824b09	-0.0009940575
192	0x3d0ef8ed	0.034905363
193	0xbcdefee0	-0.027221143
194	0xbcf04f78	-0.029334769
195	0x3cac0ad7	0.021001263
196	0x3ce555ec	0.027995072
197	0xbc4471a1	-0.011989982
198	0xba834c94	-0.0010017329
199	0xbc8e2d05	-0.017355451
200	0x3d198775	0.037482698
201	0xbc2cf00f	-0.010555281
202	0x3d1ca0c0	0.03823924
203	0x3c817268	0.015801623
204	0x3cda9771	0.026683541
205	0x3cc1530e	0.023599174
206	0xbc70b9ff	-0.014692782
207	0x3d0598e6	0.03261652
208	0xbc595569	-0.013264992
209	0xbc9cb2e1	-0.019128265
210	0xbccd0215	-0.025025407
211	0xbc67fe8e	-0.014159812
212	0x3d03b68c	0.032156512
213	0xbc66f9e8	-0.014097668
214	0xbc28805e	-0.010284511
215	0xbb2bf5e5	-0.0026239094
216	0x3a5252c7	0.0008023199
217	0x3d107f9b	0.035277944
218	0x3ca2f55a	0.019892383
219	0xbb01f07c	-0.0019827178
220	0xbc8b4b6b	-0.017003736
221	0xbc43cc6f	-0.011950596
222	0x3ca5c48d	0.020235324
223	0xbc9361db	-0.017990997
224	0x3d0cef6e	0.034408025
225	0x3cf2291c	0.029560618
226	0xbc10a874	-0.008829225
227	0x3c0e2093	0.0086747585
228	0x3c47fe5f	0.012206643
229	0xbabc7deb	-0.0014380788
230	0x3c956626	0.018237185
231	0xbc12f47e	-0.008969424
232	0x3cd5efbe	0.026115295
233	0x3cda73a9	0.02666648
234	0x3cca735c	0.02471321
235	0x3d0a2a65	0.033731837
236	0x3c879741	0.016551616
237	0x3c9b3e6d	0.018950665
238	0xbc2ebef6	-0.010665646
239	0x3b3aa819	0.0028481542
240	0x3c567240	0.013088763
241	0x3ccb6de1	0.024832668
242	0x3cb6cf79	0.022315728
243	0xbb8e0d70	-0.004335098
244	0x3ce6d433	0.028177356
245	0x3cd822b9	0.026383745
246	0xbc3aa4a2	-0.011391791
247	0x3cb8f915	0.022579709
248	0xbbf5f5eb	-0.0075061223
249	0xbbee6f5f	-0.00727646
250	0x3caf8a3c	0.02142822
251	0x3cfbec59	0.030752348
252	0xbc9b66b6	-0.018969875
253	0x3ca377f6	0.019954663
254	0x3d01fe81	0.031736854
255	0xbc347694	-0.011014599

network_body.linear_encoder.seq_layers.4.weight f4 [256, 256]
0	0x3d0e1425	0.03468718
1	0x3d601f66	0.054717444
2	0x3e2e5c45	0.17027386
3	0x3d146b8c	0.036235377
4	0x3dea7ddd	0.11449788
5	0x3c1080a2	0.008819731
6	0xbdd4b29e	-0.10385631
7	0xbc97902e	-0.018501367
8	0xbbb2cd1b	-0.0054565794
9	0xbbffdc40	-0.0078082383
10	0xbe2c02f2	-0.16797999
11	0xbd3ba8df	-0.045815345
12	0x3c603ca8	0.013686337
13	0x3d4b8f32	0.04969711
14	0x3d5289f7	0.051401105
15	0xbc1b7e14	-0.009490509
16	0x3d5a61b5	0.053315837
17	0x3d900113	0.07031455
18	0x3e118f2a	0.14214769
19	0x3a527cf0	0.00080294814
20	0xbdc3a96e	-0.095538005
21	0x3e034e46	0.12822828
22	0xbd87be1f	-0.066280596
23	0x3d1ce95d	0.03830849
24	0x3ded477d	0.11585901
25	0xbe075e50	-0.13219571
26	0x3d01837c	0.031619534
27	0xbe09f2c5	-0.13471515
28	0x3d739ebd	0.059477556
29	0xbdabba27	-0.08385115
30	0xbd4a1b21	-0.04934228
31	0x3d7044e6	0.058659457
32	0xbe2bef0b	-0.16790406
33	0xbd6695bc	-0.05629514
34	0xbd834894	-0.064103276
35	0x3d9ab38b	0.07553776
36	0x3d5bf8b9	0.053703997
37	0xbce4ad1c	-0.027914576
38	0xbc67cd9c	-0.014148142
39	0x3e0636fd	0.13106914
40	0xbdea22d0	-0.11432421
41	0x3dc89469	0.09793932
42	0x3cb32e55	0.021872679
43	0x3d0d32dd	0.034472335
44	0xbc053874	-0.008131135
45	0xbe4f1034	-0.20221025
46	0xbc3bf81a	-0.011472726
47	0x3c970ad3	0.018437779
48	0x3c8e211f	0.017349778
49	0x3dfff901	0.124986656
50	0x3ddbba08	0.10728842
51	0xbb8933a0	-0.0041870624
52	0xbae4b841	-0.0017449931
53	0x3d85071e	0.06495498
54	0x3e284370	0.16431975
55	0x3cdad542	0.026713017
56	0x3c2d4cea	0.01057742
57	0xbd2869ac	-0.0411164
58	0xbc38b9a6	-0.011274731
59	0x3d211ea9	0.03933588
60	0x3c2f22be	0.0106894355
61	0x3e05982a	0.13046327
62	0xbd4ea665	-0.050451655
63	0xbd09eca9	-0.033672962
64	0xbdf41952	-0.11918892
65	0x3d891292	0.06692995
66	0x3d2777eb	0.040885847
67	0xbc5734d0	-0.01313515
68	0x3d53eba6	0.051738404
69	0xbca284ed	-0.019838775
70	0xbd3b2a4a	-0.045694627
71	0xbd111edf	-0.03542983
72	0xbdc1ff4c	-0.09472522
73	0xbd5ef0cf	-0.05442887
74	0x3dffc136	0.12488024
75	0x3d647eae	0.055784874
76	0x3dcdf192	0.100558415
77	0xbd5ed6cb	-0.05440406
78	0x3e1bf251	0.15229155
79	0x3d05dc25	0.03268065
80	0x3dbd65ec	0.09247956
81	0x3d816832	0.06318702
82	0x3c8e4df5	0.017371157
83	0xbda9c598	-0.08289641
84	0xbd63d1c3	-0.055619966
85	0xbdfcfd75	-0.123530306
86	0x3da4b855	0.08042971
87	0xbd421f48	-0.047393113
88	0x3d4a01d6	0.049318157
89	0xbcea45b8	-0.028597698
90	0xbd3791cc	-0.044816777
91	0x3de7fc4d	0.113274194
92	0x3da45247	0.08023506
93	0x3cfc5e6a	0.030806739
94	0xbdb0a6d9	-0.08625574
95	0xbd6d79a1	-0.057977322
96	0x3b1b292f	0.002367567
97	0x3c875109	0.016518133
98	0x3d17d6c8	0.037070066
99	0xbd2bff23	-0.041991364
100	0xbd8e8288	-0.069584906
101	0x3d1a047f	0.037601944
102	0xbc42b74a	-0.01188452
103	0xbe0a1400	-0.13484192
104	0xbce48eec	-0.027900182
105	0x3d33cc02	0.04389573
106	0xbe0e71fd	-0.1391067
107	0xbc1d483c	-0.009599742
108	0x3c9be671	0.019030781
109	0x3b792530	0.003801655
110	0xbc9a0f9a	-0.018806268
111	0xbd18218e	-0.037141375
112	0x3d9d7b92	0.07689585
113	0xbd98e04f	-0.074646585
114	0xbccabdba	-0.024748672
115	0x3a383e55	0.0007028331
116	0xbcd9e00b	-0.02659609
117	0x3ae024ba	0.0017100789
118	0xbdcfcd58	-0.10146588
119	0xbd35f573	-0.04442353
120	0xbcb18c1a	-0.021673251
121	0xbdbb1350	-0.09134543
122	0x3da0e10f	0.078554265
123	0xbc2cb894	-0.010542054
124	0x3dec7ca5	0.115472116
125	0x3caf2bd4	0.021383204
126	0x3d860c88	0.06545359
127	0x3cd63279	0.026147114
128	0x3cd3bef0	0.025847882
129	0xbdf0446e	-0.11731802
130	0x3d95a94a	0.0730768
131	0xbd306ec6	-0.04307439
132	0xbdc342cf	-0.09534227
133	0xbcb86471	-0.022508832
134	0xbe3d0db0	-0.18462253
135	0x3dea52e2	0.1144159
136	0xbbd41856	-0.0064726276
137	0xbcb39493	-0.021921432
138	0x3d0738f9	0.033013318
139	0xbd9da225	-0.07696942
140	0x3df8ed99	0.12154693
141	0xbdb569fc	-0.088581055
142	0xbd0e997c	-0.034814343
143	0x3d2a1d5c	0.041531906
144	0xbd368d11	-0.044568125
145	0xbcfee133	-0.031113243
146	0xbe2ea870	-0.17056441
147	0xbd022f67	-0.031783488
148	0xbd47876c	-0.048713133
149	0xbcbf0acf	-0.023320584
150	0xbd39c34c	-0.045352265
151	0xbcda4f19	-0.026649045
152	0x3ca9c97f	0.020725964
153	0x3d960d3a	0.073267415
154	0x3cae6f3b	0.021293273
155	0x3e2878e4	0.16452366
156	0xbdb0f672	-0.08640756
157	0x3dd5722d	0.10422168
158	0xbe011a62	-0.1260772
159	0xbdebd56c	-0.11515316
160	0x3cc25f98	0.023727223
161	0xbdb2a111	-0.08722127
162	0x3cb29088	0.021797433
163	0xbbdf56a7	-0.0068157497
164	0xbc4dfe66	-0.01257286
165	0x3cebce11	0.028784784
166	0x3c66aab9	0.014078789
167	0x3c54e1c4	0.01299328
168	0x390b435d	0.00013281168
169	0xbc5e1363	-0.013554427
170	0xb9ab88a1	-0.00032717458
171	0x3d360879	0.044441674
172	0x3db3fae0	0.08788085
173	0x3dc9221f	0.09820961
174	0x3ca14272	0.019685004
175	0x3c14d93b	0.009084995
176	0x3d6186b1	0.055060092
177	0xbd05b9a5	-0.032647748
178	0xbb7d7d38	-0.0038679373
179	0xbdb16f5b	-0.086638175
180	0xbce0674c	-0.027393006
181	0xbd235b55	-0.039882023
182	0xbdb4e3a2	-0.0883248
183	0x3dc2d4b7	0.095132284
184	0x3b85a271	0.0040782024
185	0xbcf653a9	-0.03006919
186	0xbd8732cc	-0.066014856
187	0x3d353009	0.044235263
188	0x3bc39187	0.005968276
189	0xbdbcb66f	-0.09214484
190	0x3d4cca37	0.049997535
191	0xbe35344c	-0.17695731
192	0xbda62011	-0.08111585
193	0xbc022d31	-0.007945345
194	0xbd60ae93	-0.054853987
195	0x3bae0e53	0.005311766
196	0x3c77ee5e	0.015132515
197	0x3ca5dddc	0.020247392
198	0x3c5edf75	0.013603081
199	0x3d563dfd	0.05230521
200	0xbd5e5a30	-0.05428523
201	0xbc94d11e	-0.018166121
202	0xbdb40d48	-0.08791596
203	0x3d472a84	0.04862453
204	0x3dc06508	0.0939427
205	0x3d417847	0.047233846
206	0xbc83079c	-0.01599484
207	0x3ddcfed5	0.10790793
208	0xbc595f58	-0.013267361
209	0xbcea343e	-0.028589364
210	0xbb0b1798	-0.002122378
211	0xbc3c7767	-0.011503077
212	0x3d599674	0.053122
213	0x3d9b19d0	0.07573283
214	0x3c7079bb	0.01467746
215	0xbd6fb566	-0.058522604
216	0x3da964cc	0.082711786
217	0xbdb48ed4	-0.08816305
218	0x3d5951c2	0.053056486
219	0x3ac064db	0.0014678495
220	0x3d5c4d6b	0.05378477
221	0xbd534a5c	-0.051584587
222	0xbc22bba4	-0.009932432
223	0x3dfc7dc7	0.123286776
224	0x3da446e2	0.08021332
225	0x3d0fed47	0.035138395
226	0xbcb8b294	-0.02254609
227	0x3d8353ca	0.06412466
228	0x3d65392a	0.05596272
229	0x3cef62ec	0.029221974
230	0xbd2e7f0b	-0.042601626
231	0x3c4ec823	0.0126209585
232	0x3e11aafb	0.1422538
233	0x3d895c79	0.06707091
234	0x3dd4733b	0.10373541
235	0xbdf97a42	-0.12181522
236	0x3da701ae	0.08154617
237	0x3d16893d	0.036751974
238	0x3d165474	0.036701635
239	0x3d84fbb6	0.064933226
240	0xbdb8636e	-0.0900334
241	0xbde1191f	-0.109911196
242	0x3d8d4af0	0.06899059
243	0x3d45b5e2	0.04826916
244	0x3de2ec64	0.11080244
245	0x3df4413a	0.119265035
246	0x3c38e288	0.011284478
247	0xbc3b9118	-0.011448167
248	0x3cca5300	0.02469778
249	0x3df22487	0.11823373
250	0xbc5dd2f2	-0.013539063
251	0x3ceedac5	0.029157052
252	0xbd9475f9	-0.07249064
253	0xbcbb37dd	-0.022853786
254	0xbd40b8f8	-0.0470514
255	0xbd4ab55e	-0.04948937
