RobotTraining_PathPlanning/Assets/NNModels/RobotUR10_rbpp_01.onnx (onnx, 555573 bytes, 9 tensors)

action_model._continuous_distribution.log_sigma f4 [1, 5]
000000 65 9d e3 bf 75 40 f8 bf 9a 2c 34 bf 0f 29 9c bf
       -1.7782408 -1.9394671 -0.70380557 -1.220003
000010 be 35 b6 bf
       -1.4235151

action_model._continuous_distribution.mu.bias f4 [5]
000000 e9 a0 39 bc 28 1e 84 bc b7 9a 83 bd 51 ba ad bc
       -0.011329868 -0.01612766 -0.06425994 -0.021207007
000010 b8 54 d1 3c
       0.025553092

action_model._continuous_distribution.mu.weight f4 [5, 256]
000000 56 75 8f 3d c5 70 8c bc 14 e1 3f 3c 51 b6 ba 3c
       0.07004802 -0.017143616 0.011711378 0.022792013
000010 c2 11 fc bc 33 a8 e5 3c 73 51 c4 bc 97 07 02 bb
       -0.030770186 0.028034305 -0.02396462 -0.001984095
000020 8a 68 ae 3c 5f c4 1a 3b 93 c5 57 3c 41 f5 31 bb
       0.021290082 0.0023615581 0.013169664 -0.002715424
000030 3b 25 a2 bc 0f 28 0a 3d b5 97 4f 3c cf 5a 31 3d
       -0.019793143 0.03372961 0.012670447 0.043299492
000040 0f ec f4 3b 2f 53 d4 b9 f7 81 41 3c 01 b4 cf 3c
       0.0074744294 -0.00040497768 0.011810771 0.025354387
000050 3e fa 62 3c 47 80 d7 3c 32 97 fe bb e5 e2 05 3d
       0.013853608 0.026306285 -0.0077694887 0.032687087
000060 3d bc 20 3c ec 51 0a 3d 18 99 e3 bc ef ae f8 bc
       0.0098105045 0.033769533 -0.027782962 -0.030356852
000070 2b 7b 94 bb a2 fe e9 bb 54 9a 0e 3c da d0 9d 3c
       -0.0045312843 -0.0071409503 0.008703787 0.019264627
000080 6d a3 e8 3b 65 80 17 3c 30 c1 65 bc ec fd ca 3b
       0.00709956 0.00924692 -0.01402311 0.0061948206
000090 97 4c 50 3d a3 58 4b 3d d5 32 70 bb 32 cc 08 3d
       0.05085429 0.049645077 -0.0036651392 0.03339786
0000a0 7a 20 49 3c 06 91 a5 3a fa ea 0c 3c ac 98 28 3b
       0.012275809 0.0012631721 0.008600945 0.0025725765
0000b0 f2 ba 9a bc e6 b4 fe 3a bb 0d 19 3d 9e ee 6d bc
       -0.01888797 0.0019432574 0.03736661 -0.014522223
0000c0 41 c6 57 bc e6 93 08 3d 3b c5 aa 3b 42 a5 86 3c
       -0.013169826 0.033344172 0.0052115 0.016436223
0000d0 24 03 13 3c b0 a9 6c bb 55 61 5f 3c 17 27 ad bc
       0.008972917 -0.0036111884 0.013634046 -0.021136804
0000e0 96 09 39 3c 1f bf bc 3b 17 17 cc 3a ed c2 5b bc
       0.011293789 0.005760088 0.0015570846 -0.013413173
0000f0 06 a7 ed 3c 3e ea 4a 3c 06 cd 60 ba 01 67 f8 3c
       0.029010307 0.012384949 -0.0008575473 0.030322554
000100 a7 a1 c9 3c 98 24 0b 3d c3 a2 3e 3b 57 5f 1e 3d
       0.024613215 0.033970445 0.0029088713 0.038665142
000110 6b a6 cf 3c b1 ff f8 b9 9f 2c 09 bd 59 a9 ca bc
       0.025347909 -0.0004749275 -0.03348982 -0.024738954
000120 f3 29 d7 3c 26 83 83 3c 84 98 03 3d 0a f5 16 3c
       0.02626512 0.016053747 0.032127872 0.009213695
000130 d3 77 ab 3a 2a 9a b9 bc f3 44 ed ba d4 64 26 bc
       0.0013081975 -0.022656519 -0.0018102214 -0.010155875
000140 ca 54 8c 3d bc b8 a9 3b 78 6f 0d bc 04 ab fd bb
       0.0685211 0.0051794928 -0.008632533 -0.007741334
000150 4c bf 01 bc 73 58 2a 3d a0 c0 19 3d 8e 2e 43 3d
       -0.007919144 0.041588258 0.037537217 0.04765182
000160 ec b3 62 bc 3b 54 f0 bc 3b 1b 60 3d a0 34 ee 3b
       -0.013836842 -0.02933704 0.05471347 0.007269457
000170 a5 3a ea bc f0 3b 10 3c 35 39 a2 3c 2f 52 76 3b
       -0.028592417 0.008803353 0.019802669 0.0037585606
000180 e0 db 18 3c 34 09 1d bc 02 77 01 bd ff 3f 1a 3a
       0.009329766 -0.009584714 -0.031607635 0.000588417
000190 a9 73 bf bb a7 a3 b7 bc 0a 64 58 bb 1d f1 9e 3c
       -0.005842645 -0.022416903 -0.0033018612 0.019402081
0001a0 3b f1 c8 bc c5 85 bc 3c 55 c6 7b bd 93 7c 4b bd
       -0.02452909 0.023013005 -0.06146844 -0.04967935
0001b0 ea c3 03 3c 5e 45 63 b9 d5 31 0a bd 52 9c 93 bb
       0.008042315 -0.00021674248 -0.03373893 -0.004504719
0001c0 a9 3b 4f 3c 3b 64 eb 3c 16 aa 2d 3d da 33 12 bc
       0.012648501 0.028734317 0.042398535 -0.008923495
0001d0 63 0a 44 3c 87 4e 9b bb 15 df fe bb 4d 0d dd 3c
       0.011965367 -0.004739586 -0.0077780583 0.026983881
0001e0 6b c8 5b 3c a4 4d 16 bc 66 47 a5 3b d7 64 70 3c
       0.013414483 -0.009173784 0.0050439117 0.01467248
0001f0 c7 28 f7 3b 08 8f 89 bc a1 f3 89 bd 4e 7c cf bc
       0.007542703 -0.016791835 -0.06735922 -0.025327828
000200 10 2e 30 3d 67 26 1f 3c c5 9d 81 b7 6d 61 c2 3c
       0.04301268 0.009713746 -1.5451466e-05 0.023728097
000210 35 67 2b 3d 52 02 6b 3c 9f 00 05 3d 34 f7 21 3c
       0.041846473 0.014343815 0.032471295 0.009885598
000220 33 e8 7a 3c f0 0e 7c bc 00 94 27 bd b9 c6 61 bc
       0.01531415 -0.015384421 -0.04091263 -0.013780289
000230 70 5b 03 3d 6f a1 f7 3b 70 c9 ce 3c 73 51 1b 3d
       0.032069623 0.007557086 0.025242537 0.037919473
000240 a7 42 06 3c 2e b8 3c 3c 2d d9 dc 3b 53 cf 4a bb
       0.008194602 0.011518521 0.0067397566 -0.0030946329
000250 bd 46 9d 39 e7 f2 ff 3b 98 a6 7e bb 2f c0 5b bc
       0.00029998078 0.0078109386 -0.0038856622 -0.013412519
000260 30 2e 41 3d 73 29 01 bb a4 cc 9f bb 5c cb c8 bb
       0.04716319 -0.0019708544 -0.00487669 -0.006127758
000270 1b de 0c 3d 06 c6 67 3c 04 6c 1c 3d bd 68 0e 3d
       0.034391504 0.014146334 0.03818895 0.034767855
000280 5c 76 b1 3b a3 e9 f2 bc 40 71 25 bc 6f 2f 30 bc
       0.005415721 -0.029652422 -0.010097802 -0.010753497
000290 b1 6c d0 3c 24 ac 32 3c c7 08 e1 3c 97 5e 0d 3c
       0.025442453 0.010905299 0.027470006 0.008628509
0002a0 01 ff ba bc 22 e1 bf 3c 5c 6e ab 3c e8 36 fb 3b
       -0.022826673 0.023422781 0.020926647 0.0076664574
0002b0 97 b7 e6 3c 56 aa 35 bd b6 12 e1 3b d6 37 b9 3a
       0.028163714 -0.044351898 0.0068686856 0.001413102
0002c0 17 46 85 b9 bd 04 1d 3d 95 d3 41 3d 9a 99 ea 3c
       -0.00025419958 0.038334597 0.04732092 0.028637696
0002d0 e2 03 bf bb 4c c7 3b 3c 02 ce 51 3c ac d2 14 3d
       -0.0058293203 0.01146109 0.012805464 0.036333725
0002e0 67 58 63 3c 21 ce 47 3d 6d 0f 19 3d 20 5b 13 bb
       0.013876057 0.048780564 0.037368227 -0.0022484735
0002f0 3a 44 16 3d 3c 08 e7 bc 9a 94 9b 3d 1b 13 1d 3b
       0.03668616 -0.028202169 0.07596703 0.0023967687
000300 05 ca 20 3c ae b9 e6 3c b0 01 7b 3c 7b fb 73 3d
       0.00981379 0.02816471 0.015320227 0.059566002
000310 cc 60 09 bc 28 f7 ba 3c 7e f2 23 3d e0 1c c8 3c
       -0.008384895 0.022822931 0.04002618 0.024427831
000320 bd ff 3e 3c 8e e8 2a 3d 54 21 55 bc 22 1e 09 3c
       0.011657652 0.041725688 -0.013008434 0.008369001
000330 6c 47 83 3c 9f 32 14 3d 00 2b e2 3c dc e2 46 3c
       0.016025268 0.03618109 0.027608395 0.012139048
000340 c9 8a 15 bc 32 cd d7 3c 86 1f 5c 3c 47 a7 16 3b
       -0.009127327 0.026342962 0.01343525 0.0022987889
000350 6f 3c 54 3d c5 21 02 3b c2 87 74 bc 4f 90 63 3d
       0.051815446 0.0019856554 -0.014924945 0.055557545
000360 5d 4b 90 3c 25 6e 05 3b c3 c7 13 3d 1a 19 f4 3c
       0.017614061 0.002035984 0.03607918 0.029797126
000370 10 c1 8d 3c ce dc 14 3c 0c df c9 3b ef 94 bc 3c
       0.017303973 0.009085847 0.0061606225 0.023020236
000380 e7 de 96 3d 2f 0e e6 3a 0d 37 56 3b 2d 67 84 bc
       0.07366734 0.0017551834 0.0032686621 -0.01616248
000390 a7 49 8f 3c d1 86 a0 ba 82 0d 5d 3c 25 30 89 3c
       0.017491175 -0.001224721 0.01349199 0.01674659
0003a0 a5 69 29 3d 03 bc a0 3c 93 38 a1 bb c8 72 c4 bb
       0.041360516 0.019620901 -0.0049200743 -0.0059951283
0003b0 5b 1d 64 bb 43 68 31 bb 87 2d 46 bc 9c 7e 74 3b
       -0.0034807536 -0.0027070201 -0.0120958155 0.003730691
0003c0 e6 ad 05 3d 46 1b 2d 3d 39 d8 04 3d 4f df d3 3b
       0.032636546 0.042262338 0.03243277 0.0064658294
0003d0 a0 63 3b 3d c4 98 20 3c 78 a7 89 3b 56 1c ca bc
       0.045749307 0.009802047 0.004200872 -0.024671715
0003e0 dc 3c 2d bc 52 62 90 bc 2b 01 c9 bc 88 74 94 3c
       -0.010573592 -0.017625008 -0.02453669 0.018121973
0003f0 45 16 46 3c 32 28 3c 3c b8 94 41 bc 6d a6 32 39
       0.01209027 0.011484193 -0.0118152425 0.00017037401

network_body.linear_encoder.seq_layers.0.bias f4 [256]
000000 b6 5a ed bc 66 b5 e0 3c 67 8f 83 bc 0b b5 56 3d
       -0.028973918 0.027430248 -0.01605959 0.05241875
000010 cf 6f 2d 3c 40 81 7e bc 79 fb a7 bd c9 b8 f9 bc
       0.010585739 -0.015533745 -0.082022615 -0.03048362
000020 f7 f6 53 bd 3a 8d a1 3c b3 05 d8 3d f6 3b 93 3c
       -0.051749196 0.019720662 0.10547962 0.017972928
000030 79 d7 b5 3b f8 f0 ce b9 dc a3 4f bd 56 60 61 bc
       0.005549368 -0.00039470918 -0.050693378 -0.013755878
000040 87 62 fb bc 41 ff 8d 3d 03 60 85 3c be 41 ba 3c
       -0.03068663 0.069334514 0.016281134 0.022736426
000050 7b 73 cb 3b 2d 4f 0e 3d 0b dc 16 bd 1b 3e 39 3c
       0.0062088347 0.034743477 -0.036830943 0.011306311
000060 a8 47 36 3d b5 09 64 3d b9 7d 50 3c 93 08 6a bd
       0.04450193 0.05567332 0.012725287 -0.057137083
000070 64 5a 85 3d 55 76 99 3d ab 2c 88 bd ff cb 21 39
       0.06511381 0.07493273 -0.06649145 0.00015430151
000080 bc 68 da 3b 2b 1d 98 3c cb a5 72 bc 1a 1d 02 bd
       0.0066653173 0.018568596 -0.014810036 -0.031766035
000090 7e 49 2a bd 05 16 1b bd fd fe 85 3c f0 4f 7f 3d
       -0.041573994 -0.037862796 0.01635694 0.062332094
0000a0 3c df 31 3d 8f 97 17 bd 4d 3a 13 bd 0b 92 27 bc
       0.043425784 -0.037009772 -0.03594427 -0.01022769
0000b0 a5 94 87 bc fa b6 bd 3d d5 07 1a 3c 80 69 a7 3a
       -0.016550371 0.09263416 0.009401281 0.001277253
0000c0 8c a3 0a 3d bf 84 b0 3b 7f 0e 39 bd a3 7d 90 bb
       0.033847377 0.0053869183 -0.04517984 -0.0044095083
0000d0 5d ee 62 3c 02 40 f6 3c ab 49 86 3c 5d ef db bc
       0.013850776 0.030059818 0.01639255 -0.026847536
0000e0 f2 43 42 3d ac e3 c7 bc 39 1e 84 bc 55 ed 4a bd
       0.04742808 -0.024400555 -0.016127693 -0.049542744
0000f0 a4 a3 4b bc 29 65 3a 3d d2 d1 a1 3c ee dc 04 bd
       -0.012429152 0.04550663 0.01975337 -0.032437257
000100 89 48 36 bd 6b 64 c4 3c 37 a5 55 bc 1d 7c 2c 3c
       -0.04450277 0.023973664 -0.013039879 0.010527638
000110 d9 6e 6c 3b 91 90 96 bc 51 aa 63 3c 3d 18 79 3c
       0.0036076813 -0.018379482 0.013895587 0.015203533
000120 06 54 a0 3c 01 7a 9f 3d 0c 0d 38 bc 4d 62 93 3d
       0.019571315 0.07786942 -0.011233579 0.07196484
000130 03 bf 54 3d 5d 16 0f bd 82 d0 5d 3c ad 66 62 3c
       0.051939975 -0.034933437 0.013538482 0.013818425
000140 62 21 44 bd 58 9f 9d 3d b6 a1 bf bb f1 32 18 bc
       -0.0478834 0.07696408 -0.005848135 -0.009289489
000150 f4 07 ef 3c cc 7e 55 3b 39 ab 98 3d bc 17 bc bc
       0.029178597 0.0032576798 0.07454533 -0.022960536
000160 30 34 bb bc fb d1 88 3c 27 2c 10 bd ba 09 45 bc
       -0.022852033 0.016701689 -0.035198357 -0.012026245
000170 1f 01 59 3d c2 dd 44 3d 54 35 85 3b 77 4e 37 bc
       0.052979585 0.048063047 0.004065195 -0.011188141
000180 81 63 d7 3c 7a 96 9a 3d d0 50 2d 3a 9c 74 4d 3c
       0.026292564 0.075482324 0.0006611468 0.012540009
000190 1b 8d f9 3a b9 d9 2d 3d 50 7d ed 3c f5 1f ac 3d
       0.0019039245 0.042443965 0.028990418 0.08404533
0001a0 57 3e 0f bd c2 18 3d 3c e7 34 03 bd af cf 35 3d
       -0.03497156 0.011541547 -0.032032873 0.044387516
0001b0 07 51 6a 3d 3e 7c c7 bc 45 bc 94 3d 0d e7 56 bd
       0.05720618 -0.024351235 0.07262472 -0.05246644
0001c0 e8 a3 98 3d ad 00 42 3c 1f 21 cf bc d4 75 86 bc
       0.07453138 0.011840981 -0.025284348 -0.016413607
0001d0 da 8b 0b bd cb c3 bf 3c fd 12 fc bc 20 f6 6e 3d
       -0.03406892 0.023408791 -0.030770773 0.05834019
0001e0 a9 be 2d bd 9d ae a4 bc 07 6a 7b 3d 9a 14 41 3d
       -0.042418156 -0.020102793 0.061380412 0.047138788
0001f0 28 07 c4 3b 76 8e 27 3b 4a 3b 59 3c f6 35 78 3c
       0.0059822984 0.002556709 0.0132587645 0.015149584
000200 00 86 11 bd a7 41 51 bd 53 a9 bf 3b d2 20 e8 bc
       -0.035528183 -0.051088 0.0058490424 -0.028335962
000210 58 78 78 3d 19 e8 9d 3b 57 fb 49 3c 00 de 65 3d
       0.060661644 0.004818928 0.0123279905 0.05611992
000220 c3 d8 e9 bc 8b 5b cd 3a 5a b9 ec 3b 5b 79 30 3d
       -0.028545743 0.0015667541 0.007224244 0.043084484
000230 1d 94 65 3d fc 9d 09 3d 9d 42 63 3c 3a c9 17 3b
       0.056049455 0.03359793 0.013870862 0.0023160712
000240 2e 58 82 3d eb 03 92 bc 5f f5 eb 3d ee 88 a1 bc
       0.06364475 -0.017824134 0.1152141 -0.019718613
000250 ed 3f 85 bc 57 56 af 3c aa dd 63 bc 38 37 c9 bc
       -0.016265834 0.021403475 -0.013907829 -0.024562463
000260 85 93 b3 bc 49 d6 7c 3d 3f 9f f9 3c 44 62 df bc
       -0.021920929 0.061727796 0.030471442 -0.027268536
000270 3a 07 41 3d 92 af 7c 3d 04 4d da 3b 3a ef c8 bc
       0.047126032 0.061690874 0.006662013 -0.024528135
000280 1e 33 66 3d 4c 9b b6 3c 32 53 28 bd 8f a5 4f bd
       0.056201093 0.022290848 -0.041094966 -0.050695
000290 0f 28 3d bd 1b a7 db 3c 00 5e 22 3d 2d e7 d2 3d
       -0.04618078 0.02681308 0.039640427 0.102979995
0002a0 b7 4d e2 3c 64 6b ad bc 9b e2 9f 3c 43 1a 4c bc
       0.027624948 -0.021169372 0.019517234 -0.012457433
0002b0 d5 53 6d bc a1 35 0e bd 8b 8f 88 bb ef 11 b1 3b
       -0.014485319 -0.034719113 -0.0041675023 0.005403749
0002c0 6a 08 38 3d 0d 5e 74 bc d8 67 8e bc 3a 8d 81 3d
       0.0449299 -0.014915002 -0.017383501 0.06325765
0002d0 94 08 02 bd e4 ea 39 ba bf e8 02 3d a2 15 d6 3c
       -0.031746462 -0.00070921914 0.031960245 0.026133362
0002e0 3f c5 ee 3d 0f a4 76 3d 96 83 3a bc 57 e5 7b bc
       0.116587155 0.060215052 -0.011383912 -0.015374503
0002f0 fb 7f 26 3c 97 a7 e2 3c b8 cb 86 bc 37 5a 9d 3d
       0.010162349 0.027667804 -0.016454563 0.07683223
000300 cc c6 c1 bc 32 88 2f bd a9 59 0d bd 8e da 30 3d
       -0.023654364 -0.042854495 -0.034509335 0.04317718
000310 5c d5 07 bd 8d c0 aa 3c 7f a6 d1 3c ed 59 1e bd
       -0.03316246 0.020843768 0.025592087 -0.03865998
000320 9f 53 15 3d e1 a6 40 bc 32 40 e7 3b 8b 99 53 bb
       0.0364567 -0.011758537 0.007057213 -0.0032287564
000330 b4 e7 53 3d 0c 39 77 3c 0a 24 22 3d 27 65 c4 bc
       0.05173464 0.015089285 0.03958515 -0.023974014
000340 5d 1f ad bc 41 16 e0 bc d4 a4 af 3c 24 d9 eb bb
       -0.02113312 -0.027354361 0.0214409 -0.007197516
000350 21 fc 23 3b a7 23 34 3d 8a 61 ce bc e6 6b ed bb
       0.0025022107 0.043979313 -0.025192995 -0.0072455285
000360 f8 34 6a bc 38 90 46 3d 64 3c 03 bd d3 29 0d bd
       -0.014294855 0.04847738 -0.032040015 -0.034463715
000370 c9 8a fc 3c db c8 25 3c 18 cc 20 3d 79 54 33 3d
       0.030827897 0.010118688 0.03925714 0.04378173
000380 55 48 08 bc 59 0f e7 3c 3a e6 00 bd 9b 95 07 bd
       -0.008318027 0.02820556 -0.03146956 -0.03310166
000390 10 1f 5d bd 50 1d 0a 3c 20 9b 6d 3d ab 18 65 3c
       -0.0539847 0.00842984 0.058009267 0.013982932
0003a0 f7 1c 70 3d 1c 25 c7 3c 3c 33 70 bc 2b 7a 0a bc
       0.058621373 0.024309687 -0.014660653 -0.008451979
0003b0 5c 51 bd 3b bc 0b 2f 3d a5 dd 0a 3d 08 a6 2f bd
       0.005777521 0.0427358 0.033902783 -0.04288295
0003c0 89 19 c3 3b c2 ca c6 bc 68 ad 25 bd 19 1d 6a 3d
       0.0059539718 -0.024266604 -0.040448576 0.057156656
0003d0 1b d1 d5 bc 04 91 33 bd 51 51 49 3b 32 c6 2a 3c
       -0.026100686 -0.04383947 0.0030718634 0.01042323
0003e0 e7 27 09 3c 79 d8 fe 3b 39 88 20 bd aa 58 5d 3c
       0.00837133 0.0077772704 -0.039192412 0.013509909
0003f0 84 9d ea 3c 06 b4 e1 3c bd f1 02 3d 30 10 b2 3d
       0.028639562 0.027551662 0.03196882 0.08694494

network_body.linear_encoder.seq_layers.0.weight f4 [256, 20]
000000 f7 b9 56 be 7d 58 0f 3f 7c 13 84 3e 25 81 c6 ba
       -0.20969377 0.559944 0.25796115 -0.0015144689
000010 c1 6b 31 bf 07 cb fd 3d eb da 22 3e 88 48 a0 3d
       -0.69305044 0.1239224 0.15903823 0.07826334
000020 66 2a 27 3e 4d 6e 5b 3e 97 35 18 be ee 34 2b be
       0.16324767 0.21428795 -0.14864193 -0.1671941
000030 d6 b6 a7 3e 20 2a a8 3c 7c e4 ed 3d 6b d1 e3 3e
       0.3275668 0.0205279 0.116158456 0.4449571
000040 87 77 d1 be 1e 75 cd 3e ff 54 9c be ab d1 a5 3b
       -0.40911505 0.40128416 -0.30533597 0.0050603948
000050 f5 fd 8e bd e1 bd c3 bc 5a 82 bb 3d 73 0b 73 3d
       -0.06982032 -0.023894252 0.09155722 0.05933709
000060 60 78 4b 3e 38 f5 ea 3d 63 ca 99 bd 32 53 82 3a
       0.19870138 0.11472553 -0.07509305 0.0009943007
000070 a2 0a 34 be 80 66 9b 3e 13 6c c6 3e 58 cc 28 be
       -0.17582181 0.3035164 0.3875433 -0.16484201
000080 da 81 17 3e d0 d1 a3 bd b1 1d 8a 3e 71 d1 9b be
       0.14795628 -0.07999003 0.26975778 -0.3043323
000090 d8 f7 eb 3e 9c 8e 2c be b3 af 1e be 1e 6e c6 3d
       0.46087527 -0.16851276 -0.15496711 0.09688972
0000a0 1d 48 d1 3d 08 3c dd bc e0 1a be be e8 33 05 3d
       0.10218833 -0.027006164 -0.3712988 0.032520205
0000b0 ef 87 14 3e 56 1d 14 3d 7d 45 b0 3d 2a 2b 31 3e
       0.1450498 0.03616079 0.08607004 0.17301622
0000c0 cb c6 57 3e 17 0d 1f 3d 2e e8 b4 be fc 6e 96 bd
       0.21071927 0.038830843 -0.3533339 -0.07345387
0000d0 8b ae 6f 3d 7e 96 8f 3e 8a 93 13 3e 36 2c 80 3e
       0.058516067 0.28044504 0.1441175 0.2503373
0000e0 b5 d0 1f 3d 9e c6 72 be ec 01 4e 3e 46 c4 7c be
       0.039017398 -0.23708579 0.2011792 -0.24684247
0000f0 46 46 4e be c4 ec db 3d 1d 49 4a 3e 12 92 0c 3c
       -0.20143995 0.10738519 0.19754453 0.008579748
000100 23 e1 1e 3d eb 9d 5a bd af 8e f5 bb 8d 1f 8a bd
       0.038788926 -0.05337326 -0.007493816 -0.06744299
000110 10 b7 ff 3e fa c8 80 3d 1e d6 1e 3e cc 97 cc bd
       0.49944353 0.06288333 0.15511367 -0.099898905
000120 6d 21 3e be 31 84 11 be ee 34 c9 3d 2a 9c d7 be
       -0.18567438 -0.14210583 0.09824549 -0.4211133
000130 21 ac b4 3e 7e d6 0c bd db c0 c6 3d 70 1f fe bd
       0.35287574 -0.034384243 0.09704753 -0.1240834
000140 fe 30 14 3d 46 07 4f 3f 56 ac 3f bc f6 0f b7 be
       0.036179535 0.80870473 -0.011698803 -0.35754365
000150 8b 0f dd 3d 96 ac 18 bf e2 75 94 bd 91 72 80 be
       0.1079398 -0.59638345 -0.07249047 -0.25087407
000160 be 50 a1 be c0 58 33 be 2a 3c 00 3e a6 6b 10 bd
       -0.31506914 -0.17514324 0.12522951 -0.03525891
000170 f6 90 ac be e9 39 5b 3e f4 df 4f 3c 56 91 5f be
       -0.33704346 0.2140881 0.012687672 -0.21832785
000180 4c e5 22 3f dd 74 e7 3d ec 97 9d bd 9c 55 23 3e
       0.6363113 0.11301587 -0.076949924 0.15950626
000190 99 bc 84 be 5d 1a 8d bd ec 24 11 3e 51 17 10 3e
       -0.2592514 -0.06889794 0.14174241 0.14071395
0001a0 94 9b 6b bd dd 2b f5 3c 27 ad ba 3e 30 d2 18 be
       -0.057521418 0.029928142 0.3646023 -0.1492393
0001b0 67 35 12 3e d2 7d 75 be 6e a3 a6 be a8 a5 5a 3e
       0.14278184 -0.23973778 -0.32546562 0.21352255
0001c0 06 fe ee 3d a6 c3 bb be c4 e6 3b bf 27 10 05 3f
       0.11669545 -0.36672705 -0.73398995 0.5197777
0001d0 ee 2b e4 bc c9 0e c0 3d 78 54 ad bd 65 c2 bf bd
       -0.027852979 0.0937782 -0.08463377 -0.0936325
0001e0 2e e2 c2 bd 93 40 98 3e 86 6e d8 bb b9 0d 4f 3d
       -0.095157966 0.29736766 -0.0066049723 0.050550196
0001f0 77 f4 95 3d 4a 93 a4 3d a7 36 8f 3e 26 65 d4 3d
       0.073220186 0.08035906 0.27971384 0.10370855
000200 7b b1 67 be b8 9d ad 3d a3 e6 9e bd c6 46 8a 3e
       -0.22626297 0.08477348 -0.07758834 0.2700712
000210 39 07 db be bb 17 ae 3d 42 08 e4 be bb d8 ee bd
       -0.42778948 0.0850062 -0.4453755 -0.11662432
000220 8b 59 d7 3c 7e 3b 33 3e a5 d0 6a be 21 bf 2d be
       0.026287815 0.17503163 -0.22931154 -0.16967441
000230 a5 79 13 3e 6f e7 f5 3e 2c 31 03 be 79 06 19 be
       0.14401872 0.48028132 -0.12811726 -0.14943875
000240 b6 3f b8 3d 0a 6e b5 3d 46 a8 db 3e a9 f1 e5 3c
       0.08996527 0.08858879 0.4290182 0.028069334
000250 c3 31 e0 be c6 af a1 be 34 34 d3 bd 67 36 64 be
       -0.43787965 -0.31579417 -0.10312691 -0.22286378
000260 a8 d8 45 be f5 27 8a bd 33 1d ae 3c 2c f3 b6 be
       -0.19320929 -0.067459024 0.021254158 -0.357324
000270 1e 03 01 bf fb 21 03 3e 18 81 41 3e c2 2a f2 3d
       -0.5039538 0.12805931 0.18896902 0.11824562
000280 46 08 9b be 13 56 e2 bc 34 af 9f 3e 3b 2c 68 3e
       -0.3027975 -0.027628934 0.31188357 0.22673123
000290 82 ef 5f be bb 82 91 bd 75 85 ae 3d 5f 05 fd 3b
       -0.21868709 -0.07105013 0.08521549 0.0077215875
0002a0 fb 31 f6 3d b7 4a c2 be 9d ad 8f 3e f7 9d 5e 3d
       0.12021252 -0.37947628 0.28062144 0.054349866
0002b0 82 0a b3 3e b4 1c ce be ae b3 bd be 8b 6f f3 3e
       0.34968954 -0.40256274 -0.37051147 0.47546038
0002c0 0b a5 e8 3e 00 58 0b 3e ca b4 c3 be 75 ef f3 3e
       0.45438418 0.13607788 -0.3822387 0.4764363
0002d0 ae 3b 7b 3e 8a 7c 98 3d 7f 63 5e 3d c9 c5 8b be
       0.24534485 0.07445629 0.054294106 -0.27299336
0002e0 82 c9 f2 be a1 65 75 3e a0 c3 a6 3e e6 d7 28 be
       -0.47419363 0.2396455 0.32571125 -0.16488609
0002f0 a1 aa 96 3d 4e 83 36 bd fb ec 08 3e 9d 08 7e bc
       0.07356764 -0.044558816 0.13371651 -0.015504983
000300 b7 cc a1 3d 75 14 dd 3d e2 ba 4a bd 40 79 44 be
       0.079003744 0.107949175 -0.04949463 -0.19186878
000310 0f 88 b4 3e 36 74 e9 3d 68 cb 4a 3c 2c c1 94 be
       0.35260054 0.113991186 0.012377597 -0.29053628
000320 8c 9f 90 bc 3c 27 b5 be d0 b7 99 be ed 27 5c be
       -0.017654203 -0.35381496 -0.3002305 -0.21499605
000330 ca a5 b6 3d 5f d3 53 3e d3 11 91 be ef 29 8e bd
       0.089183405 0.206861 -0.2833391 -0.06941592
000340 15 57 96 3e 50 61 dd 3b ce d4 44 3d 12 8d af be
       0.29363313 0.0067559853 0.04805451 -0.34287316
000350 5a 25 72 bd 74 81 c0 be 80 47 cd 3e ea 76 a7 bd
       -0.059117652 -0.37598765 0.40093613 -0.08176978
000360 a9 80 23 3f af 8d e3 3a 0a 0a 92 be 4e 2a 52 3e
       0.63868195 0.0017360951 -0.28523284 0.2052395
000370 67 3d 89 3e 70 eb 1c 3e 61 1b 3d 3e 0c ee 1a be
       0.2680466 0.15324187 0.18467475 -0.1512987
000380 f3 f1 21 3d 20 66 c6 3d df 8c 2f 3e da 1a 78 be
       0.03953738 0.096874475 0.17143582 -0.24228993
000390 fb 81 98 3e b0 29 49 be 0f 63 8b 3d 61 60 96 3e
       0.29786667 -0.19644809 0.06806003 0.29370406
0003a0 af 19 9f be b5 7a 10 be a8 4e aa 3e 24 32 8e bd
       -0.31074283 -0.14109309 0.33263135 -0.06943157
0003b0 35 c2 15 3f 0e 25 de 3d b4 ad 12 be 75 48 7e be
       0.5849946 0.10846911 -0.14324075 -0.24832328
0003c0 c6 c1 ff be 7f aa 6b bf 6b 33 0a bd dc 97 9a be
       -0.49952525 -0.9205703 -0.033740442 -0.30193985
0003d0 5a 1e 8a be 55 01 6c 3e 27 d4 bd 3d fe 42 d8 bd
       -0.2697628 0.23047383 0.092689805 -0.10559653
0003e0 3a e7 d8 3c 42 31 f1 be 6c 52 af bc 92 65 04 3e
       0.026477445 -0.47107893 -0.021401607 0.12929371
0003f0 dc fa 0d bf ab bc 9a 3d 0f e8 8b 3c 73 28 b4 be
       -0.55460906 0.07555517 0.017078428 -0.3518711

network_body.linear_encoder.seq_layers.2.bias f4 [256]
000000 c4 b8 ca 3b 08 f8 9a 3c 28 b8 2b bc 70 4f 8f 3b
       0.0061865766 0.018917099 -0.010480918 0.0043734834
000010 45 cd 3a 3d cb 1f 99 3d eb 28 b6 3b f5 6d c3 bc
       0.045605917 0.07476767 0.005559077 -0.023856143
000020 c8 84 e7 bb e3 af 76 3b 5b 6b 3f 3c 1f 32 5b 3c
       -0.0070653893 0.0037641458 0.01168331 0.013378649
000030 b1 02 67 bc d2 d7 cf 3a e8 5e 61 3c 3e 75 b6 3c
       -0.014099763 0.0015857166 0.013755538 0.022272702
000040 b4 d8 ae 3c 96 50 ac 3c 14 56 31 3b 9b 73 9f bb
       0.021343566 0.02103452 0.0027059363 -0.004866076
000050 80 77 da 3c c5 e5 d5 bb 37 7f 8e 3b 1d f5 5f 3c
       0.02666831 -0.006527635 0.0043486613 0.013669279
000060 cd ee 41 3c fb fe 87 3c a4 27 f8 bc 14 04 0a ba
       0.01183672 0.016601076 -0.03029234 -0.000526489
000070 2f 90 02 bb 76 b2 02 bd ca c4 b7 bc d2 e7 03 bd
       -0.0019922366 -0.031908475 -0.022432704 -0.032203503
000080 7e a0 ba ba 86 8c a4 3b 3c 35 fb bc 7f b9 7d 3b
       -0.0014238504 0.0050216345 -0.030665033 0.00387153
000090 dd a4 a4 bb b4 4c 04 bd 74 7e a8 bc 25 42 ed 3c
       -0.005024536 -0.032299712 -0.02056811 0.028962204
0000a0 73 1d 68 bc 8d ed e8 3a 11 90 7a 3b 34 a6 db 3b
       -0.0141671775 0.0017770991 0.0038232843 0.0067031626
0000b0 ff 16 a6 3c c7 c8 98 bc 69 9a 81 bd ce 52 4f 3b
       0.020274637 -0.018650426 -0.063282795 0.0031635049
0000c0 3d ea 0b 3d 5a 95 f2 3b 55 1b ef 3a 2e d6 29 bd
       0.034158934 0.007403058 0.0018242399 -0.041464023
0000d0 f9 2d 56 3c 49 b7 5e bc 7d 88 32 bd f1 5e a5 ba
       0.013072484 -0.013593503 -0.043587197 -0.0012616796
0000e0 5c ea 25 3c 79 01 14 3b 67 d8 13 3d c3 d7 39 3c
       0.010126676 0.0022583886 0.03609505 0.0113429455
0000f0 da 4d f4 3b 7e 44 3c bd 82 07 99 bc 57 56 22 3d
       0.0074555697 -0.045963757 -0.018680338 0.03963312
000100 d9 4e a7 bb 99 45 89 3b 09 82 88 3c f9 09 09 3b
       -0.005105835 0.004189205 0.016663568 0.0020910485
000110 e8 f3 ef 3c b0 9c 4d bd 60 6f f0 bc ff 3b ce bc
       0.029291108 -0.050198257 -0.029349983 -0.025175093
000120 bd 32 33 bd 72 d1 84 bd 75 c1 cd 3c 2d 88 67 3c
       -0.04374956 -0.06485261 0.025116662 0.014131588
000130 37 1a be 3c e4 44 b7 3b 7d f9 8e bb 9b 13 19 3d
       0.02320586 0.005592929 -0.0043632374 0.037372213
000140 52 13 7f 3a e2 4e 99 bc 16 03 84 ba 63 d4 34 3c
       0.0009730357 -0.018714372 -0.001007172 0.011036965
000150 8f d3 b5 3a 24 2e 14 3c f6 65 49 3c e8 6b 05 bd
       0.0013872253 0.009044204 0.012292376 -0.03257361
000160 d2 d0 83 bb 7c 73 86 3a 09 ae 4f 3c 41 fb d4 3c
       -0.004022696 0.0010257806 0.012675771 0.025998713
000170 3d 39 73 bc 9b 28 8a bc 38 d4 4b bc 7e 6e e9 3c
       -0.01484519 -0.016865065 -0.012440734 0.02849507
000180 15 a1 76 bc 60 ca af bc 1d 79 14 bc 2d a2 b5 3c
       -0.015053053 -0.021458805 -0.009062079 0.022172058
000190 a4 0b a6 3c be 9b 2d 3d a3 d1 6b bc a7 09 06 bd
       0.020269223 0.042384855 -0.014393243 -0.03272405
0001a0 19 8b 89 3c 92 11 18 3d 3a ce 26 3c 04 9b 9d bc
       0.01678996 0.03712613 0.010181004 -0.019238956
0001b0 2c d5 61 bc 65 c7 0b bc e9 58 d8 bb 60 5b a7 b6
       -0.013783734 -0.008531426 -0.006602396 -4.9876253e-06
0001c0 a0 5c 57 39 3e 0e 8d bc 45 96 e2 bc 81 44 a7 ba
       0.00020538503 -0.017218705 -0.027659545 -0.0012761505
0001d0 0a 4c 16 3c 27 ba 19 bc e7 41 4c bc d2 69 72 3c
       0.009173403 -0.009382761 -0.012466884 0.014795737
0001e0 fe 30 ff 39 7e 1c 6d 3c 3f 3c b9 3c f3 f5 8e bc
       0.00048673892 0.014472125 0.022611735 -0.017451262
0001f0 bc a6 dd 3c d3 ff d7 3c cd 59 b9 3c c3 0d bd bc
       0.027057044 0.026367104 0.022625828 -0.023077851
000200 c6 92 37 bc 1c 3d 8e 3c 8c 3c ae bc c2 cd 02 bc
       -0.011204427 0.017363124 -0.021269105 -0.007983627
000210 6a 1e 9f 3b 69 98 a1 3c 3b 95 fc bb 03 3e 51 bc
       0.0048559206 0.019725995 -0.0077082193 -0.012771132
000220 32 82 98 3b a2 a0 02 bd 23 37 84 3c 58 f2 5a bd
       0.0046541924 -0.031891473 0.016139572 -0.053453773
000230 2d f0 47 3c 3e 34 3f bc 4f 55 0a bb c7 d4 d7 bb
       0.012203258 -0.01167017 -0.0021107977 -0.0065866443
000240 53 03 fd 3c 0d d6 a3 3c 75 1e 5f bb 10 16 4d bc
       0.030885374 0.019999528 -0.0034045253 -0.012517467
000250 f7 11 d3 bc 88 ca 78 bb d4 0a 96 3c 5e 4e 0c 3c
       -0.025765402 -0.0037962515 0.01831571 0.008563606
000260 c4 9a 99 bc 9d 16 b9 3c dc fa f1 39 5e 95 c1 bc
       -0.018750556 0.02259379 0.00046154007 -0.023630794
000270 c3 48 9c 3c fa 80 69 3c 2f 71 0e bd ea 68 82 3c
       0.019077664 0.014251942 -0.03477591 0.015919168
000280 a0 9f 9f bc 3f cb 90 bc a1 d9 2e bc d2 a9 a5 3c
       -0.019485295 -0.01767504 -0.010672004 0.020222578
000290 8e ef 40 3d d8 c0 2a 3d 52 99 44 3c 2a 20 4b bc
       0.047103457 0.041687816 0.011999445 -0.012397805
0002a0 60 61 0f 3d 60 14 43 bc e6 76 a1 3c 55 93 8c bc
       0.035004973 -0.011906713 0.019710016 -0.017160097
0002b0 b7 7b 81 3c 64 2c e7 3c 75 15 2a bb e2 66 37 bd
       0.015806062 0.02821941 -0.002595273 -0.04477585
0002c0 17 fe 16 bc a6 3b d9 bc 39 e8 99 3c 0d cb 0d bc
       -0.009215853 -0.0265177 0.01878749 -0.008654368
0002d0 f0 d2 21 3b dd 57 0c 3d 5c a2 13 3d 7a 90 1a 3d
       0.002469238 0.03426348 0.03604351 0.03773544
0002e0 8f ea e0 bc 36 94 46 bd 4f 7f af bc b8 a2 a6 bc
       -0.027455596 -0.04848119 -0.02142301 -0.020341262
0002f0 a4 ab a9 3c c4 b1 9c bc 4d 12 01 3d 22 b1 90 3c
       0.020711727 -0.019127734 0.031511594 0.017662589
000300 7b fe 19 bd 18 59 03 bd 40 4c 4a 3c d8 6e 7a 3c
       -0.037596207 -0.03206739 0.012347281 0.015285216
000310 42 4b 8b 3c 1a a9 87 3c 3a e3 d2 bc 00 03 8c 3c
       0.01700366 0.016560126 -0.025743116 0.017091274
000320 95 89 bf bb 60 4a af 3c 8d 41 34 3c 18 ac 18 bc
       -0.0058452585 0.02139777 0.011001957 -0.009318374
000330 d2 60 39 bc ba 8a 7a 3c cc e7 74 bc 3d cb ad 3c
       -0.011314588 0.015291864 -0.014947843 0.021215076
000340 4f 5c 0b bd ce eb 57 3c 51 ec ef 3b 22 05 0c bd
       -0.03402358 0.013178779 0.0073218723 -0.034184583
000350 4e 8a 3d 3c 55 27 67 3c 2f d6 a6 3c e1 91 0a 3d
       0.011568619 0.014108499 0.020365803 0.033830527
000360 eb 80 2e 3c be a8 a3 ba fc 4d b5 3c 12 37 69 3d
       0.010650854 -0.0012486202 0.022131912 0.056937285
000370 c6 96 f5 3b 35 06 4a bb 9a 2d 03 3b e9 e5 30 3c
       0.0074947802 -0.0030826454 0.0020016194 0.010797002
000380 24 ce d4 bc 11 3f 78 bb 10 bd 1d bd c4 db 76 3b
       -0.025977202 -0.0037879387 -0.038510382 0.0037667612
000390 60 22 c5 bc 69 b3 28 3c 8b ea 52 3c b2 71 bf bc
       -0.024064243 0.010296681 0.012873302 -0.023369644
0003a0 11 09 15 bc 18 d9 aa bc 79 68 4a bc 0e 6f b8 3a
       -0.0090964 -0.020855471 -0.01235401 0.0014071183
0003b0 3d 1b 40 bc 1a 94 83 3c f9 7f 09 3c 8d 03 9a 3c
       -0.011725244 0.016061831 0.008392327 0.018800521
0003c0 1e a6 d8 3c 9d 1e b1 39 1a 75 9c bc c0 59 59 bc
       0.026446398 0.0003378288 -0.019098807 -0.013266027
0003d0 1a e4 51 3d b7 39 91 3c c4 6b 83 3c a0 71 c3 39
       0.051242925 0.017727716 0.016042598 0.00037277956
0003e0 1e 50 18 bd 69 d0 7d 3b 14 26 10 bc a7 3c 01 bd
       -0.03718578 0.0038728958 -0.008798141 -0.031551983
0003f0 bb c0 9f bc 5e e8 0e bc e7 b0 31 bd 2d e3 db bb
       -0.01950108 -0.008722393 -0.043381598 -0.006710431

network_body.linear_encoder.seq_layers.2.weight f4 [256, 256]
000000 48 58 5f bd ef 75 d3 3b a7 99 37 3e 49 9e e1 3c
       -0.05452755 0.0064532678 0.17929707 0.027541297
000010 49 0b 15 bc d2 b6 68 3d e4 7f 0f bd 2c 81 30 3d
       -0.009096929 0.056814976 -0.035034075 0.043091938
000020 58 75 c7 bc 8c c6 d1 bd 1e a6 52 bd 14 f0 53 bc
       -0.024347946 -0.10242948 -0.051427953 -0.012935657
000030 41 3e a4 3d aa 53 ee bc 4e 87 dc 3d a8 eb 57 bb
       0.080196865 -0.029092629 0.10767995 -0.0032946859
000040 ad b0 83 bd 06 33 00 3d c1 0d 07 bd b0 57 9f bd
       -0.064301826 0.03129866 -0.0329721 -0.07780397
000050 53 18 e1 3d 9e dd 92 bd 92 66 d8 bc 68 a9 f1 b9
       0.109909676 -0.071711764 -0.026416097 -0.0004609332
000060 ec 62 bf bd e4 17 8e bc f3 6c bb bd 93 5f 22 bd
       -0.0934504 -0.017345376 -0.0915164 -0.039641928
000070 92 15 6b bd 0d d1 51 3d d7 d5 c8 3c 2b 6b a9 3d
       -0.057393618 0.051224757 0.02451603 0.08272394
000080 4f 8f a4 3d 7f 23 8e bd 0a 62 45 3d ad f4 60 3c
       0.080351464 -0.06940364 0.0481892 0.01373021
000090 13 51 8b bd 8b a2 93 bc da d3 3f 3d db a6 29 bd
       -0.06802573 -0.018021842 0.046832897 -0.04141889
0000a0 2e d5 20 3d 1f d4 1b 3c 83 a3 dd 3d 9c df f8 bb
       0.039265804 0.009511023 0.10822203 -0.0075950157
0000b0 8d c7 83 bc 07 f0 e7 bc 2c d1 9a bd f5 2f 7a bd
       -0.016086364 -0.028312696 -0.075594276 -0.06108089
0000c0 a3 d2 88 bd 2a 00 6a bc 6d 42 92 3d a8 60 13 3d
       -0.06680801 -0.014282266 0.07141576 0.03598085
0000d0 9b 85 33 bc 78 44 ff bd 41 0f 71 3e 0a 81 de 3d
       -0.010957147 -0.12464231 0.23540975 0.10864456
0000e0 32 2a 05 bd 9b f0 6d bd fb d8 62 3d e8 95 ef ba
       -0.032510944 -0.058090787 0.05538271 -0.0018278928
0000f0 8d a9 dc 3d 8c 0a ee bd f8 cc 88 3d 54 a4 b1 bb
       0.10774527 -0.116231054 0.0667972 -0.0054212008
000100 a6 dd 7f bd 48 a1 50 3c 81 a3 7f 3d 9f c4 03 bd
       -0.06246724 0.012733765 0.06241179 -0.032169934
000110 8f 8a c3 3d c9 15 9f bd 80 3f 94 3c 3b 99 c8 bd
       0.09547912 -0.07767827 0.018096685 -0.097948514
000120 62 98 a4 3d 8f af 9d 3d 16 eb d8 3d 19 10 c4 bc
       0.08036877 0.07699501 0.10591714 -0.023933457
000130 78 32 9e bc 67 54 1b be 5d e9 01 bd d2 88 32 39
       -0.019311175 -0.15168916 -0.031716693 0.00017026372
000140 2e 3f 5f 3d bc 07 96 37 c6 01 85 3c ba fa 86 3d
       0.054503612 1.7884995e-05 0.016236197 0.06590791
000150 b7 c8 57 bb 19 79 34 3c 91 1c f7 bc b6 59 0d be
       -0.0032926032 0.0110152 -0.030164989 -0.13803753
000160 b2 39 66 bd 23 ec 2d bd 1d 74 10 3d 25 25 f7 3d
       -0.056207366 -0.042461526 0.035266984 0.12067632
000170 d9 28 eb bd 93 64 47 3d 68 02 5e bd 29 a4 a3 3b
       -0.114824004 0.0486799 -0.054201514 0.0049939346
000180 4c 0b 52 3d 4f 6c 29 3d 19 35 f6 bb bf ac 2b bc
       0.051280305 0.041363057 -0.007513654 -0.010478198
000190 8b 33 8c bd d1 ba 0a 3d 9c 95 19 be ca a7 a4 bd
       -0.068457685 0.03386957 -0.14998478 -0.08039816
0001a0 51 6b 49 39 80 11 86 3d 5b 42 0c 3e 64 88 75 3a
       0.00019208832 0.065463066 0.13697188 0.0009366332
0001b0 b5 32 4f 3e d4 5e e9 bd 16 86 f3 3d 50 29 17 3c
       0.20234187 -0.1139504 0.11890809 0.009226158
0001c0 9f 55 88 3c 3c 90 1c 3b 07 65 6b 3c e5 64 27 bd
       0.01664239 0.0023889681 0.0143673485 -0.040867705
0001d0 e4 f6 e2 3c 41 71 73 3b 7b 92 28 bc f8 a1 56 bb
       0.027705617 0.0037146362 -0.01028883 -0.003275035
0001e0 63 6c 5c bc aa d9 4c 3c bf 4a 35 3d 05 a9 48 bd
       -0.013453576 0.012503067 0.044260737 -0.048989315
0001f0 5b 8f 11 bd 9d 84 4d bd a0 08 13 bc 9a b2 13 3d
       -0.035537105 -0.050175298 -0.008974224 0.036059
000200 5d 8b be bb ad cd 53 bd 7b 83 59 bc f6 cc e5 3c
       -0.0058149532 -0.05170982 -0.013275976 0.028051835
000210 20 15 4f bd 8e d3 a7 bd 72 17 39 bd 4c aa 16 3e
       -0.050557256 -0.08194648 -0.045188375 0.147134
000220 a3 db 80 3d e8 b5 7e bd 96 5d e1 3c 5c e9 b1 bc
       0.062918924 -0.062185198 0.027510446 -0.02171772
000230 4d e9 fb 3d e8 99 3f be 92 f3 9c bc f9 3d 6d bd
       0.12300358 -0.18711054 -0.019159112 -0.05792043
000240 c7 e0 2f bd a1 42 38 bb 07 1e ed 3d 12 59 e4 bd
       -0.042938974 -0.0028115886 0.11577993 -0.11149801
000250 53 4e 60 bc da d6 22 3d e5 90 61 bd 9a 15 0f 3d
       -0.013690549 0.03975568 -0.055069823 0.03493271
000260 d7 fa 9c bd a2 e0 03 be 48 b3 50 bc 2f 37 3a 3e
       -0.076650314 -0.1287866 -0.0127380565 0.18185113
000270 b5 ea 70 bd 8c 7b e6 bd 7d 84 34 3e 42 ee c7 3d
       -0.058817584 -0.112540334 0.17628665 0.09762241
000280 84 5a 7b bb 1c 3b 75 bc 2c ef 08 bc d6 eb 8f 3c
       -0.0038353512 -0.014967706 -0.008357804 0.01756851
000290 4b 7e 86 3d a4 d4 80 3d d4 0f 6f 3d c2 4d 1a bd
       0.06567057 0.06290558 0.058364704 -0.037671812
0002a0 c1 24 f3 bd 7b f9 bc ba ee 24 1d bc be a7 0b 3d
       -0.118722446 -0.0014417613 -0.009591324 0.03409552
0002b0 33 e8 42 3d 80 ee 19 bd dc 16 13 3c 70 78 55 bb
       0.047584724 -0.037580967 0.008977618 -0.0032573007
0002c0 ed 4a 25 bd 70 6b 89 3d 22 3b 8e 3d c0 5d aa 3d
       -0.040354658 0.06709945 0.069448724 0.08318663
0002d0 d2 07 89 3c aa 42 12 3e fb 0c 41 bd bc 24 11 bd
       0.016727362 0.14283243 -0.04713152 -0.035435423
0002e0 e8 2c 9a bc e2 75 d5 3c df ea b2 bd 57 a6 c1 3c
       -0.018820241 0.026057187 -0.08736204 0.023638887
0002f0 ce aa 11 bc 38 6e 08 3d 34 06 81 bc e5 84 a5 39
       -0.008890821 0.033308238 -0.015750028 0.00031570267
000300 a4 33 09 3d 4d 79 91 bc 24 06 86 3d 44 08 9d bc
       0.033496514 -0.017758036 0.0654414 -0.01916898
000310 94 41 30 bd b1 bc cc bd 75 f2 ef bd bf 62 16 bd
       -0.04303129 -0.099969275 -0.11716167 -0.036715265
000320 61 10 88 3d ee 54 66 3d 6d c7 0e 3b 86 8e 62 bc
       0.06643749 0.05623334 0.0021786347 -0.013827926
000330 67 60 2d bd 66 a4 6d bd 2f fe 0d 3e bb 37 00 3e
       -0.042328265 -0.05801811 0.13866495 0.1252126
000340 cd 84 02 3e 09 fe e4 bd d9 7d 90 3d b9 12 e1 bc
       0.12745972 -0.11181266 0.070552535 -0.027474748
000350 84 db 6d 3d e7 9c 04 be bc af d2 3c 23 d6 b3 bd
       0.058070675 -0.12950478 0.025718562 -0.08781078
000360 d8 a5 7a 3a 12 03 6e bd 9c 29 98 3d 88 cc aa 3d
       0.0009561456 -0.058108397 0.07429811 0.083397925
000370 5b 09 e7 bc bb f6 08 3e 50 0d 4d bd bb 16 d1 bc
       -0.028202703 0.1337537 -0.050061524 -0.025523534
000380 a3 d0 98 3c 80 07 bc 3d 04 2e 98 bd 33 da 51 3d
       0.018654173 0.09181118 -0.07430652 0.05123348
000390 04 94 95 bd 96 24 98 bd 43 4a 5d bd c4 7f 1c 3b
       -0.07303622 -0.07428853 -0.0540259 0.0023879865
0003a0 2c bf 41 3d 6c a8 35 3d d8 8c 9a 3b fd 6e cd bc
       0.047301456 0.044350073 0.004716497 -0.025077337
0003b0 de 4a aa 3c ff 52 d7 3c ec 4e 10 bc 44 c3 59 ba
       0.020787653 0.026284693 -0.008807879 -0.000830699
0003c0 cc ba 01 3d f2 54 05 3d 8e fa 77 3d 21 fe c6 bc
       0.031672284 0.032551713 0.060541682 -0.0242911
0003d0 a7 9a 83 3d 27 01 c7 3c ba 4c 56 bc ad 8e e9 3d
       0.06425982 0.024292542 -0.0130798165 0.11404166
0003e0 77 81 2a be 53 c9 06 3d 42 4e 39 3d 9f 96 29 bd
       -0.1665095 0.03290684 0.045240648 -0.04140341
0003f0 0a c5 c0 3c d9 de d0 3d e0 d6 81 bc 30 0e ef bd
       0.023531456 0.10198755 -0.01584953 -0.11672628

network_body.linear_encoder.seq_layers.4.bias f4 [256]
000000 0f c5 b2 3c 0e 50 2e bc 08 1f 51 bb c8 f6 b0 3c
       0.02182248 -0.010639204 -0.0031909365 0.02160205
000010 c4 7f 9e bc 16 13 87 3b f0 6f ab bc 4d ea c7 bc
       -0.019348033 0.0041221483 -0.0209274 -0.024403716
000020 34 ee c1 3a 99 ef 5e 3b 46 44 12 bc 52 7b d0 3c
       0.0014795722 0.0034017323 -0.0089274105 0.025449429
000030 8a a5 94 bc 85 75 d0 3c 37 0a 86 3c 4d 81 e2 3b
       -0.018145341 0.025446663 0.016362293 0.0069123865
000040 94 d4 83 3c 0c f3 32 3c 04 80 75 bd 8d 7a 29 bb
       0.016092576 0.010922205 -0.05993654 -0.00258604
000050 49 37 ad 3c 56 72 8c bc b8 3d 2b 3c 18 71 d2 bb
       0.021144526 -0.017144363 0.010451727 -0.006422173
000060 a8 f6 3d 3c d6 e9 1a 3c a5 c3 90 3c 47 f8 b7 bc
       0.011594452 0.009455165 0.017671416 -0.022457255
000070 e9 2d 84 bc b8 99 13 bb e7 8f b0 3b 1e 30 ee ba
       -0.016135173 -0.0022522043 0.0053882482 -0.0018172299
000080 89 68 7f 3b 7e 9b f6 3a 65 50 9d bb 32 cc fe bb
       0.003897222 0.0018814651 -0.0048008435 -0.007775807
000090 70 11 ee bc b0 9c fa ba 7f c4 0d bd 2b e8 37 3c
       -0.02906105 -0.0019120183 -0.03461122 0.011224787
0000a0 77 5a 25 bc a6 ef e8 ba 5d 60 c8 bc 3a 52 96 bc
       -0.010092369 -0.0017771616 -0.024460012 -0.018349756
0000b0 83 9c ae 3b bc 89 00 bd 58 12 43 3b a4 ee d0 3c
       0.0053287162 -0.031381354 0.0029765572 0.025504418
0000c0 4e ef c2 3c 3d b3 50 bd e3 ce 3b bd fe 15 51 bb
       0.02379575 -0.050952185 -0.0458516 -0.0031903978
0000d0 14 15 c6 bc 59 b6 8b 3c 1b 62 47 bc ac f5 86 bb
       -0.024179973 0.017054724 -0.012169386 -0.004118642
0000e0 79 6c a8 3a 43 92 82 bd 5a 42 02 bc 35 ed 44 3c
       0.001284971 -0.063755535 -0.00795039 0.012019445
0000f0 4b 59 1d 3b 3b 6f 87 3c d8 24 5b bc da de b5 3c
       0.0024009522 0.016532531 -0.013375483 0.02220099
000100 42 c2 6c bc e1 d8 12 bc 80 8f c7 3c c0 e7 31 3c
       -0.014450612 -0.008962841 0.024360418 0.010858476
000110 22 7e 4e bc a7 e8 50 3d 8f 95 be 3c f3 87 90 3a
       -0.012603315 0.051003125 0.023264674 0.0011026844
000120 e4 8c 7e 3b e7 20 99 3c a3 a7 47 3c 01 7f 2b bc
       0.0038841302 0.018692447 0.012185964 -0.010467292
000130 f2 71 c6 bc 56 76 95 3c 92 fd a7 3c 27 a1 9b bb
       -0.024224255 0.018244904 0.020506654 -0.0047494355
000140 a2 42 d8 bc 33 c0 18 3b 4e 58 eb bc 2e 9a 8a 3a
       -0.02639896 0.002330792 -0.02872863 0.0010574514
000150 33 8a 43 bc 15 14 b9 bc e2 24 05 bc ef 78 33 bb
       -0.011934805 -0.022592584 -0.008126469 -0.0027385314
000160 02 22 3c bc ad 88 ff 3c ea d1 ec 3b d1 ea fe 3b
       -0.0114827175 0.031193102 0.007227172 0.007779457
000170 f3 08 af bc 0c 3d 59 bc 47 c3 a8 ba bf 11 2c 3d
       -0.021366572 -0.013259184 -0.001287558 0.04200911
000180 68 4f 78 3c de 44 a6 3c f9 04 9c bc 5d a6 f5 bc
       0.015155651 0.02029651 -0.01904534 -0.029986555
000190 89 15 93 bc 28 fb 8d bc ba 62 e1 3d 2a b1 c8 3b
       -0.017954605 -0.017331675 0.11005159 0.006124635
0001a0 32 7c 37 3c 11 1c d0 3c a8 0a 21 3c 35 c1 66 ba
       0.011199044 0.025404008 0.009829201 -0.0008802594
0001b0 a7 11 c6 bc b0 6e fa bb b0 b6 31 3d 78 49 32 bb
       -0.02417834 -0.0076425895 0.043387115 -0.0027204435
0001c0 bc 2a 9c bc 05 5d 86 3c 88 f7 42 3c 20 49 a0 bc
       -0.019063346 0.016401777 0.011899836 -0.019566119
0001d0 d3 32 12 bc da 73 0c 3d e5 a8 97 3b a0 86 12 3c
       -0.00892325 0.034290172 0.004628288 0.00894323
0001e0 bf dd 1e bb 0d c7 5b 3c 7b 52 15 bc 94 c3 65 bc
       -0.0024241058 0.013414157 -0.009113903 -0.01402368
0001f0 cc f0 e2 3c 0a d0 11 3c c4 46 4b 3b 9c 46 b9 bc
       0.027702712 0.008899698 0.0031017521 -0.022616677
000200 22 98 cb 3c cb d6 f0 bb 3a c1 f1 bc 5d 46 9c 3c
       0.024852816 -0.007349824 -0.029511083 0.01907652
000210 56 41 36 bd 14 76 73 ba 84 56 72 3c 46 82 25 bc
       -0.044495903 -0.00092873094 0.014791135 -0.01010186
000220 4d 92 25 bc f4 b1 6b bc ca 6c 12 3b 92 4c 2e 3c
       -0.010105682 -0.014385689 0.0022342675 0.010638373
000230 59 82 0a bc a3 f4 1c bd 39 a5 d8 bc 4f 1c 42 3c
       -0.008453929 -0.03831924 -0.026445972 0.01184757
000240 11 61 2c 3d ce c9 4d 3c f7 0e 18 bb 7b d7 21 bb
       0.042084757 0.012560321 -0.002320228 -0.0024695087
000250 66 84 e0 3c eb 8c 34 bd a0 fc 1c bd ee 8e 35 ba
       0.027406882 -0.044079702 -0.03832686 -0.00069259
000260 69 38 47 3c 4f 8c 31 bb b3 53 bd 3c 09 c4 02 3d
       0.012159445 -0.0027091687 0.0231112 0.031925235
000270 7c 2c b0 3b 6a c8 97 38 10 98 6f 3c 7f 65 ed bb
       0.0053763967 7.237571e-05 0.014623657 -0.0072447653
000280 82 fd 35 bd 40 b2 6f 3c 8b e5 9c bc 1c 87 21 bc
       -0.044431217 0.0146299 -0.019152423 -0.009858873
000290 dd ef 96 bc fc 4c e5 3c d0 cb 02 3c 78 9d 8b bc
       -0.018424923 0.02799081 0.007983163 -0.01704286
0002a0 63 a7 bc 3b 9a 80 8f 3a a6 e6 69 3c 1b dd 67 3c
       0.0057572587 0.001094836 0.014276182 0.014151837
0002b0 a9 c1 f1 3b e8 87 62 3c 93 9f 3a 3c 9b c2 f1 bc
       0.0073778224 0.013826348 0.0113905845 -0.02951174
0002c0 23 d9 4c bc 72 7e 2b 3c 7f a4 6f bb df cb 88 bc
       -0.012502941 0.010467159 -0.0036566553 -0.016698776
0002d0 dc bb 89 3b b4 e8 8f bc 14 4c 05 bd c2 cc 6f 3c
       0.004203303 -0.017567016 -0.032543257 0.01463622
0002e0 54 c2 1b 3c f5 72 7f 3b 4a fa ad 3c 95 f0 be 3b
       0.009506781 0.0038978432 0.021237511 0.0058270195
0002f0 5a 1e 18 3c ad 6e 1c 3d fc 01 3f 3b de 8f dd 3b
       0.00928458 0.038191486 0.002914547 0.006761535
000300 c0 25 1a 3d 8b 62 ae 3c 3a 77 c4 3c ba 53 d5 bc
       0.037633657 0.021287223 0.023982633 -0.0260409
000310 96 d6 d8 3b 68 76 74 3c 47 57 3b bb 48 0f 68 3c
       0.0066173775 0.014920808 -0.0028585957 0.0141638
000320 d7 34 b5 bc b5 6a b4 3c 0a a0 0e 3d d0 b5 1b bc
       -0.022119923 0.022023538 0.034820594 -0.009503797
000330 6b b8 92 3c 11 7d 66 3b 8f e5 cf 3c 0c 14 fb 3b
       0.017910203 0.003516976 0.025378017 0.007662302
000340 0a be a2 3c b6 82 ba 3c d2 54 e4 bc 73 4f aa 3b
       0.019866008 0.022767406 -0.027872477 0.0051974594
000350 d9 de cc 3c f3 82 9d 3b c8 19 dd 3b ab 30 30 bc
       0.025008606 0.00480687 0.006747458 -0.010753791
000360 bb bf 9f bb 5a bd 28 3d b3 b5 98 3c a3 d9 93 3c
       -0.004875151 0.041196205 0.018641328 0.018048113
000370 7d 40 3e bc c5 2a b1 bc 3e 93 1a 3c 91 1b c7 bc
       -0.011612055 -0.02162684 0.009434519 -0.024305137
000380 94 ca 81 3c 84 5d b6 bb 4e a1 dc 3c 7f e3 18 3c
       0.015843667 -0.005565347 0.026932385 0.009331583
000390 9d 47 83 3c e1 99 df 3b 05 6d 7f 3c 8b f1 04 3d
       0.016025359 0.0068237637 0.015589957 0.032456916
0003a0 18 d6 9b bc 18 56 56 bc b2 8b 99 bc ba aa cf 3a
       -0.019022986 -0.01308205 -0.01874337 0.0015843727
0003b0 3b ac 8c 3c ed ab 6d bc 58 49 92 3c 23 cc 27 bd
       0.01717197 -0.014506322 0.017857239 -0.040966164
0003c0 4c 71 73 3c 67 69 96 bc 1c ec 33 bb 13 ec 56 3b
       0.014858555 -0.018360807 -0.0027453965 0.003279452
0003d0 76 bd 41 3c 9c 2f 13 3c d7 a8 51 3c 5c bb e4 3c
       0.011824956 0.008983519 0.012796602 0.027921371
0003e0 1c 54 11 bd eb 36 e7 3c 5f 19 04 3b 04 a9 02 3b
       -0.035480604 0.02822443 0.0020156724 0.0019937167
0003f0 4b ac c1 3b db 40 6f 3c 8c b2 6e 3c 52 1c 04 3a
       0.0059104315 0.014602865 0.014568936 0.00050396204

network_body.linear_encoder.seq_layers.4.weight f4 [256, 256]
000000 28 07 ea 3d 00 16 0c be dd 36 9f 3c 7e 0b 3c 3d
       0.11427146 -0.13680267 0.01943534 0.045909397
000010 99 d6 22 3d d0 37 99 bc 3b 15 5c bd 99 10 be 3d
       0.039755438 -0.018703371 -0.053731184 0.092805095
000020 de 45 c3 bd 6b 8c 19 3d 5a 1d 53 bd b7 ad 40 3d
       -0.095348105 0.03748743 -0.051541664 0.047040667
000030 7b 94 24 3c d5 e3 53 bd 06 43 4f bd 0b cc f5 bc
       0.010045166 -0.05173095 -0.050601028 -0.030004522
000040 17 33 43 3d 0a 1d 0c 3d 34 70 a1 3d 69 a9 1a bd
       0.047656145 0.03420738 0.07882729 -0.03775922
000050 6e d8 18 bd 09 14 16 3e e8 c7 67 bd cc e0 e1 3d
       -0.03731578 0.1465608 -0.05658713 0.11029205
000060 22 98 04 be 49 f1 06 bd d3 0d 0f be f4 02 12 bc
       -0.12948659 -0.03294495 -0.13970117 -0.008911837
000070 83 e3 6d bc 33 0b 4f bc ae db 02 3e 30 73 b0 3c
       -0.014519575 -0.012636947 0.12779114 0.0215393
000080 1f a8 97 3c a4 dd 0c 3c a4 e0 5e bc eb 79 a0 bd
       0.018512784 0.008597765 -0.013603363 -0.07835754
000090 f4 79 4c bd b1 2a 2f bd 04 a9 d3 3c 83 df 8b bd
       -0.04992099 -0.042765323 0.025837429 -0.06829741
0000a0 3c 6a f1 3c bc 9f 65 3b 7f 89 55 bd 89 8a 15 3d
       0.029469602 0.0035037836 -0.05213308 0.03650907
0000b0 9f 9c b6 bd 66 03 e1 3c 73 d3 1e 3c e1 59 01 bd
       -0.08916592 0.02746744 0.009693968 -0.031579856
0000c0 cc 40 11 3e c1 01 4f bc d8 70 b7 bd 53 52 2f bd
       0.14184874 -0.0126346955 -0.0895707 -0.04280312
0000d0 10 ed c7 bb eb 6b f2 3c e9 db c0 bc 76 06 ce bd
       -0.006101258 0.029592475 -0.023542361 -0.10059826
0000e0 b5 15 0f bd 99 e2 b9 bc 3a bf a0 bb 3e 72 e2 3b
       -0.03493281 -0.022691058 -0.0049056085 0.0069105914
0000f0 48 ab 02 bd 36 83 01 3d 28 ca e6 3c de 03 b8 3c
       -0.031901628 0.031619273 0.028172567 0.022462782
000100 d6 38 82 bc 06 f3 8b 3d 5c c8 22 3c 0f 6f c9 bd
       -0.015896242 0.068334624 0.009935465 -0.09835636
000110 75 a4 42 3c 43 a5 e6 bd ab 45 53 3a 43 70 52 bd
       0.01188003 -0.1126199 0.00080593926 -0.051376592
000120 ab d2 08 bc 45 a6 79 bd f0 37 94 3d 25 c9 df bc
       -0.008351008 -0.060949583 0.07237232 -0.027317593
000130 a1 49 c5 bd ca e5 0e bd db 79 19 3d 3b db 4f 3d
       -0.09633184 -0.034887113 0.037469726 0.050746184
000140 e6 a0 80 3d 94 d6 53 3d 84 e2 f3 3c 2d f5 d6 3d
       0.06280689 0.05171831 0.029771097 0.10495982
000150 89 cb 6a 3d 3c 6f 8f bc 23 72 01 3e 5a 2c 9e bd
       0.057323013 -0.017509095 0.12641196 -0.07723303
000160 71 a9 a7 3d f2 d8 46 bd 96 64 42 bd c4 11 84 bd
       0.08186615 -0.04854674 -0.047459207 -0.06448701
000170 36 a2 93 3d 62 50 77 bd da 4a b1 3d 2f 35 4a 3c
       0.07208674 -0.060379393 0.08656855 0.0123417815
000180 83 ca b1 bc 52 e8 bc bb f4 0f fb 3c fd 90 3d 3d
       -0.02170301 -0.0057649994 0.030647255 0.04628085
000190 66 e4 c9 bd 34 9e d7 bd 8b 50 81 bd d5 82 8a 3c
       -0.09858017 -0.10528222 -0.063141905 0.016908089
0001a0 ff b8 8b 3d c7 2d 05 be f8 1b 33 be 2b 06 83 bd
       0.068223946 -0.13005744 -0.17491138 -0.06397661
0001b0 92 5e ae 39 92 d2 7d bd 0d 53 82 3c b9 29 03 3c
       0.00033258327 -0.061968394 0.015908742 0.008005553
0001c0 e1 7a d2 3c 81 f8 1f 3d a3 5f fc 3d 28 b3 2f 3c
       0.025693359 0.03905535 0.12322929 0.0107238665
0001d0 cf b4 26 3d 17 98 53 3d fe 8b ba 3c 84 6b 06 3e
       0.040699776 0.051658716 0.022771832 0.13126951
0001e0 4f e8 c5 3c 64 41 5d b9 c7 d8 c4 bd 37 39 e5 bc
       0.024158625 -0.00021100562 -0.096116595 -0.027981384
0001f0 93 52 14 3d 5d 42 52 bd 32 86 ab 3c 02 ad 94 bd
       0.03621156 -0.05133282 0.020938013 -0.07259561
000200 b0 5a 73 3d c5 eb ff 3c 4b 5e f9 bc 13 f0 17 bb
       0.05941266 0.031240353 -0.03044047 -0.0023183867
000210 49 72 a7 3d 26 38 af 3c 1a 0d 28 3e c4 77 e3 bc
       0.08176095 0.021389078 0.16411248 -0.02776707
000220 f3 0d 3a be 45 8c 6a bd b2 01 8c bd 11 b0 c2 bd
       -0.18169384 -0.057262678 -0.06836261 -0.09506238
000230 0c f1 29 3e 18 c6 48 bd 00 21 d0 bc 6d d6 81 bd
       0.16595858 -0.049017042 -0.02540636 -0.063397266
000240 15 8d 28 bd ae ba 8d bd 77 49 8d bd 4a 15 32 3c
       -0.04115017 -0.06920372 -0.06898778 0.0108693335
000250 f8 33 06 3e 20 1d 5b bb 95 cd 49 bd 91 3e 44 bd
       0.13105762 -0.0033434108 -0.049268324 -0.04791123
000260 64 63 95 bd 44 8f 19 bd 57 ef e1 3d cf e6 e9 bd
       -0.07294348 -0.037490144 0.110319786 -0.11420976
000270 bb 11 44 bd cc cd 3e 3d a5 cc 76 bc 01 6a 17 3d
       -0.04786847 0.046582982 -0.0150634395 0.036966328
000280 1b ba 8d bd 78 65 83 3d ed 6b 94 3d 2e 12 27 3c
       -0.069202624 0.06415838 0.07247148 0.0101972055
000290 42 52 4b bd 86 54 3a 3d a7 07 ae bb 4c 86 fc 3d
       -0.049638994 0.045490764 -0.005310971 0.123303026
0002a0 a3 d3 94 bc df 6f 06 be 98 3b 0f 3e 27 44 a4 bd
       -0.018167323 -0.13128613 0.13987577 -0.080208115
0002b0 ec 21 d2 bc 22 bb ff 3d 22 fe 21 3d 9b 4b 33 be
       -0.02565094 0.124868646 0.039549 -0.1750931
0002c0 35 d4 f7 bd a4 a2 04 3d 00 52 a4 3c d7 26 08 3e
       -0.12101022 0.03238167 0.020058632 0.13296066
0002d0 6e 3e 57 3d 2b 2b 52 3d 9f 8e 72 ba aa 45 c4 bd
       0.052549772 0.0513107 -0.00092528196 -0.095836
0002e0 0e 74 ab bb 8c 2e 37 bd 5a bb 0a 3e a8 b2 34 3d
       -0.0052323407 -0.044722125 0.13548031 0.044115692
0002f0 a9 e7 04 3d ac 29 b6 bd 77 69 75 bc 67 3d 65 bd
       0.03244749 -0.08894667 -0.014978758 -0.05596676
000300 9d 75 cd bc 13 0c 91 bd 1f 59 8c bd 15 9c 8a bc
       -0.025080496 -0.07082381 -0.06852936 -0.016920129
000310 e8 1b 19 bd f2 0b af 3d 5e 3f 00 bd 26 74 ca bd
       -0.03738013 0.085472 -0.03131043 -0.09885435
000320 e4 15 98 3d 1b 93 e0 bd 32 f4 52 3d 25 f6 65 3d
       0.0742605 -0.10965558 0.051502414 0.056142945
000330 c2 36 bb 3d 14 93 16 bd bd 8a 85 bd 29 e6 0a 3e
       0.091413036 -0.03676136 -0.06520603 0.13564362
000340 8d d1 69 3c 11 84 90 3d d1 66 19 3d 68 9e 6a bd
       0.014271152 0.0705644 0.03745157 -0.057279974
000350 d0 61 17 bd a0 63 96 3c 21 63 b6 bb 3a a3 ae 3d
       -0.036958516 0.018358052 -0.0055660163 0.08527227
000360 69 c6 1a 3d e5 64 3d bc a5 70 a3 3d c2 36 d0 3d
       0.037786875 -0.0115597 0.079804696 0.10166694
000370 85 72 17 3d 8d c7 9e bd b8 3c 3a bd b0 78 ef 3c
       0.03697445 -0.07752905 -0.045468062 0.029232353
000380 a5 76 9a bc 63 b6 2a 3d 36 b4 80 3d b5 03 ad bd
       -0.018855402 0.041677844 0.062843725 -0.08447973
000390 de c7 04 3c 79 ad f1 3d 21 e8 26 3d 0f e0 97 bd
       0.008104293 0.118006654 0.04074872 -0.07415783
0003a0 d2 7c 70 3d bf 28 39 bc 6f c0 a0 bd 5d 40 80 bc
       0.058712788 -0.0113012185 -0.07849204 -0.01565569
0003b0 14 5d e1 3c 21 ac 66 bd 41 4e 56 bc ba 17 72 bc
       0.027510203 -0.0563165 -0.013080181 -0.014776165
0003c0 a3 7e 45 3c 93 c7 83 bc 90 8e fd 3d d1 8a 52 3d
       0.012054118 -0.016086375 0.12380707 0.051401917
0003d0 9d 00 fc 3d af 73 a8 bc 24 9b e0 bc b0 ca 2e bb
       0.123048045 -0.020562975 -0.027417727 -0.0026671104
0003e0 d7 b6 93 3c d5 2e 2d bd a3 43 d4 3b 42 04 5d bd
       0.01803152 -0.04228099 0.0064777895 -0.05395914
0003f0 db 6d f2 3b 7e 77 92 bc 40 fa 77 3d 3f fd c7 3b
       0.0073983497 -0.017879244 0.06054139 0.0061031873
