RobotTraining_PathPlanning/Assets/NNModels/RobotUR10_rbpp_12.onnx (onnx, 555573 bytes, 9 tensors)

action_model._continuous_distribution.log_sigma f4 [1, 5]
0	0xbfdf4200	-1.7442017
1	0xbfd61d14	-1.6727624
2	0xbfb24f21	-1.3930398
3	0xbfa4d683	-1.2877964
4	0xbfe421d1	-1.782282

action_model._continuous_distribution.mu.bias f4 [5]
0	0xbc39f617	-0.011350176
1	0xbc72692a	-0.014795581
2	0xbd0252fa	-0.031817414
3	0xbd15d75f	-0.036582347
4	0x3d51ee46	0.051252626

action_model._continuous_distribution.mu.weight f4 [5, 256]
0	0x39a38b60	0.00031193625
1	0x3cfaac16	0.030599635
2	0x3c64f191	0.01397361
3	0x3d731724	0.05934824
4	0xbbd6aa7c	-0.006551085
5	0x3c33b2a5	0.010967885
6	0x3cb3ca50	0.021947056
7	0xbcbf0d22	-0.023321692
8	0x3c936893	0.0179942
9	0xbc8e0708	-0.017337337
10	0x3cd141b8	0.025544032
11	0xbdb41216	-0.08792512
12	0x3ca79245	0.020455489
13	0xbc31dd22	-0.010855945
14	0x3b9b5994	0.004740903
15	0x3cb3bc1b	0.021940282
16	0xbca7055d	-0.0203883
17	0xbc14c843	-0.009080949
18	0x3a1ceb68	0.0005986006
19	0x3d1a51f4	0.037675813
20	0x3b75cce8	0.0037506167
21	0x3d961d79	0.0732984
22	0xbc58d48d	-0.01323427
23	0x3d12f333	0.035876464
24	0x3b0f6d92	0.0021885377
25	0x3ccbf18b	0.02489545
26	0xbcaf81d0	-0.021424204
27	0x3c132062	0.008979889
28	0x3c8381a3	0.016053027
29	0xbb075f0d	-0.002065602
30	0xbd1460f7	-0.036225285
31	0x3abfdb81	0.0014637561
32	0x39f50095	0.00046730475
33	0x3c8a42c1	0.016877534
34	0x39855c56	0.00025436532
35	0xbca7d898	-0.020489022
36	0xbd275218	-0.040849775
37	0xbc877d27	-0.01653917
38	0x3aea0f31	0.0017857311
39	0x3d2a60a1	0.04159606
40	0xbb929921	-0.004473821
41	0xbc360a0e	-0.011110796
42	0x3d15a364	0.036532775
43	0x3c7a030e	0.015259517
44	0xbd190f34	-0.037368014
45	0xbd617c66	-0.055050276
46	0x3d1c452d	0.03815191
47	0x3af9ff2b	0.0019073238
48	0x3b89277a	0.004185614
49	0xbcceafdf	-0.025230346
50	0xbc6691c8	-0.014072843
51	0x3b821240	0.0039694607
52	0x3bc826a9	0.0061081243
53	0xbcb9a4a3	-0.022661513
54	0x394033a4	0.00018329785
55	0x3ca5fe5b	0.020262888
56	0x3bca097f	0.006165683
57	0xbd66b982	-0.056329258
58	0x3a8b1131	0.0010609982
59	0xbc2ab47e	-0.010419009
60	0xbc2f8b72	-0.010714399
61	0x3bd8a51a	0.0066114785
62	0xbd6b0d05	-0.057385463
63	0x3b4c4888	0.0031171162
64	0xb8b6715f	-8.699553e-05
65	0xbc177c4d	-0.009245944
66	0xbb10258f	-0.0021995043
67	0x3ca4d1ce	0.020119574
68	0xbd0be93c	-0.034157977
69	0x3d631179	0.055436585
70	0x3d6b2561	0.057408694
71	0xbd6f5e45	-0.05843951
72	0xba8215ca	-0.0009924707
73	0x3a909fb2	0.0011033921
74	0xbc8e572b	-0.01737555
75	0x3bdbd294	0.0067084525
76	0xbc7e9fcf	-0.015541031
77	0xbd088494	-0.03332956
78	0xbd017094	-0.031601503
79	0xbce1cbd1	-0.027563008
80	0x3c3326aa	0.010934511
81	0x3c9c8793	0.019107616
82	0x3ccfc638	0.025363073
83	0x3c89c568	0.016817763
84	0x3bf61bb9	0.007510629
85	0xbc89e25a	-0.016831566
86	0xb9342906	-0.0001718142
87	0xbcc73509	-0.024317281
88	0xbac55c0d	-0.001505734
89	0x3ce61010	0.028083831
90	0xbcc81276	-0.024422865
91	0xbc200b3d	-0.009768304
92	0xbc9e3dbf	-0.019316552
93	0xbd8d5d5c	-0.069025725
94	0xb920b92d	-0.00015327772
95	0x3c0f35a7	0.008740819
96	0x3bb958a6	0.0056563197
97	0xbb1ab3e7	-0.0023605765
98	0xbb8d9978	-0.0043212734
99	0x3bbbb2c8	0.0057280995
100	0x3c960f9f	0.018317996
101	0xbb46321a	-0.0030242265
102	0x3c9d1d4c	0.019179009
103	0x3c0af00d	0.008480084
104	0x3cfff665	0.03124542
105	0x3c953d8b	0.018217823
106	0xbb8d1708	-0.004305724
107	0xbbacedff	-0.005277395
108	0xbb378098	-0.0028000232
109	0xbb61dccc	-0.003446388
110	0xbd6cec71	-0.057842676
111	0x3c0e4699	0.008683824
112	0xbcb60ca6	-0.022222828
113	0xb8aa12a6	-8.109705e-05
114	0xbb0ac73a	-0.0021175877
115	0x3ad7de56	0.001646946
116	0xbd19554e	-0.03743487
117	0xbcd35406	-0.025796901
118	0xbc939420	-0.018014967
119	0xbc27eb99	-0.010249042
120	0x3d3f1c07	0.04665759
121	0xbb9c0d79	-0.0047623483
122	0xbba3bdd0	-0.0049969926
123	0xbc52a42c	-0.012856524
124	0x3b9ca6db	0.004780633
125	0xbb8927ab	-0.004185637
126	0x3d8d0a8b	0.068867765
127	0xbbcf3941	-0.006323964
128	0x3cf5f759	0.030025171
129	0xbd36630d	-0.044528056
130	0x3a13bc3e	0.0005635655
131	0xbb91a7f2	-0.0044450695
132	0x3d136670	0.035986364
133	0x3afc2735	0.0019237759
134	0xbd3f9b72	-0.046779104
135	0x3ce87e05	0.028380403
136	0xbc2789b4	-0.010225702
137	0x3c5f21c5	0.013618891
138	0xbb04c039	-0.0020256175
139	0x3b949771	0.004534655
140	0x3925ec9f	0.00015823774
141	0x3cc21108	0.023689762
142	0x3cb10973	0.021610951
143	0xbd65ca6d	-0.05610125
144	0x3b9ab6e9	0.0047215116
145	0x3d0baebf	0.034102198
146	0x3cb54eed	0.022132361
147	0xbb2128fe	-0.0024591084
148	0xbb9c6aa9	-0.004773457
149	0x3cd761c9	0.026291745
150	0xbd51a860	-0.051185966
151	0xba9ec0cc	-0.0012111901
152	0xbbc2d021	-0.005945221
153	0xbcbfa085	-0.023391971
154	0x3a2450af	0.00062681263
155	0x3bd7c3f9	0.006584641
156	0x3c805cb3	0.015669202
157	0xbbb45f61	-0.005504534
158	0xbc98485b	-0.01858919
159	0x3b974136	0.004615928
160	0x3c5e01d3	0.01355024
161	0xbd1e034b	-0.03857736
162	0x3b70e4d6	0.003675749
163	0xbbe936ee	-0.007117144
164	0x3db12e14	0.08651367
165	0xbaa847c9	-0.0012838776
166	0xbca4a7bf	-0.020099519
167	0xbcaed8e3	-0.021343654
168	0xbc5d9bd2	-0.01352592
169	0x3c0cb281	0.0085874805
170	0x3a4e95f4	0.0007880621
171	0x3c3ecbda	0.011645282
172	0x3ded2748	0.11579758
173	0x3bd4376d	0.006476334
174	0x3de100ae	0.10986458
175	0x3984e830	0.00025349995
176	0x3b7ce309	0.0038587472
177	0xbbc326d9	-0.0059555587
178	0x3d429261	0.04750288
179	0xbbdc2083	-0.006717743
180	0x3b06a65e	0.002054594
181	0xbd43859e	-0.04773485
182	0x3c45617f	0.012047171
183	0x3acb086d	0.0015490182
184	0xbbe99d1d	-0.007129325
185	0x3b0918be	0.0020919289
186	0xba6feb14	-0.0009152156
187	0x3d8499f3	0.06474676
188	0x3cc9d103	0.024635797
189	0x3d150dc0	0.036390066
190	0xbaa37061	-0.0012469405
191	0x3ce3b93d	0.02779829
192	0xbca683cd	-0.02032652
193	0x3c9f3871	0.019436093
194	0x3caa8620	0.020815909
195	0x3caee386	0.021348726
196	0x39b444e4	0.00034383603
197	0xbc881275	-0.016610363
198	0x3c5c6bcb	0.013453434
199	0xbcd2be1d	-0.025725419
200	0x3c3a5d0a	0.011374721
201	0x3d0b89a9	0.03406683
202	0x3cb94378	0.02261518
203	0x3cde7bd5	0.027158657
204	0x3c1d8f7a	0.009616727
205	0x3cad909a	0.021187115
206	0x3d99306a	0.074799374
207	0x3c33b248	0.0109677985
208	0x3c72274f	0.01477988
209	0xbcd970fa	-0.02654313
210	0xbd9d881c	-0.076919764
211	0x3ce96a85	0.028493175
212	0x3cbdab7e	0.023153063
213	0xbb55feb2	-0.003265303
214	0x3d1d9b15	0.038477976
215	0xbc972c9c	-0.018453889
216	0xbcb7fbf6	-0.022459012
217	0x3b6ccdba	0.0036133365
218	0x3cbe8e3e	0.023261186
219	0x3c8bd106	0.017067444
220	0xbcb31a07	-0.021862997
221	0xbcfed4c6	-0.031107318
222	0x3c39c4f1	0.011338458
223	0x3cd42d19	0.02590041
224	0x3cc3c26d	0.02389642
225	0x3c18fda6	0.009337818
226	0xbaabb57b	-0.001310035
227	0x3d623b35	0.055232245
228	0xbc26d5b1	-0.010182784
229	0x3d2436dd	0.040091384
230	0xbc37b8b1	-0.011213467
231	0xbd01b967	-0.031670954
232	0x3d56152c	0.052266285
233	0x3b139d24	0.0022524083
234	0x3dbcda77	0.09221356
235	0x3b65c7b5	0.0035061662
236	0x3c99728c	0.018731378
237	0xba0687ee	-0.00051319494
238	0x3c39ba4b	0.01133592
239	0xbc126677	-0.008935562
240	0x3d7a3a8d	0.061090995
241	0xbc965fd8	-0.018356249
242	0x3d671184	0.05641319
243	0x3cdd1bbb	0.026990762
244	0x3bef1f14	0.007297406
245	0x39a6a1b4	0.00031782466
246	0xbb8087e1	-0.003922448
247	0xbb34b975	-0.0027576361
248	0x3c577478	0.013150327
249	0x3cc03036	0.023460489
250	0xbda2a8d5	-0.079423584
251	0x3b555def	0.003255721
252	0xbc003b21	-0.007826597
253	0x3d1fad4d	0.038983632
254	0x3c53372f	0.012891575
255	0xbd28fad1	-0.041254822

network_body.linear_encoder.seq_layers.0.bias f4 [256]
0	0xbc5452eb	-0.012959222
1	0x3d149b00	0.036280632
2	0xbd8c2e13	-0.068447255
3	0xbc7711d9	-0.015079939
4	0xbc34301e	-0.0109978
5	0x3b22040f	0.0024721657
6	0x3ce1b6b9	0.02755295
7	0x3c20c54e	0.009812666
8	0xba22237a	-0.0006185096
9	0xbca1cc68	-0.019750789
10	0x3c60cc49	0.01372058
11	0x3b6f24ca	0.0036490434
12	0xbc706ea8	-0.01467482
13	0xbcb1be8c	-0.021697305
14	0xbcc6fd79	-0.024290787
15	0xbbdad616	-0.006678353
16	0xbc6d22ed	-0.014473659
17	0x3cb78d41	0.022406222
18	0xbb001419	-0.001954323
19	0xbc31c5be	-0.010850368
20	0x3cd2e5cb	0.02574434
21	0xbbf8a1c5	-0.007587644
22	0xbcab9246	-0.020943772
23	0x3c40a7ad	0.011758727
24	0xbcd81ce6	-0.026380967
25	0x3c23a560	0.009988159
26	0x3d577aef	0.052607473
27	0x3ccfddce	0.02537432
28	0xbb42c8f5	-0.002972183
29	0xbbf335fa	-0.007422206
30	0x3d2d5b9f	0.042323705
31	0xbc03c589	-0.0080427015
32	0x3c9644f5	0.018343428
33	0xbca7babd	-0.020474786
34	0xbd0a0f4d	-0.033706
35	0x3d845c01	0.06462861
36	0xbb86efda	-0.004117948
37	0xbc2b2332	-0.010445403
38	0x3b3406fa	0.0027469979
39	0xbc2c37c5	-0.010511343
40	0x3cfda693	0.030963218
41	0x3c1be735	0.009515573
42	0x3b836729	0.0040101004
43	0x3c9d0b89	0.01917054
44	0x3c877862	0.016536895
45	0x3b70ba49	0.0036732128
46	0xbd0ad9b2	-0.033899017
47	0xb9a6ef5b	-0.0003184032
48	0x3b86d1b5	0.0041143545
49	0xbdc15fff	-0.09442138
50	0xbc8a916b	-0.016915044
51	0x3cf572a5	0.029961893
52	0xbc30cdf8	-0.010791294
53	0x3d58c357	0.052920666
54	0x3d573088	0.052536517
55	0xbc1987f7	-0.009370795
56	0xbca88dfa	-0.020575512
57	0x3c84433c	0.016145341
58	0xbc30e5e4	-0.010796998
59	0x3cbfbf35	0.023406604
60	0x3c292a27	0.010324991
61	0x3c123fa6	0.008926308
62	0xbc491c95	-0.012274881
63	0x3c7026d2	0.014657693
64	0xbb0c7d1e	-0.002143688
65	0xbd233028	-0.039840847
66	0xbafb85e9	-0.0019189689
67	0x3cd5d71c	0.026103549
68	0x3d008f1e	0.031386487
69	0x3cf380bc	0.029724471
70	0x3c464d84	0.012103442
71	0xbc3dc88b	-0.011583458
72	0x3a710a61	0.0009194967
73	0xbca096d4	-0.01960317
74	0xbc026ef2	-0.007961022
75	0x3c193c7a	0.009352798
76	0xbc5fdce7	-0.013663507
77	0xbbf3bdaf	-0.0074383835
78	0xba9c27e3	-0.0011913743
79	0x3caf982d	0.021434868
80	0xbc87a70c	-0.016559146
81	0xbce22a44	-0.027608044
82	0xbcd99866	-0.026561927
83	0x3bf9173d	0.007601647
84	0x3c080ccb	0.008303831
85	0x3ad34f5c	0.0016121673
86	0xbc21f487	-0.00988496
87	0xbd49ae86	-0.049238704
88	0x3c8b2303	0.016984468
89	0x3c343b66	0.01100049
90	0x3bc7c33f	0.006096273
91	0xbc8d8974	-0.017277457
92	0xbc39b9fb	-0.011335845
93	0xbd0823e1	-0.03323734
94	0xbb2367a1	-0.0024933594
95	0x3bb00ebc	0.00537285
96	0x3d369632	0.04457683
97	0x3c116fd6	0.008876761
98	0xbcf1687d	-0.02946877
99	0xbca842c0	-0.020539641
100	0x3d808d81	0.0627699
101	0xbcd614e6	-0.026133012
102	0xbc00d278	-0.00786268
103	0xbc02e6b9	-0.007989579
104	0xbb7b746f	-0.003836896
105	0xbd67fef0	-0.05663961
106	0xbc58c86c	-0.013231378
107	0x3c3cf275	0.011532416
108	0xbcbce477	-0.02305816
109	0xbb5711ab	-0.0032816927
110	0x3d69781e	0.05699932
111	0x3cd8c41f	0.026460705
112	0x3c85314d	0.01625886
113	0xbca58b0e	-0.020207908
114	0xbca1f0d3	-0.019768154
115	0x3a8cac6d	0.0010732539
116	0x397d0887	0.00024131137
117	0xba1de6c6	-0.00060234626
118	0x3cb95548	0.022623673
119	0xbc9ffe1b	-0.019530347
120	0x3cacd44d	0.021097327
121	0xbcf97b61	-0.03045434
122	0xbbdb4764	-0.00669186
123	0x3c2c8552	0.010529833
124	0xbb1405a5	-0.0022586372
125	0x3d08f765	0.03343906
126	0x3a0ecc34	0.0005447299
127	0x3c8915df	0.016734062
128	0x3ced9f7b	0.02900671
129	0xbd16e174	-0.036836103
130	0xbb756017	-0.0037441307
131	0x3c1431ef	0.009045108
132	0x3d5f5c71	0.05453152
133	0x3bb003c0	0.005371541
134	0x3d022923	0.031777512
135	0x3cd21a77	0.025647385
136	0xbd34373a	-0.04399798
137	0xbd37f9fc	-0.044916138
138	0x3d845336	0.06461184
139	0xbc3beb27	-0.011469639
140	0xbb13dee8	-0.0022563282
141	0x3cb5ce2b	0.022193035
142	0xbc903f04	-0.017608173
143	0xbc8faa77	-0.017537339
144	0x3ce02b3d	0.027364368
145	0x3d1df40d	0.038562823
146	0xbc62b8a8	-0.013837971
147	0xbc008be2	-0.007845851
148	0x3d55e0d4	0.052216366
149	0xbd32e082	-0.04367114
150	0x3c1ac817	0.009447119
151	0x3ce25af8	0.027631268
152	0x3ca81c35	0.020521263
153	0x3c3ae08c	0.011406075
154	0xba53913a	-0.00080706517
155	0xbc121f70	-0.008918628
156	0x3b18f01d	0.0023336478
157	0x3cb5896c	0.022160254
158	0x3c345c92	0.011008399
159	0x3cea0d11	0.028570684
160	0x3d2e5f63	0.042571437
161	0xbcc0730d	-0.02349236
162	0xbcb7148d	-0.022348667
163	0xbaac0b0e	-0.0013125853
164	0x3d14842c	0.03625886
165	0xba1dbae5	-0.0006016924
166	0xbd8e0392	-0.06934275
167	0x3d01af6d	0.03166144
168	0xbcf805ec	-0.030276261
169	0xbcc0b89e	-0.023525532
170	0x3cb00b21	0.021489682
171	0xbbc7ea41	-0.0061009233
172	0xbb26b447	-0.0025437044
173	0x3c15e35c	0.009148445
174	0x3c80d271	0.015725346
175	0x3d0d515a	0.03450141
176	0xbc9d6264	-0.019211955
177	0xbc1d900d	-0.009616864
178	0x3c8cb4ac	0.017175995
179	0xbb4bc171	-0.0031090642
180	0xbc2ec94a	-0.010668108
181	0xba196e85	-0.00058529555
182	0x3c9a5ed9	0.018844055
183	0x3c737ebc	0.014861759
184	0x3cc3eac9	0.023915665
185	0xbc6eb498	-0.014569424
186	0xbc06820c	-0.0082097165
187	0x3c037ee2	0.008025857
188	0x3c216602	0.009850981
189	0xbca50d39	-0.020147907
190	0x3d5c2e36	0.053755008
191	0xbbf56dcf	-0.007489897
192	0xbb877754	-0.004134098
193	0xb93e9622	-0.00018175741
194	0xbd7e2ddb	-0.06205545
195	0x3b97533d	0.004618077
196	0xbc35cc2e	-0.0110960435
197	0x3b1e6f03	0.0024175055
198	0x3c37ea69	0.011225321
199	0x3bb766a6	0.0055969534
200	0x3d1f814e	0.038941674
201	0x3d0d42bf	0.034487482
202	0x3cdc331b	0.026879838
203	0xbc1f8fc3	-0.009738865
204	0x3c641421	0.013920815
205	0xbc8a33c1	-0.016870381
206	0x3c1ca1f6	0.009560099
207	0xbcf9a0c5	-0.030472169
208	0x3ca93a07	0.020657552
209	0xbca34699	-0.019931125
210	0x3cae606b	0.02128621
211	0x3c3ff86e	0.011716945
212	0xbb36bf68	-0.0027885083
213	0xbd033304	-0.032031074
214	0xbb26278a	-0.0025353157
215	0xbca9421b	-0.020661404
216	0x3c5b5a5f	0.013388245
217	0x3c12610b	0.00893427
218	0x3d0a84ea	0.033818163
219	0xbc9ba6bf	-0.01900041
220	0x3c83dfc6	0.016097914
221	0x3d1e21d8	0.038606495
222	0x3cc87b4b	0.024472853
223	0xbb3e39b0	-0.0029026084
224	0x3bf201e0	0.0073854774
225	0x3c8cd87d	0.017193073
226	0x3c04873f	0.008088886
227	0x3c2e7a8e	0.0106493365
228	0x3d1f9c15	0.03896721
229	0xbca1178c	-0.019664548
230	0xbce092a4	-0.027413674
231	0x3c767ee0	0.015044898
232	0xbc716006	-0.014732366
233	0x3aa8dc08	0.0012882957
234	0x3b969398	0.0045952313
235	0x3c28a90a	0.010294208
236	0x3ca1bdf2	0.019743893
237	0x3cca4953	0.024693167
238	0xbc12f286	-0.008968955
239	0x3c8a61ba	0.016892303
240	0xbba98622	-0.0051734606
241	0xbcbed7ed	-0.02329632
242	0x3bbc04f1	0.0057378937
243	0xbd1b4445	-0.037906904
244	0xbccc75c1	-0.024958493
245	0xbc0f474d	-0.008745027
246	0xbc4cd182	-0.012501122
247	0xba89f4c4	-0.0010525216
248	0xbc264846	-0.010149067
249	0xbc999647	-0.018748416
250	0xbd3cb092	-0.046066828
251	0xbc32c345	-0.010910814
252	0xbc1ad006	-0.009449011
253	0x3c24c6ff	0.01005721
254	0xbccc051a	-0.024904776
255	0xbcf2f938	-0.029659852

network_body.linear_encoder.seq_layers.0.weight f4 [256, 20]
0	0xbd0ec7c7	-0.03485849
1	0x3b4f5ea3	0.0031642101
2	0xbc21d377	-0.009877077
3	0xbef0751f	-0.46964356
4	0xbe97c577	-0.2964284
5	0xbd810df0	-0.063014865
6	0xbdd0a1fb	-0.10187145
7	0xbcd43473	-0.025903916
8	0xbd5742d6	-0.052553974
9	0xbe9d0947	-0.3067114
10	0xbd62550b	-0.055256885
11	0xbda2a741	-0.079420574
12	0x3d04dc7d	0.032436837
13	0xbe826813	-0.25470027
14	0x3e9bea2f	0.30452105
15	0xbe2eb8b6	-0.17062649
16	0xbdedb399	-0.11606521
17	0x3ea163f7	0.3152158
18	0x3eca399f	0.39497086
19	0x3d8103e8	0.06299573
20	0xbd815914	-0.063158184
21	0x3edffa78	0.4374578
22	0x3eabac90	0.33530092
23	0xbea803da	-0.32815439
24	0x3e19aba0	0.15006876
25	0x3ee9be8f	0.45653197
26	0xbd149f94	-0.036284998
27	0xbe073178	-0.13202465
28	0xbcd509aa	-0.026005585
29	0xbe28bbb4	-0.16477853
30	0x3e42d8f9	0.19028081
31	0xbe8113b9	-0.2521036
32	0xbe2fe03f	-0.17175387
33	0xbcc981ea	-0.02459808
34	0x3e306bff	0.17228697
35	0x3d47e089	0.048798118
36	0xbd2963ae	-0.041354828
37	0xbdc7835b	-0.09741851
38	0xbe702176	-0.23450264
39	0xbdb3256d	-0.08747373
40	0x3e87694b	0.2644752
41	0x3e560ca0	0.20903254
42	0x3bf428b1	0.00745114
43	0x3ed6281d	0.4182748
44	0xbea53319	-0.32265547
45	0x3e3b50c4	0.18292528
46	0x3f08138b	0.5315482
47	0x3d9dd271	0.07706154
48	0xbe0c9f28	-0.13732588
49	0xbcea7e8a	-0.028624792
50	0xbec94d56	-0.39316815
51	0x3d0d3407	0.034473445
52	0x3dc09548	0.09403473
53	0xbd559776	-0.052146398
54	0xbe40903d	-0.18805023
55	0x3ec6db4a	0.3883918
56	0x3dbde80e	0.092727765
57	0x3e0edf40	0.1395235
58	0xbf1f25a3	-0.62166804
59	0x3e21f508	0.15816128
60	0x3e716683	0.23574261
61	0x3e212956	0.15738425
62	0xbd9081c1	-0.070559986
63	0xbed1c637	-0.40971538
64	0x3e810c68	0.25204778
65	0xbd5f92dd	-0.05458342
66	0x3ebfcdef	0.37461802
67	0x3ecd0180	0.40040207
68	0x3e268b82	0.16264156
69	0xbd74c30c	-0.059756324
70	0xbe8a281b	-0.26983723
71	0x3d706165	0.058686633
72	0x3ef89b3d	0.48555937
73	0x3ddaf388	0.10690981
74	0xbebf3f36	-0.37352914
75	0x3f1bfaf1	0.6092978
76	0xbd3df111	-0.046372477
77	0x3c2a6ce2	0.010401936
78	0x3e9b8bf6	0.3038022
79	0xbd8e6e7a	-0.069546655
80	0xbe6c68cc	-0.23086852
81	0xbe5a5e88	-0.21325123
82	0xbcdb4789	-0.026767509
83	0x3e1d9954	0.15390521
84	0x3e012d80	0.12615013
85	0x3eb18583	0.34672174
86	0x3e4bc765	0.19900282
87	0x3e3694f5	0.1783026
88	0xbe4d7d64	-0.20067364
89	0xbe9c1e4a	-0.3049186
90	0xbe2d6ba5	-0.16935594
91	0xbe47b916	-0.19504198
92	0x3ef67e5a	0.48143274
93	0xbd71ccd6	-0.059033237
94	0x3df0e6a8	0.11762744
95	0x3dd77872	0.1052102
96	0xbe3657ab	-0.1780688
97	0x3c94e443	0.01817525
98	0xbe362ce0	-0.17790556
99	0x3e1d7d2a	0.15379778
100	0xbc6e4709	-0.014543303
101	0xbeba5e55	-0.36400095
102	0xbe7d5f00	-0.24743271
103	0x3e1b362e	0.15157387
104	0xbcf9863c	-0.030459516
105	0x3df65e20	0.12029672
106	0xbd7d8670	-0.061895788
107	0x3ba66c38	0.0050788186
108	0xbeadb9e2	-0.3393088
109	0x3e8a810b	0.27051577
110	0x3f1059e5	0.5638717
111	0xbd8650ba	-0.06558366
112	0x3e1f8b83	0.15580563
113	0xbe87d104	-0.26526654
114	0x3e51f346	0.20502958
115	0xbd1d57cb	-0.038413804
116	0x3de2972b	0.11063989
117	0x3d2b528c	0.04182677
118	0x3cfa2d27	0.030539108
119	0x3e8eba36	0.27876443
120	0xbd068192	-0.03283841
121	0x3ea29d76	0.31760758
122	0x3e29ae13	0.1657031
123	0x3e68cea5	0.22735079
124	0xbe8ae5ed	-0.27128544
125	0x3e4b59f3	0.19858532
126	0xbe604b95	-0.21903832
127	0x3ed3b36c	0.41347826
128	0x3e38a1df	0.18030499
129	0x3e10ce5f	0.14141224
130	0xbcba547d	-0.022745365
131	0x3e3f6e3e	0.18694398
132	0x3d481176	0.048844777
133	0x3dcc497f	0.09974956
134	0xbca3ec75	-0.020010212
135	0xbded0399	-0.11572952
136	0x3d9bd287	0.07608514
137	0xbf0d9cdb	-0.5531747
138	0xbd9b3bb7	-0.07579749
139	0x3e81986c	0.253116
140	0x3f285d65	0.6576751
141	0xbb961591	-0.0045802076
142	0x3e389fb7	0.18029676
143	0xbdc831b0	-0.09775102
144	0x3e01eaca	0.12687221
145	0x3e4dbc09	0.20091261
146	0x3cdda5a6	0.027056526
147	0xbd5e5ea3	-0.05428947
148	0xbe27593a	-0.16342631
149	0x3e0f49dc	0.13993019
150	0xbd31c42a	-0.043399967
151	0xbe488aed	-0.19584246
152	0xbe19127d	-0.14948459
153	0xbe7d589f	-0.24740838
154	0x3e7b4352	0.245374
155	0x3eb68ca4	0.35654175
156	0xbeedc910	-0.4644246
157	0x3c866312	0.016404662
158	0xbc73bedc	-0.014877047
159	0xbecd3d85	-0.40085998
160	0xbde6950c	-0.11258897
161	0x3e156861	0.14590599
162	0xbde3d57f	-0.111247055
163	0xbe5498e4	-0.20761448
164	0xbdefa0e2	-0.11700608
165	0x3ee80f62	0.45324236
166	0x3dc8e529	0.09809334
167	0xbe72d3a0	-0.23713541
168	0x3d4f27f0	0.050575197
169	0x3e0652af	0.13117479
170	0xbe61399e	-0.21994635
171	0xbd1544c6	-0.03644254
172	0x3e319a64	0.17344052
173	0xbc5a74a9	-0.013333478
174	0xbd5cf14a	-0.05394105
175	0x3ef13f09	0.47118405
176	0x3e383a97	0.179911
177	0x3db6027c	0.088871926
178	0xbc7bcf4b	-0.015369247
179	0x3e596389	0.21229376
180	0xbda31b2a	-0.079641655
181	0x3e14b69f	0.1452279
182	0xbf012796	-0.5045103
183	0x3d3239aa	0.043512024
184	0x3d870fff	0.06594848
185	0xbd6e1d7d	-0.05813359
186	0xbea07895	-0.31341997
187	0xbd559a96	-0.052149378
188	0x3e8f6c3c	0.28012264
189	0xbea5da26	-0.32392997
190	0x3d961a92	0.07329287
191	0xbe2eeebc	-0.17083257
192	0x3cb878a4	0.022518463
193	0xbf0bf025	-0.54663306
194	0xbe6a7d53	-0.2289937
195	0xbdd83a0e	-0.10557948
196	0xbe8cf4bb	-0.27530465
197	0xbe22d4f3	-0.15901546
198	0xbdabe12a	-0.08392556
199	0x3bb64278	0.005562123
200	0xbe0957fa	-0.13412467
201	0x3e16955d	0.14705415
202	0x3cfcf99f	0.030880747
203	0xbecbbbd6	-0.39791745
204	0xbe0b68ff	-0.13614272
205	0xbd3b306c	-0.045700476
206	0x3e8ac7a7	0.27105448
207	0xbe7cc370	-0.24683928
208	0x3e066d46	0.13127622
209	0xbdf1d9e1	-0.11809135
210	0x3d8333dc	0.06406376
211	0x3eadb53a	0.33927327
212	0xbd702d24	-0.0586368
213	0x3e326153	0.17419939
214	0x3e8b1bb7	0.27169582
215	0x3e51b367	0.20478593
216	0x3e4b4993	0.19852285
217	0xbe642fa8	-0.22283804
218	0x3e8cc6ba	0.27495366
219	0x3e6e4411	0.23268153
220	0xbeb5e0c8	-0.35523057
221	0x3e1104f0	0.1416204
222	0x3d5fc87a	0.05463455
223	0xbd6144d5	-0.054997284
224	0xbf1a8643	-0.6036112
225	0xbe758a9b	-0.23978655
226	0xbe4744a5	-0.1945978
227	0xbe419250	-0.1890347
228	0xbdf92ac5	-0.12166361
229	0xbe9e9195	-0.30970445
230	0xbe9a9c01	-0.30197147
231	0xbec2001f	-0.37890717
232	0xbdf1e8e1	-0.11811996
233	0x3ec10f7c	0.37707126
234	0xbf16904d	-0.58813936
235	0xbd9f659c	-0.07783052
236	0xbe43417d	-0.1906795
237	0x3d59cb38	0.05317232
238	0xbd82f97c	-0.063952416
239	0x3e176076	0.1478289
240	0x3ed505b9	0.4160593
241	0x3ec55517	0.3854148
242	0x3d640714	0.055670813
243	0xbe7908e8	-0.24319804
244	0x3e524937	0.20535742
245	0x3d91ef97	0.07125776
246	0xbe14a0cb	-0.14514463
247	0xbe24123a	-0.16022578
248	0xbd58dcfd	-0.052945126
249	0xbe81b2c3	-0.25331697
250	0xbdae10be	-0.08499287
251	0xbea5843b	-0.32327446
252	0xbea2fd11	-0.318337
253	0xbdc19c96	-0.094536945
254	0xbe6ba946	-0.23013791
255	0xbea06bea	-0.31332332

network_body.linear_encoder.seq_layers.2.bias f4 [256]
0	0x3cbf03e8	0.023317292
1	0xbc566f75	-0.013088097
2	0xbd1cc484	-0.03827335
3	0xba224aa4	-0.0006190932
4	0x3adf7494	0.0017048293
5	0x3cd183bc	0.025575511
6	0xbc8ffe53	-0.017577326
7	0xbca20ad1	-0.019780548
8	0xbd178c25	-0.036998887
9	0xbd1eba69	-0.038751993
10	0x3a13594d	0.0005620912
11	0xbc955b44	-0.018231995
12	0xba8f8aea	-0.0010951434
13	0xbc96e9b2	-0.018421981
14	0xbd44e847	-0.04807308
15	0x3bfdc41e	0.0077443263
16	0x3ad41e1c	0.001618329
17	0xba9e7cfb	-0.001209169
18	0xbd0f324d	-0.03496008
19	0x3cc6d16d	0.024269784
20	0x3c920468	0.017824367
21	0x3c695887	0.014242298
22	0x3c8ac1b2	0.016938064
23	0xbce1fa18	-0.027585074
24	0x3abf9963	0.0014617856
25	0xbd2b2db0	-0.041791618
26	0xbc086a73	-0.008326161
27	0xbc10e36f	-0.008843287
28	0x3b9d32cd	0.0047973157
29	0xbc78cf16	-0.015186092
30	0x3c24e2e5	0.0100638615
31	0xbb715592	-0.0036824686
32	0xbcc2f503	-0.023798471
33	0x3c7ee463	0.015557381
34	0x3b8c68bb	0.004284946
35	0xbc4843ac	-0.0122231655
36	0x3c413499	0.011792325
37	0xbcf67ef9	-0.030089842
38	0xbc0f3297	-0.008740089
39	0xbd437ad1	-0.04772455
40	0xbc303e0e	-0.0107569825
41	0xbbc8284f	-0.006108321
42	0xbc375e96	-0.011191985
43	0xbd33ebfb	-0.04392622
44	0x3ca0bfe1	0.019622745
45	0x3bdeab60	0.006795332
46	0xbcbe8ef3	-0.023261523
47	0x3cc05dc0	0.023482203
48	0x3c6e7cbf	0.014556109
49	0x3bc874d5	0.006117443
50	0x3c456cd9	0.012049877
51	0xbccb9348	-0.024850503
52	0x3c0bbcc5	0.008528893
53	0x3bdc5fae	0.006725273
54	0x39f61345	0.00046935133
55	0x3bdd69c4	0.006756993
56	0x3be055d5	0.0068461695
57	0xbc23e8c4	-0.010004226
58	0xb9c1ff4b	-0.00037002037
59	0xbc945a39	-0.018109428
60	0xbd56c968	-0.05243817
61	0x3ca6bbfa	0.020353306
62	0xbc87ffc9	-0.01660146
63	0x3cc73991	0.024319442
64	0x3b949e9d	0.0045355097
65	0x3b16d1bf	0.0023013202
66	0x3c9aea1a	0.018910456
67	0x3b6425cd	0.003481257
68	0xbc58c04c	-0.013229441
69	0x3b495038	0.003071798
70	0xb8e7c007	-0.00011050706
71	0xbbf60a96	-0.007508586
72	0x3b601384	0.003419132
73	0x3b40b202	0.0029402976
74	0x3c2708c7	0.010194964
75	0x3ac6d118	0.0015168516
76	0x3b7686e0	0.0037617013
77	0x3b9a8f04	0.004716756
78	0x3c1be171	0.009514199
79	0x3ac08533	0.0014688134
80	0x3bd3804b	0.0064545027
81	0x3bc58165	0.006027388
82	0xbca27842	-0.019832734
83	0x3c45a8dd	0.012064186
84	0xbd411b44	-0.047145143
85	0x3ba3f685	0.0050037527
86	0x3be4a172	0.0069772536
87	0x3cc89aab	0.024487814
88	0xbc4c069e	-0.01245275
89	0xbc0da1d0	-0.008644536
90	0xbc03ed59	-0.008052194
91	0xbcd99d78	-0.026564345
92	0xbbb7ea60	-0.0056126565
93	0x3cb8046a	0.022463042
94	0xba9ec3b0	-0.0012112763
95	0x3a321491	0.0006793226
96	0xbcdd5c89	-0.027021663
97	0x3c633350	0.013867214
98	0xba737655	-0.0009287347
99	0xbd22cc47	-0.039745595
100	0x3baa7049	0.0052013737
101	0x3c91ec5b	0.017812898
102	0x3c24a366	0.010048723
103	0x3c4161b4	0.011803079
104	0x3bfe474c	0.007759964
105	0x3cc43fd4	0.023956217
106	0xbc550553	-0.013001758
107	0xbd5324df	-0.051548835
108	0xbb220a76	-0.0024725473
109	0xbc49c0ce	-0.012314035
110	0xbc505660	-0.012715906
111	0xbd2b29ec	-0.041788027
112	0x3b7542d9	0.0037423878
113	0x3ca16462	0.019701187
114	0xbcb88b0e	-0.022527244
115	0xbca1fec5	-0.019774804
116	0xbc29f0d4	-0.010372359
117	0x3be4a8cf	0.0069781314
118	0xbaf72386	-0.0018855191
119	0x3c726999	0.014795684
120	0x3bffdc2d	0.0078082294
121	0x3ae80980	0.0017703027
122	0x3bcc5ad1	0.006236412
123	0xbd2cbdf7	-0.042173352
124	0x3cdc0438	0.02685748
125	0xbc0f411d	-0.008743552
126	0x3b2ea45a	0.0026648254
127	0xbcd886da	-0.02643149
128	0x3cb66ef4	0.022269703
129	0xbc43195b	-0.011907901
130	0xbcd538fb	-0.026028147
131	0x3be6200a	0.0070228623
132	0xbd01a97f	-0.031655785
133	0xbbdb2d0b	-0.006688719
134	0xbd0cdbfc	-0.03438948
135	0x3ab2304b	0.0013594715
136	0x3a9208c6	0.0011141531
137	0xbc23a330	-0.009987637
138	0xbd1db2f3	-0.038500737
139	0x3c0639e0	0.008192509
140	0xbaeed12d	-0.0018220298
141	0xbb75e197	-0.0037518495
142	0xbcc65d0a	-0.024214286
143	0xbca245a3	-0.019808596
144	0xbd4f233f	-0.050570723
145	0x3c49bce1	0.012313099
146	0x3be908c3	0.00711164
147	0x3cac6b8e	0.02104738
148	0x3c3ec5d4	0.011643846
149	0x3ac4e89e	0.0015022939
150	0x3b8912b1	0.0041831364
151	0xbb43766b	-0.0029825221
152	0xbd5ff49d	-0.05467664
153	0xba9af312	-0.0011821708
154	0xbcea36ef	-0.028590648
155	0xbc0fed9d	-0.008784679
156	0xbbbfc87f	-0.0058527584
157	0xbbee4c1d	-0.007272257
158	0x3b1d125d	0.0023967244
159	0x3c3b2ad3	0.011423784
160	0x3cf9c72d	0.030490482
161	0x3c07c7ae	0.008287353
162	0x3bd3e6db	0.006466729
163	0x3bad698e	0.005292124
164	0xbbd853f4	-0.006601805
165	0xbd47a621	-0.048742417
166	0x3c92f388	0.01793839
167	0x3b191093	0.0023355826
168	0xbc889cf1	-0.016676398
169	0xbc01a5a9	-0.007913032
170	0x3c25005a	0.010070885
171	0x3cb6ac39	0.022298919
172	0xbc078bb5	-0.008273055
173	0xbd83939d	-0.064246394
174	0xbc487394	-0.012234587
175	0x3c6efb66	0.014586305
176	0xbbbb4867	-0.005715418
177	0x3bac6dfa	0.0052621337
178	0x3ba1e129	0.0049401713
179	0xbd5324f8	-0.051548928
180	0x3c0d5997	0.008627317
181	0x3b9a68ec	0.0047122147
182	0xbb160c87	-0.002289565
183	0xbb6407f1	-0.0034794773
184	0xbcfacd0d	-0.030615354
185	0xbd6f3240	-0.05839753
186	0x3c27323e	0.01020485
187	0xbbb1a6e5	-0.0054215067
188	0xbd091d5c	-0.033475265
189	0xbcb2a6fe	-0.021808144
190	0xbc97370e	-0.01845887
191	0x3c16f1b8	0.009212904
192	0xbba7cc83	-0.0051208152
193	0x3c8c3b73	0.017118191
194	0xbd463b9b	-0.048396688
195	0xbd642a59	-0.05570445
196	0xbd0e083b	-0.034675818
197	0x3b21b5c1	0.0024674984
198	0x3bcb652f	0.0062071304
199	0xbcee7427	-0.02910812
200	0x3c6030ed	0.01368354
201	0xbcd29b64	-0.025708862
202	0xbc708f3f	-0.01468259
203	0xba4fd0c2	-0.00079275307
204	0xbc2f699b	-0.010706331
205	0xbcc7bf0b	-0.024383089
206	0x3bda16d0	0.0066555515
207	0xbd26391c	-0.040581807
208	0x3c9a0739	0.018802272
209	0x3b445d2b	0.002996276
210	0x3ce4cad7	0.027928753
211	0xbd0443e2	-0.0322913
212	0x3c080f77	0.008304468
213	0x3a9f8b41	0.0012172238
214	0x3c22bc65	0.009932612
215	0x3bd3bba4	0.0064615775
216	0x3c2d815b	0.010589923
217	0x3c200d43	0.009768787
218	0xbc4e04cf	-0.012574389
219	0xbcaca1cd	-0.021073246
220	0x3b9f4608	0.0048606433
221	0xb9a539d0	-0.00031514326
222	0xbd3e0737	-0.0463936
223	0xbb1a80a4	-0.002357521
224	0xbc39f762	-0.011350485
225	0xbd528d4b	-0.05140428
226	0x3c3e74bf	0.011624514
227	0xba54fcc8	-0.00081248255
228	0xbd826c2d	-0.06368289
229	0xbd514541	-0.051091436
230	0x3b3cd7e7	0.0028815211
231	0x3b99b891	0.0046911915
232	0xbd8a5ea2	-0.06756331
233	0x3ca82d0f	0.020529298
234	0x3c1be243	0.009514394
235	0x3b43d8e3	0.0029883913
236	0xbd0d6a85	-0.034525413
237	0x3b3fa4a7	0.0029242428
238	0xbc74846f	-0.014924153
239	0xbb8870f6	-0.0041638566
240	0xbb0b7983	-0.0021282143
241	0xbd494d14	-0.049145773
242	0x3c135bca	0.008994052
243	0xbceb93e0	-0.028757036
244	0xbd13e72f	-0.036109146
245	0xbc3fe23d	-0.011711654
246	0x3cceefca	0.025260825
247	0xbc249b74	-0.010046829
248	0x3b37a5d0	0.0028022416
249	0xbcd7645f	-0.026292978
250	0x3c174d11	0.009234683
251	0xbd08a5f0	-0.033361375
252	0xbcb23323	-0.0217529
253	0xbcccbab9	-0.02499138
254	0x3bd7758e	0.006575293
255	0xbca60562	-0.020266239

network_body.linear_encoder.seq_layers.2.weight f4 [256, 256]
0	0xbca6872f	-0.020328132
1	0x3dcb4d45	0.09926847
2	0x3dccd537	0.10001605
3	0x3bd31e0c	0.006442791
4	0xbd850318	-0.06494731
5	0xbd9a850a	-0.075449064
6	0x3d13c522	0.036076672
7	0x3d868b65	0.06569556
8	0xbd22ea16	-0.039774023
9	0x3ca55c16	0.020185512
10	0xbd577949	-0.0526059
11	0xbc4077cd	-0.011747313
12	0xbd9a8e54	-0.07546678
13	0x3cb7290b	0.022358438
14	0x3caa63f5	0.020799616
15	0x3d078940	0.033089876
16	0xbdbc72d2	-0.09201588
17	0xbcd292c3	-0.025704747
18	0xbd392c00	-0.045207977
19	0xbcbc4909	-0.022984045
20	0x3e484705	0.19558342
21	0x3cfad661	0.030619802
22	0xbcf492c0	-0.029855132
23	0xbc6ffd40	-0.014647782
24	0x3e25b755	0.16183217
25	0xbd4f93d6	-0.050678097
26	0xbdcbc582	-0.09949781
27	0x3cc55a37	0.02409087
28	0x3d7d8057	0.061889973
29	0xbaed67ee	-0.0018112638
30	0x3cba9b3e	0.022779103
31	0x3d02e1c4	0.031953588
32	0x3e687cea	0.22703901
33	0xb95f6357	-0.00021303944
34	0x3d180fa8	0.037124306
35	0x3da88b91	0.08229745
36	0x3ce19214	0.027535476
37	0xbdae0e4d	-0.084988214
38	0xbc0383be	-0.008027015
39	0xbdd279ee	-0.102771625
40	0x3cff5cd5	0.031172195
41	0x3dccc557	0.09998577
42	0x3dfcc19e	0.12341617
43	0x3c3b4989	0.011431106
44	0x3dfe34db	0.12412425
45	0xbd1b51ce	-0.037919812
46	0xbcbf201e	-0.023330744
47	0xbd790e8d	-0.060804892
48	0xbdbb04ea	-0.09131797
49	0xbc81004b	-0.01574721
50	0x3d15c34c	0.036563203
51	0x3ca0cacf	0.019627957
52	0x3d30ef99	0.043197248
53	0x3e085653	0.1331418
54	0x3e02d72f	0.12777399
55	0xbe005d66	-0.12535629
56	0xbd8b67ab	-0.068068825
57	0x3e2586ce	0.16164705
58	0x3ddde0f6	0.108339235
59	0x3b6199e4	0.0034424001
60	0x3c932ff5	0.017967204
61	0x3db19f88	0.08673006
62	0x3cda43c6	0.026643645
63	0xbd3bace6	-0.045819186
64	0xbd00d5fc	-0.03145407
65	0xbd45071d	-0.048102487
66	0xbb7822be	-0.0037862505
67	0x3df1cbf7	0.11806481
68	0x3e180ec9	0.1484939
69	0x3d755c0f	0.059902247
70	0x3d9aaf79	0.07553
71	0xbd95faf0	-0.07323253
72	0xbdb95791	-0.09049905
73	0x3dafd2d1	0.08585132
74	0xbd93bade	-0.072133765
75	0x3ddb3eb3	0.10705318
76	0xbd90061c	-0.07032415
77	0xbd9bb8da	-0.07603617
78	0x3cdb5024	0.026771612
79	0x3c22b42e	0.0099306535
80	0x3d91ffc0	0.071288586
81	0x3c2ecd1a	0.010669017
82	0xbc01c184	-0.007919673
83	0x3ca35161	0.019936265
84	0x3d41e791	0.04733998
85	0xbd6ff95a	-0.05858741
86	0x3d84dcb4	0.06487408
87	0x3d2a1a56	0.041529022
88	0xbbf6081c	-0.007508291
89	0x3d759cef	0.059964117
90	0x3ad44d4f	0.0016197356
91	0x3bf5c4c4	0.007500263
92	0xbce4a319	-0.027909802
93	0xbde1d5e8	-0.110271275
94	0x3a96e1e5	0.0011511414
95	0x3ca8e51a	0.020617057
96	0x3c14d879	0.009084814
97	0x3e06d8fb	0.13168709
98	0x3e0e22ae	0.13880417
99	0xbcf7d1c6	-0.030251395
100	0x3c761a90	0.015020981
101	0x3ddaef44	0.106901675
102	0x3c43b588	0.011945136
103	0x3cace744	0.02110637
104	0xbcbe0599	-0.023196029
105	0x3c88a673	0.016680932
106	0x3c2d93d7	0.01059433
107	0x3cf23f9f	0.029571353
108	0x3d3c57c7	0.04598215
109	0x3d5f09e0	0.054452777
110	0xbdb990ba	-0.090608075
111	0x3d37f76c	0.044913694
112	0x3d06009d	0.03271543
113	0x3ca9ffbd	0.020751828
114	0xbd9d40c4	-0.07678369
115	0x3b4007e4	0.0029301578
116	0x3c218a2d	0.009859604
117	0x3d6782c7	0.056521203
118	0x3d841aab	0.06450399
119	0xbdccc876	-0.099991724
120	0xbd42e441	-0.04758096
121	0x3d2bf73b	0.041983824
122	0x3d87def9	0.066343255
123	0xbdf6df71	-0.12054337
124	0xbd403660	-0.046926856
125	0xbc33b74f	-0.010968997
126	0xbd0a8d59	-0.033826206
127	0xbd992842	-0.07478382
128	0x3da0baec	0.078481525
129	0xbda6bf8f	-0.08142006
130	0x3c2eaf9d	0.010661987
131	0x3c997473	0.018732285
132	0x3d1f2a84	0.038858905
133	0xbce01110	-0.027351886
134	0x3e0a1068	0.13482821
135	0xbd07284a	-0.032997407
136	0x3a96cab9	0.0011504508
137	0xbc98cfe3	-0.018653816
138	0x3d72c006	0.05926516
139	0xbb360c1f	-0.002777822
140	0x3d9bac56	0.0760123
141	0xbc382827	-0.011240042
142	0x3c15b897	0.009138248
143	0xbd1d9dd0	-0.03848058
144	0xbc1dc8a5	-0.009630357
145	0xbdbf2206	-0.09332661
146	0xbdaf3862	-0.08555676
147	0x3ce887ff	0.02838516
148	0xbcd3b2a7	-0.025842024
149	0xbc7d645d	-0.015465823
150	0xbe2d3d86	-0.16918
151	0x3caca00d	0.021072412
152	0x3c55fe3a	0.013061101
153	0x3cdc27d8	0.026874468
154	0xbd6cc080	-0.05780077
155	0xbb10b685	-0.0022081446
156	0x3d703235	0.05864163
157	0x3cbd82b5	0.023133615
158	0xbd8826d6	-0.06648032
159	0x3d891d16	0.06695001
160	0x3d1384e0	0.03601539
161	0xba44b1df	-0.00075033115
162	0xbbb1f028	-0.00543024
163	0x3d112307	0.035433795
164	0xbd8ca3c6	-0.06867175
165	0x3c873425	0.016504357
166	0xbd0c5c91	-0.034267966
167	0xbcf51882	-0.029918913
168	0x3b8ae571	0.0042387773
169	0xbc3c141f	-0.011479407
170	0x3d0822f2	0.03323645
171	0x3cf1c961	0.02951497
172	0x3cfa2a69	0.0305378
173	0xbddcd095	-0.10781971
174	0x3dfde3c1	0.12396956
175	0x3d4e7bbd	0.050410975
176	0x3d904a35	0.07045404
177	0xbc21b3e9	-0.009869554
178	0xbc950109	-0.01818897
179	0xbaa96fbb	-0.0012926975
180	0x3ca685ef	0.020327536
181	0x3dc9ad67	0.09847527
182	0xbbc028de	-0.0058642467
183	0xbd39ff65	-0.04540958
184	0x3ce0775a	0.027400661
185	0x3a57dab3	0.0008234188
186	0xbdb2f700	-0.08738518
187	0x3d197282	0.03746272
188	0x3e1f6fbe	0.1556997
189	0xbd6d6fce	-0.057967953
190	0xbdec2205	-0.11529926
191	0x3e3909b0	0.18070102
192	0x3dc63dce	0.09679757
193	0xbcb0284b	-0.021503588
194	0xbafc5b23	-0.0019253235
195	0x3d7760fd	0.06039523
196	0x3d085f47	0.03329399
197	0x3e22f9dc	0.15915626
198	0xbd341b95	-0.043971617
199	0xbd30de63	-0.043180835
200	0xbe029080	-0.12750435
201	0x3ce16617	0.0275145
202	0x3e172b2f	0.14762567
203	0xbdbf7326	-0.09348135
204	0xbcc8c819	-0.024509476
205	0x3d85e41c	0.06537649
206	0xbcb3ca43	-0.021947032
207	0xbd6a5c6b	-0.057217043
208	0x3d98904c	0.074493974
209	0x3d6df769	0.058097277
210	0xbd360a8c	-0.044443652
211	0x3dcec65b	0.10096427
212	0x3d0af087	0.03392079
213	0x3cd1004d	0.025512839
214	0x3d3fdc61	0.04684103
215	0x3bc9b4f0	0.0061556026
216	0xbc9eab61	-0.01936883
217	0xb9eb79f1	-0.00044913546
218	0x3dd32334	0.10309449
219	0x3d3bb216	0.045824133
220	0xbe1330a2	-0.1437402
221	0xbcd81fe7	-0.0263824
222	0x3d9fca29	0.07802231
223	0x3b889216	0.0041678054
224	0xbd67ae59	-0.056562755
225	0x3d78959e	0.06068956
226	0x3d964387	0.073370986
227	0x3dd0a0ac	0.10186896
228	0x3c73b77c	0.014875289
229	0xbd629037	-0.055313315
230	0x3db9b70b	0.09068116
231	0x3d557764	0.052115813
232	0x3d696bde	0.056987636
233	0xbd5c3aee	-0.053767137
234	0x3c5c5879	0.013448828
235	0x3bc9abbb	0.006154505
236	0x3c090e38	0.008365206
237	0x3e19d4cf	0.15022586
238	0x3ddf0b9f	0.108908884
239	0xbcf15aa1	-0.02946216
240	0x3ccc3358	0.024926826
241	0xbd5ecae3	-0.054392707
242	0x3d004897	0.031319227
243	0xbd5c4450	-0.053776085
244	0xbcb869dc	-0.022511415
245	0x3c433e89	0.011916765
246	0x3c11e9d9	0.008905851
247	0x3db17d33	0.08666458
248	0xbd32cde3	-0.04365338
249	0xbd20fce3	-0.03930367
250	0x3d8ca8f4	0.06868163
251	0x3db66904	0.08906749
252	0xbd9a15dc	-0.075237006
253	0xbd35032b	-0.044192474
254	0xbc0f6923	-0.008753094
255	0xbcdb7333	-0.02678833

network_body.linear_encoder.seq_layers.4.bias f4 [256]
0	0x3c8ce3a8	0.017198399
1	0x3c216fab	0.009853284
2	0xbd3d50ef	-0.046219762
3	0xbc95864d	-0.018252516
4	0x3c4680a2	0.012115629
5	0x3b864f63	0.004098819
6	0xbd601f44	-0.054717317
7	0xbc48c659	-0.012254321
8	0x3c911285	0.017709026
9	0xbd305b07	-0.04305556
10	0x3ca5e005	0.020248422
11	0x3cd8147d	0.026376957
12	0x3c91b892	0.017788205
13	0xbd662c3c	-0.05619453
14	0xbd075182	-0.033036716
15	0xbd3da8b2	-0.04630346
16	0xbd546598	-0.0518547
17	0x3d02b49f	0.031910535
18	0x3befb141	0.0073148315
19	0xbcac460e	-0.021029498
20	0x3bd72aca	0.00656638
21	0xbb8eee27	-0.004361886
22	0xbd27abc8	-0.040935308
23	0xbd24623e	-0.040132754
24	0xbd265ce9	-0.04061595
25	0xbd3b2d71	-0.045697633
26	0xbc68e5e1	-0.014214964
27	0xbd555ee5	-0.05209245
28	0xbd02868a	-0.031866588
29	0xbc7d7ffa	-0.0154724065
30	0x3cca955c	0.024729423
31	0xbb923862	-0.0044622878
32	0xbd31821a	-0.043336965
33	0x3c123e7a	0.008926028
34	0xbd37830a	-0.044802703
35	0x3d213916	0.039361082
36	0xbc9384ed	-0.01800772
37	0x3bb79ba7	0.005603272
38	0x3bf4dd7e	0.007472693
39	0x3be1cf4f	0.006891168
40	0x3d00e776	0.03147074
41	0x3bed5a6e	0.007243446
42	0xbcdbaf28	-0.02681692
43	0xbd20c022	-0.039245732
44	0x3ca9ef12	0.02074388
45	0x3b5384c3	0.0032275177
46	0x3b86b945	0.0041114413
47	0x3d028dcb	0.031873506
48	0x3cab2f4c	0.020896576
49	0x3bc03b56	0.0058664484
50	0x3c718635	0.01474147
51	0x3c3bb072	0.011455642
52	0x3baea9ac	0.005330285
53	0x3c8741e5	0.016510913
54	0x3cb5c758	0.022189781
55	0xbd2eae8b	-0.042646926
56	0x3b91072c	0.004425904
57	0x3cf882ae	0.03033575
58	0x3b302e9f	0.0026883257
59	0xbd26db54	-0.04073651
60	0x3ce95ae8	0.02848573
61	0xb82125bb	-3.842053e-05
62	0xbc7c2a2e	-0.015390916
63	0x3c99553e	0.018717404
64	0xbd1aa789	-0.03775743
65	0xbd1c4efa	-0.038161255
66	0x3c96ca70	0.018407077
67	0x3caf6748	0.021411553
68	0x3c95cccb	0.01828613
69	0xbd224a3b	-0.039621573
70	0xbd4a366e	-0.049368314
71	0xbd1e1737	-0.03859636
72	0x3c065fba	0.008201534
73	0xbca42c3b	-0.020040622
74	0xbca6b6e0	-0.020350873
75	0x3b0fd053	0.002194424
76	0x37a44769	1.9583576e-05
77	0xbd25d5bb	-0.040487032
78	0xbd115904	-0.035485283
79	0x3cb61495	0.022226611
80	0xbd43ad7a	-0.047772862
81	0x3d0805e1	0.03320873
82	0xbd1a0e20	-0.037611127
83	0xbd3c43cc	-0.045963094
84	0x3c5d08b7	0.013490847
85	0x3c93ca48	0.018040791
86	0x3c49cf22	0.012317451
87	0xbbbc4335	-0.0057453164
88	0x3986a1e6	0.00025679095
89	0x3aaa6cdc	0.0013002413
90	0xbc7ad818	-0.01531031
91	0x3cccd1c3	0.025002366
92	0x3bc52f6e	0.006017617
93	0x3c6d7d5e	0.014495222
94	0xbd103ab5	-0.035212237
95	0x3c0140ca	0.007888982
96	0x3d095800	0.03353119
97	0x3ca3110a	0.019905586
98	0x3c3bd94b	0.011465381
99	0x3c70d5b7	0.014699391
100	0x3bf77cfe	0.007552742
101	0x3bc5c01b	0.0060348636
102	0x3c9007cf	0.017581848
103	0xbd2791a0	-0.040910363
104	0xbc0d5d84	-0.008628253
105	0xbd005601	-0.03133202
106	0x3c8e280f	0.017353086
107	0x3bbece42	0.0058229277
108	0xbc84488c	-0.016147874
109	0xbd404eeb	-0.046950262
110	0xbc443c60	-0.011977285
111	0x3c9eab0a	0.019368667
112	0x3c9ddc53	0.019270098
113	0xbd22efc1	-0.03977943
114	0x3c949fbc	0.018142574
115	0xbbcbc5fd	-0.0062186704
116	0xbbdf61af	-0.0068170647
117	0xbcd64600	-0.026156425
118	0x3cb6a39f	0.022294817
119	0xbd0eb091	-0.034836356
120	0xbadb70de	-0.0016742011
121	0xbd727d61	-0.059201602
122	0xbd240622	-0.04004491
123	0x3c965eee	0.018355813
124	0xbd66f2bd	-0.056383837
125	0x3c5c5389	0.013447651
126	0xbb7ecbb7	-0.0038878748
127	0xbd20b6ff	-0.03923702
128	0x3cb517a5	0.022106001
129	0xbd330d0f	-0.043713626
130	0xbd52f9c6	-0.051507734
131	0xbd8c5516	-0.06852166
132	0x3bef8c11	0.0073103984
133	0x3cf55f78	0.02995275
134	0x3c80fe62	0.0157463
135	0xbd4d5d19	-0.050137613
136	0xbd3b53f3	-0.045734357
137	0xbd11f336	-0.035632335
138	0x3c51bb72	0.012801038
139	0x3d01d9a0	0.031701684
140	0x3c575d47	0.013144798
141	0xbd07f635	-0.033193786
142	0xbcea55c2	-0.028605346
143	0xbcd8079c	-0.026370816
144	0xbb8d1be9	-0.0043063057
145	0xbd1c287c	-0.038124546
146	0xbd4a1081	-0.049332146
147	0x3ca89d8b	0.020582935
148	0xbd0946cb	-0.03351478
149	0xbd193e89	-0.037413154
150	0x3ca5e7de	0.020252164
151	0x3c763d20	0.015029222
152	0xb9504bb3	-0.00019864626
153	0x3c79296a	0.015207628
154	0x3cc1b105	0.02364398
155	0xbd5934e4	-0.053028956
156	0x3cc37398	0.02385883
157	0xbd3622ae	-0.044466667
158	0x3d0591c0	0.0326097
159	0xbce8c28b	-0.028413078
160	0xbd4341e6	-0.047670268
161	0x3cdd2462	0.026994888
162	0x3c8fbf76	0.01754735
163	0x3d042785	0.03226425
164	0xbc4b2027	-0.012397802
165	0xbd0a7cc1	-0.03381038
166	0xbb9a4c39	-0.0047087935
167	0xbc12ebd6	-0.0089673605
168	0x3c45154d	0.012029004
169	0x3c6a0d7a	0.01428544
170	0x3c677b7f	0.014128565
171	0x3c4c42bd	0.0124670835
172	0xbc41bad1	-0.011824326
173	0x3c83ec7f	0.016103981
174	0x3b34c3e5	0.0027582583
175	0xbc9d3b07	-0.019193185
176	0x3c91efb8	0.017814502
177	0x3c7e82ec	0.015534144
178	0xbd42b559	-0.047536228
179	0x3c8adbc4	0.016950496
180	0xbd231cbc	-0.039822325
181	0x3b593408	0.0033142585
182	0x3c1990de	0.009372918
183	0x3cf71525	0.03016145
184	0xbbe9e5a0	-0.007137969
185	0x3cf90989	0.030400055
186	0x3cc31caa	0.023817379
187	0x3c6a606c	0.014305215
188	0xbb4b2477	-0.0030997077
189	0x3b246c0a	0.002508881
190	0x3d0434d8	0.03227696
191	0xbd65b757	-0.05608305
192	0xbd15c8bc	-0.03656839
193	0xbd6826a9	-0.056677494
194	0xbd772105	-0.060334224
195	0xbd458b82	-0.04822875
196	0xbd0f2ef4	-0.034956887
197	0xbc9a29be	-0.018818732
198	0x3cba8d5e	0.022772487
199	0x3c1a1189	0.009403595
200	0x3c91d6b0	0.017802566
201	0xbc36921e	-0.0111432355
202	0xbc6a7aff	-0.014311551
203	0x3ca4294d	0.020039225
204	0x3c27108d	0.010196817
205	0xbca35a4d	-0.01994052
206	0x3c3bdfe2	0.011466952
207	0xbd1f3fb9	-0.03887913
208	0x3c4db570	0.012555465
209	0x3b649b86	0.0034882738
210	0xba8ca4d8	-0.001073028
211	0x3bb00303	0.005371453
212	0x3c188675	0.009309401
213	0xbd0243e1	-0.031803016
214	0xbd6c2cbc	-0.05765985
215	0xbd187312	-0.037219115
216	0xbc8ae51d	-0.016954953
217	0x3af464fc	0.0018645818
218	0xbd5d4f84	-0.05403091
219	0x3c46c6fd	0.012132403
220	0x3cb5b3da	0.022180486
221	0x3ba39aa2	0.004992799
222	0xbd13a4bf	-0.036045786
223	0xbd4dd0c1	-0.05024791
224	0x3c9848ba	0.018589366
225	0x3c8290b5	0.015938142
226	0xbd3bdc3e	-0.045864336
227	0x3b8add9c	0.0042378437
228	0xbd0718d0	-0.032982647
229	0xbd1ced73	-0.038312387
230	0x3cc584a1	0.024111094
231	0xbc7e8092	-0.015533583
232	0xbcb02370	-0.021501273
233	0xbbdacd51	-0.0066773077
234	0x3c17edfc	0.0092730485
235	0x3ce88301	0.02838278
236	0x3cb39436	0.021921258
237	0x3c8787d5	0.016544262
238	0xbd55db51	-0.05221111
239	0xbcac924e	-0.021065857
240	0xbbeba477	-0.0071912366
241	0xbbe7bf24	-0.0070723463
242	0xbc074451	-0.008256034
243	0xbcfc483a	-0.030796159
244	0x3cc12f7f	0.023582218
245	0x3cc77ab7	0.024350507
246	0x3c2a2b0d	0.010386241
247	0x3c98ad8c	0.018637441
248	0xbd13cd3b	-0.036084395
249	0xbd555d44	-0.0520909
250	0xbd1bec27	-0.03806701
251	0xbd14adff	-0.036298748
252	0x3c49f941	0.012327493
253	0xbd0771a0	-0.033067346
254	0x3b4488f2	0.0029988852
255	0xba6645af	-0.00087841874

network_body.linear_encoder.seq_layers.4.weight f4 [256, 256]
0	0xbda6f526	-0.08152227
1	0xbca43dc5	-0.020048985
2	0xbdd22856	-0.102616
3	0xbd4f7214	-0.050645903
4	0xbd52b80d	-0.051445056
5	0x3c3537e8	0.011060692
6	0xbd222615	-0.0395871
7	0x3d90cc71	0.07070244
8	0x3d4b7bd9	0.049678657
9	0x3ba159ae	0.0049240207
10	0xbcf38a21	-0.029728951
11	0x3cdfd859	0.027324842
12	0x3d561b39	0.052272055
13	0x3d55a642	0.05216051
14	0x3da4a949	0.08040101
15	0x3d8a8a53	0.067646645
16	0xbe137b2e	-0.14402458
17	0xbdb402d4	-0.08789602
18	0xba09f702	-0.0005262942
19	0x3c98530c	0.018594287
20	0xbd933200	-0.07187271
21	0xbce7ddc0	-0.02830398
22	0x3e242c50	0.16032529
23	0x3da109d4	0.07863203
24	0x3d28f6a7	0.04125085
25	0x3d076d65	0.03306331
26	0xbda075f9	-0.078350015
27	0xbdad5981	-0.08464337
28	0xbbd5f43b	-0.0065293587
29	0x3cc5bf05	0.024138937
30	0xbcf5a30e	-0.029984977
31	0x3d062205	0.032747287
32	0xbd4ee82f	-0.050514396
33	0x3c487259	0.012234294
34	0x3d10c0e5	0.03534021
35	0xbd9f0871	-0.07765282
36	0xbd889be4	-0.06670359
37	0xbd2297a4	-0.039695397
38	0x3d5b9cd0	0.053616345
39	0xbe0dc19b	-0.13843386
40	0x3d898f3b	0.06716772
41	0x3c084094	0.008316178
42	0xbc6d115b	-0.01446947
43	0x3e088184	0.13330656
44	0xbc259610	-0.0101065785
45	0x3c6b94ec	0.014378767
46	0x3e0cd83f	0.13754366
47	0x3d5e44f9	0.054264996
48	0xbd9524d0	-0.07282412
49	0x3daae3af	0.083442084
50	0x3b928b3a	0.0044721635
51	0x3e1002f0	0.1406362
52	0xbd564286	-0.052309535
53	0xbcda3479	-0.026636349
54	0x3a851f36	0.0010156396
55	0xbcc0c8d5	-0.023533264
56	0x3d754225	0.059877533
57	0x3d0f006b	0.034912508
58	0x3d9f4ae8	0.07777959
59	0x3d5db1e1	0.054124717
60	0x3d9b5da2	0.075862184
61	0xbd9dff46	-0.07714705
62	0xbdca626a	-0.09882052
63	0x385f63ca	5.326028e-05
64	0xbc2079bc	-0.009794649
65	0xbd88acd3	-0.066735886
66	0xbcdce927	-0.026966644
67	0xbd213f20	-0.03936684
68	0x3d3e8adc	0.046519145
69	0x3da505eb	0.080577694
70	0x3d0e5ba8	0.03475538
71	0xbd18c834	-0.037300304
72	0xbca4e35c	-0.020127945
73	0xbd2e4c8e	-0.042553477
74	0x3dcd5c49	0.100273676
75	0xbd162f5d	-0.036666263
76	0x3c76c911	0.015062586
77	0xbe021dec	-0.12706727
78	0xbba2803f	-0.004959136
79	0xbbf52ed8	-0.007482391
80	0xbd415100	-0.04719639
81	0x3d72fc6b	0.059322756
82	0xbe297c0e	-0.1655123
83	0x3d857904	0.065172225
84	0x3b4c67fa	0.0031189905
85	0x3d65d4be	0.05611109
86	0xbd302117	-0.043000307
87	0xbc5690d4	-0.013096053
88	0x3d0cc96e	0.034371786
89	0x3cc54348	0.024079934
90	0xbdb716fb	-0.0893993
91	0xbd237aca	-0.039912023
92	0x3a496e14	0.00076839444
93	0x3c6f6f26	0.014613902
94	0xbe1f6ff7	-0.15570055
95	0xbd5ebc77	-0.054378953
96	0xbc1b96a2	-0.009496363
97	0x3d024eb1	0.031813327
98	0xbe0dc732	-0.13845518
99	0x3cb1fc72	0.02172682
100	0x3da7c3ef	0.08191668
101	0x3d810196	0.062991306
102	0xbd1096cd	-0.035300065
103	0xbdabfa99	-0.08397407
104	0x3d4d75d4	0.050161198
105	0xbdac76c8	-0.08421093
106	0x3c66c23b	0.014084394
107	0x3c199ab3	0.009375262
108	0xbd834d7b	-0.064112626
109	0xbe0417e4	-0.12899739
110	0x3d555a51	0.052088086
111	0x3d9df2a5	0.077122964
112	0x3ce846c9	0.028354065
113	0x3d8b086a	0.06788714
114	0xbc0813ab	-0.00830547
115	0xbde20bb2	-0.11037387
116	0xbb058b1a	-0.00203771
117	0x3cbeee3c	0.023306958
118	0x3c3b7750	0.011442021
119	0xbddc9b1d	-0.10771773
120	0xbb00b319	-0.0019638
121	0x3b3dc3a5	0.0028955725
122	0xbd9ce51d	-0.076608874
123	0x3d15b97d	0.03655385
124	0x3dda3568	0.10654718
125	0xbc0caafe	-0.00858569
126	0x3deeb69d	0.116559245
127	0xbb9407b7	-0.0045175212
128	0x3cd7d2ca	0.02634563
129	0x3df0c285	0.11755852
130	0x3d5b5bd4	0.05355437
131	0xbd738670	-0.05945438
132	0xbd6a01ee	-0.057130747
133	0xbdf7bbba	-0.12096353
134	0xbd4f6aa5	-0.050638814
135	0xbd11b5e2	-0.035573848
136	0x3d8c853f	0.06861352
137	0xbd9a033d	-0.07520149
138	0x3c25d417	0.010121367
139	0x3d113367	0.03544941
140	0x3d63b373	0.055591058
141	0xbce79d2c	-0.028273188
142	0x3d6bd643	0.057577383
143	0xbcb21140	-0.021736741
144	0xbac15edb	-0.0014753
145	0x3cc84121	0.024445118
146	0xbc8b38d0	-0.016994864
147	0x3d481743	0.04885031
148	0x3da50fcc	0.08059654
149	0xbd27d40e	-0.040973715
150	0xbbb94be3	-0.0056547984
151	0xba48d216	-0.00076607
152	0x3ddf1cd9	0.10894174
153	0xbcc067d2	-0.023487005
154	0xbd6539e8	-0.055963427
155	0x3d04cd88	0.032422572
156	0x3cddd540	0.027079225
157	0x3d54b14e	0.051926903
158	0x3d0a508a	0.033768214
159	0x3d237f33	0.03991623
160	0xbccea170	-0.025223464
161	0xbdd8fbd4	-0.105949074
162	0xbd9a426e	-0.07532202
163	0xbdca312a	-0.098726586
164	0xbdd62157	-0.10455578
165	0xbd9b494e	-0.07582341
166	0xbd84e8d4	-0.06489721
167	0x3d92f97f	0.07176494
168	0x3a913c43	0.0011080581
169	0x3d9a64c2	0.07538749
170	0x3d874729	0.066053696
171	0xbd97f874	-0.074204355
172	0x3c83dcb9	0.01609646
173	0x3a106e25	0.0005509577
174	0xbc4881b6	-0.012237957
175	0xbc1ad41f	-0.009449988
176	0xbd1f7a34	-0.0389349
177	0xbd90c8ae	-0.070695266
178	0x3cfd57f5	0.03092573
179	0x3d4292c9	0.047503266
180	0x3d0c428b	0.034243148
181	0x3c23d8fa	0.010000462
182	0x3dc6d560	0.09708667
183	0x3dafc21d	0.08581946
184	0xbc3692fd	-0.011143443
185	0x3d206b75	0.03916498
186	0x3c94cc64	0.018163867
187	0xbdf113a2	-0.11771323
188	0xbdb38624	-0.0876582
189	0x3cb1a00b	0.02168276
190	0x3d2146f0	0.039374292
191	0x3d0ee5f1	0.034887258
192	0xbda35ed4	-0.079770714
193	0x3c4f7d8a	0.012664208
194	0x3de30647	0.11085182
195	0xbd32c0a1	-0.043640736
196	0x3d49f062	0.049301513
197	0x3b2121ac	0.002458672
198	0xbc931288	-0.017953172
199	0x3d9a9fba	0.07549997
200	0xbda7665a	-0.08173819
201	0x3c5cbe14	0.0134730525
202	0x3cba8cc3	0.022772199
203	0x3bec2ee9	0.0072077406
204	0xbce4854f	-0.027895598
205	0xbd5a584a	-0.053306855
206	0xbde52cd7	-0.11190193
207	0x3d7624ba	0.06009362
208	0xbdc93a3a	-0.09825559
209	0xbbd8dba5	-0.0066179805
210	0x3de3640d	0.111030675
211	0x3b99f582	0.0046984563
212	0x3ce79501	0.028269293
213	0xbe05dba3	-0.13072066
214	0xbd36e89d	-0.04465543
215	0xbc091320	-0.008366376
216	0xbc9d9f35	-0.019240955
217	0x3d70e9e2	0.058816798
218	0xbd0e1106	-0.034684204
219	0x3d69842d	0.05701082
220	0xbbfb652b	-0.0076719723
221	0x3d72eae1	0.05930603
222	0xbb8e6760	-0.0043458194
223	0x3cd402e6	0.025880288
224	0xbcbe2671	-0.02321169
225	0xbd6c4fb5	-0.057693202
226	0xbdab1691	-0.083539136
227	0xbda4bddc	-0.08044025
228	0x3cbc7a95	0.02300767
229	0xbd3e1775	-0.04640909
230	0xbd59815c	-0.053101882
231	0xbe30e733	-0.17275696
232	0x3db2023c	0.086918324
233	0xbd646137	-0.055756774
234	0x3c52e02a	0.012870828
235	0xbd8c4402	-0.06848909
236	0xba0e8b34	-0.0005437613
237	0xbd40c0b5	-0.04705878
238	0x3d1b016a	0.037843145
239	0xbd3b9713	-0.045798372
240	0x39fdc319	0.0004840128
241	0xbd411d45	-0.047147054
242	0x3cd87639	0.02642356
243	0x3cdbf51e	0.02685028
244	0xbc3340bc	-0.010940727
245	0xbc968008	-0.018371597
246	0x3d85f108	0.06540114
247	0x3cb7e2b3	0.022446966
248	0x3d33c321	0.04388726
249	0xbda97f63	-0.0827625
250	0xbd4e39f7	-0.05034825
251	0xbdc8a841	-0.09797717
252	0xbd1d4728	-0.038397938
253	0xbd1364cb	-0.035984796
254	0xbbeffeef	-0.0073240916
255	0x3c846f76	0.01616643
