RobotTraining_PathPlanning/Assets/NNModels/RobotUR10_rbpp_13.onnx (onnx, 555573 bytes, 9 tensors)

action_model._continuous_distribution.log_sigma f4 [1, 5]
00000000: 6665 c8bf bf39 b5bf f02e 28bf d193 90bf
00000010: 4b41 dcbf
-1.5655944 -1.4158248 -0.6569662 -1.129511 -1.7207426

action_model._continuous_distribution.mu.bias f4 [5]
00000000: b06c aebc c555 2abc e280 4dbd 82e2 06bc
00000010: f2f4 333d
-0.02129206 -0.010396426 -0.05017174 -0.008232715 0.04393477

action_model._continuous_distribution.mu.weight f4 [5, 256]
00000000: 3132 433a a262 84ba 9fc6 db3c 479d 76bb
00000010: aad7 223b 27cd b9bc 63d5 123d fe37 463d
00000020: b15d d3bc 0b0d 1b3c 7355 0ebb 6b64 083c
00000030: d2fe ae3b 4bfe fcbb 8af5 e8b9 1dd5 9cbc
00000040: 1ba6 d23c f57b eebc facc 1e3c 1b18 bb3c
00000050: 898f 0d3d 4ab3 f93b 39b5 143c a2fa e1bc
00000060: 4abb 7e3c 9928 cd3c 06a3 0c3b 667a 153b
00000070: d6dc 913d fb5a 4cbc 1419 1dbb e5a9 3ebd
00000080: de69 48bc f72f 233d 52b3 e3bc 920f 5ebd
00000090: 3c45 82bd 6597 88bd 306f 67ba 2a2a f93c
000000a0: 1567 6ebc 27ea 1a3c 76ea 09bd 4b42 de3a
000000b0: 6583 9bbd be2d 613c 9148 633c 816a 3a3c
000000c0: 2e11 90bc d8ba 703c 2003 51bc 0a30 0f3b
000000d0: 383f ce3b 3333 6dbc 0a62 06bb 28f9 e23b
000000e0: 93d9 cd3c c2e4 643c 3e3a 84bb f98f 9fba
000000f0: 66fc a2bc f9fe 9c3c e303 973c b9cc 33bd
00000100: d4a1 a839 1412 cbbc a0f9 193b 6e03 8c3a
00000110: a6e2 7238 5715 5dbb 923a d1bb c0ca 78bd
00000120: a682 5f3d 54b9 33bb 92f5 cbbb be99 bb3c
00000130: 6741 5b3b cd7d 963b 22bc 6cbc 0e18 153c
00000140: c9bf 1fbc 42a4 333c 3ec4 a73b d03a b4bb
00000150: a7fa 6e3d 7fd0 98bc 51bf de3c b221 21bd
00000160: cf86 1dbd 2ef9 0bbc 3e63 3e3d 3625 c3bb
00000170: 5e39 9a3d 8ee2 afba b21c 823c 7c87 87bb
00000180: 7c32 06bc b82f b73b d00b 593d fb01 0a3c
00000190: 8320 783b 690e a6bc 22ce fc3c 0491 3b3c
000001a0: 174c 40bb 8706 303d 6cc8 a73c 0b99 0b3c
000001b0: df40 d6bb 14e6 313c b7ef 263c 89ec 133b
000001c0: 0e6e bd3b a514 80bc b298 5bbb 5db3 b33c
000001d0: a144 05ba d70d 043c 22e3 8fbc 2585 903c
000001e0: 5ddc c73b 77e5 bb3c 3abe acbb d81e d83b
000001f0: a0b6 42bc 45d1 d5bc 818b e2bc e4cb 013c
00000200: 58dd 98bc 9548 413c 580a 18b9 9573 6f3c
00000210: ca6a b73c eaca 50ba 09c0 283c 5ee4 dbbb
00000220: 852b 94bc f3c9 bb3b ca88 1bbd 182d e7bc
00000230: e8b8 c53c 4f20 65bb 28bc 783c 48e6 9c3b
00000240: 93ce 1b3b 0b42 2fbc 1c02 a4bc 8958 70bb
00000250: 0f50 0dbd 73b5 fabc b0ea 663c 800c 24bd
00000260: 5995 883c 4064 5abc e69c ccba 9c4f 2bbc
00000270: ea8f 05ba 6c1a 443c e5c5 b83c df6d 15bc
00000280: 486a 11bd aa02 ccbb f0e1 97bc 92c4 943b
00000290: 4fcc afbc 00ca 73bc c4e4 de3c 3f87 83bd
000002a0: 3c2f 00bc 3333 85bc dcbd 8ebc 810f 8a3c
000002b0: 61c2 df3c 7367 2a3a 986e cb3c 302a 233d
000002c0: 3019 33bd 04cd d03c d1fe 54bb e522 50bc
000002d0: 5ef5 24bd 609f 81bc 7912 09bc 0c48 7cbb
000002e0: 634b 973c ad1d 483b b545 163c 2cbc a93c
000002f0: 2c06 d0b9 8524 01bd 2443 e73c 9131 693b
00000300: 410c 7ebc 541f d1bc 1d66 06bb 6751 863d
00000310: ed94 30bb 1959 663c 1c06 a5bc d002 443d
00000320: fb58 f0bc e42d abbc 88a7 acbd a6bb 353d
00000330: bf3f 89bd 2ce1 923b 215d 2cbc 3c77 643c
00000340: 645e 00ba 3114 7d3c bcbe 993c ed4c d2ba
00000350: 4acd cf3b ed75 5a3c 970e 59bc 2a31 69bc
00000360: 4c52 f43b 3205 de3b 8b23 b3bc 91b3 0abc
00000370: 8f16 3bbb e729 02bd f4f8 8dbb b7b6 053d
00000380: e9aa 2c3b 4cba c83b 2687 863c 90d6 64bb
00000390: 0eec e7bc b544 e33b 5a1f 1e3c 1eba 49bc
000003a0: e58b 003c f2a6 a9bd fd2d 09bc 3d81 11bd
000003b0: fe5b 663c fdf4 f03c 3c2e a9bc e7a0 42bd
000003c0: b08f 273c dc54 1d3d d4c1 3dbb 220d 34bc
000003d0: ebac 20b9 6757 f33a b63d b9bb 9b38 553c
000003e0: 2564 8e3c f0d8 7b3c 0de8 c53b 4e5c 023d
000003f0: b51d 7c3c 5020 623c bc96 e6bd 06dd 40bd
0.0007446139 -0.0010100196 0.026828108 -0.0037630366 0.0024847784 -0.022680832 0.035848033 0.048393242
-0.025801511 0.009463559 -0.0021718412 0.008324723 0.0053404355 -0.007720744 -0.0004443343 -0.01914459
0.02571397 -0.029111842 0.009692425 0.022838643 0.034560714 0.00762025 0.00907641 -0.027585331
0.015547583 0.025043773 0.0021459474 0.002280855 0.07122199 -0.012472863 -0.0023971247 -0.046548743
-0.012232272 0.039840665 -0.027795468 -0.054214068 -0.06360862 -0.06669501 -0.0008828519 0.030415613
-0.014550944 0.00945524 -0.033670865 0.0016957013 -0.07593421 0.013743816 0.013872282 0.011377932
-0.017586317 0.0146929845 -0.012757093 0.0021848702 0.0062941574 -0.014477539 -0.0020505213 0.0069266744
0.025128162 0.013970556 -0.0040352633 -0.0012173644 -0.019895744 0.01916455 0.01843447 -0.04389641
0.00032164028 -0.024788894 0.0023494735 0.0010682174 5.790838e-05 -0.0033734643 -0.006385156 -0.060740232
0.054567955 -0.0027423697 -0.0062243426 0.022900458 0.003345573 0.0045926333 -0.014449151 0.009099973
-0.009750315 0.010964455 0.0051198294 -0.005500175 0.05834451 -0.018654106 0.027190836 -0.039338775
-0.03845864 -0.008543296 0.046481363 -0.0059553636 0.07530473 -0.0013418959 0.015882824 -0.004136024
-0.008190747 0.0055904053 0.05298978 0.008423324 0.0037861175 -0.020270543 0.03086001 0.011448149
-0.0029342228 0.042974975 0.02048131 0.008520375 -0.006538495 0.010858078 0.010188988 0.0022571406
0.005780942 -0.015634844 -0.0033507762 0.021936113 -0.0005083774 0.00805994 -0.01756436 0.017641613
0.0060992674 0.022936566 -0.0052717 0.0065954737 -0.0118843615 -0.026100764 -0.027654411 0.0079221465
-0.018660232 0.01179709 -0.00014499703 0.014614959 0.022389788 -0.0007964807 0.010299691 -0.006710573
-0.018087158 0.0057308613 -0.03797225 -0.028219745 0.024136022 -0.0034961884 0.015181579 0.004788194
0.002377425 -0.010696898 -0.020020537 -0.0036673865 -0.034500178 -0.0306041 0.01409404 -0.040050983
0.016672777 -0.0133295655 -0.0015610724 -0.010455992 -0.0005094992 0.01196919 0.022555301 -0.009120434
-0.03550175 -0.0062259035 -0.018540353 0.0045400346 -0.021459727 -0.0148797035 0.027208693 -0.064222805
-0.007823762 -0.016259765 -0.017424516 0.016853096 0.027314367 0.00065004005 0.024833009 0.039835155
-0.043725193 0.025488384 -0.0032500515 -0.012703632 -0.040273063 -0.015823066 -0.008366221 -0.0038495092
0.018468564 0.0030535266 0.009171893 0.02071961 -0.0003967745 -0.03152897 0.028230257 0.0035582522
-0.015505851 -0.025527634 -0.0020507642 0.06558495 -0.0026944235 0.0140593285 -0.020144515 0.047854245
-0.029339304 -0.020895906 -0.084303916 0.04436841 -0.06701612 0.004482409 -0.010520251 0.013944443
-0.0004896878 0.015446709 0.018767707 -0.0016044654 0.006341611 0.01333378 -0.013248107 -0.014232913
0.0074560996 0.0067755217 -0.021867534 -0.0084656635 -0.0028547382 -0.031778242 -0.004332656 0.032644954
0.0026346988 0.006125724 0.016421866 -0.0034917928 -0.028310802 0.0069356808 0.0096510295 -0.01231244
0.007845853 -0.082837954 -0.008372781 -0.03552364 0.014060019 0.029413695 -0.02065193 -0.04751673
0.010227129 0.038411006 -0.0028954642 -0.010989459 -0.00015323206 0.0018565477 -0.0056531085 0.013013984
0.017381737 0.015371546 0.0060396255 0.03182631 0.015387942 0.013801649 -0.11259219 -0.047085784

network_body.linear_encoder.seq_layers.0.bias f4 [256]
00000000: e8e8 6b3c a831 6abc f11c 923b b26f 00bd
00000010: 705a 2ebc f4dc 17bd 89e7 a5bc d2a8 04b8
00000020: 1f00 8b3d 66a3 6a3d 7717 bdbc d351 993c
00000030: 5d44 f5bc 27c9 7d39 c842 22bd 929c 9e3c
00000040: 8a12 afbc 236b 65bd 5332 99bc 17f2 4d3d
00000050: af93 3b3c d375 c93c e32a d4bc f64f fc3c
00000060: e6f6 b8bc e4da 90bc b56d d0bc de6c f13c
00000070: afa3 0cbd 90c2 113d 5bca 98bc 4b7f 2d3c
00000080: e36b 2c3d 2c8d 123d 2412 953c 9b0d d13b
00000090: 19e6 b13c 4070 b4bc f067 2a3c 1944 df3c
000000a0: 77b2 01bd f714 39bd 06c1 dfbc d2ef 26bd
000000b0: ca9e 293d 31aa a2bc 4a66 4bbc 4c3a d23b
000000c0: 28f7 a93c 324a 8cbc 34ee 37bc 4b1a 20bd
000000d0: 8532 06bd f1a4 3f3d 5c8f b7bc 6b6a 89bc
000000e0: 6234 9b3c e356 86bc 5f85 1e3d 2a09 743d
000000f0: 3bc2 5e3c f267 bcbc 0702 d73c e06f 62bc
00000100: 2c19 f93c 0ade b3bc 640c 143d 7a0e ed3c
00000110: 9fa9 8b3b ab5d 3e3b 840a 47bc d5fe 05bd
00000120: a9e3 8b3d 0aec 0bbd 9cc4 3ebc f236 183d
00000130: 0880 5bbd 778b e83c 79f2 aa3c 1c20 443d
00000140: 065a 4c3c bf64 a4bc 6024 b2bb b0b7 bd3d
00000150: 7e08 d8bc bc6c 073d e358 3d3a 8b55 ba3c
00000160: b17a ea3b 670c ecbc 11de 73bc b131 a93c
00000170: e46f 3b3d b9f4 3ebd 8f50 853c 9834 5bbc
00000180: 5e17 80ba 0fb1 4dbc c3c6 0b3d d56b e13b
00000190: ebfe 8b3d 2ac8 2cbd 20d1 9bbc df4d 373d
000001a0: 5493 ee3c b390 45bd e95d 823c 66f6 e23a
000001b0: 983d a2bc b694 e8bc de6f 303c 4238 693d
000001c0: 4e18 49bc c418 f53c d5ff 62bc cae4 a83d
000001d0: 668c a8bc 7ff6 8bbc e8da 2ebb 3df7 cebc
000001e0: 9507 1bbb 7beb 9ebc ff7b 56bd f44f 033d
000001f0: dc62 0d3d 42d1 333d 6bc1 cabc 7310 2abd
00000200: e4d3 0f3d 4ec5 c6bc d065 053a 83dd 683c
00000210: bd8f d3bc 0773 053d 9ea9 12bc 8b18 03bd
00000220: 6e7f cbbc d953 7abc b2bd 2f3d c7cd 46bc
00000230: c83c b3bb 0506 a43d 12f8 d5bc b576 9e3b
00000240: 0392 5ebb 8967 bd3c b6e5 9d3d 4cc4 13bd
00000250: 677c eeba c003 d4bc 53ca c8bc 9f9e 79bc
00000260: ea42 30bd 2292 ac3c c0d7 3d3c 4c14 0ebd
00000270: 9334 81bb 1878 1f3d fc03 9b3d 4b3f 063d
00000280: 3182 4e3c 43f6 c83c 0608 3f3d 5b98 bdbc
00000290: a2c7 083d 890a 66bc 51a9 8bbc 0745 07bd
000002a0: 1482 673d 0ca9 c83c 03da 373c 542a 063d
000002b0: 7358 42bd 8d35 1a3d 3dc0 f6bc 0f24 11bd
000002c0: 6997 02bd 71fa f63c b540 c53a 9e5b 9a3c
000002d0: 6382 383a 0c94 7f3b 3106 c43c 769a bf3b
000002e0: cfca 6e3c 915e 063d 5480 d6bc d673 78bc
000002f0: 3de9 143d 1b0b a83b c44e d5bc 609d a23c
00000300: 31e2 b6bc 1322 7a3b 9c19 74bc 239a 9ebc
00000310: 9e35 093c e27c 6dbc c251 093b 83a3 00bc
00000320: c738 143c d5f8 1ebd 9b59 503d ac13 85bc
00000330: 60e2 843c e6fb 953c 9ac4 ffbc c0c9 bf3d
00000340: 0a5e e8bc 4a46 d1bb 6613 06bd f1d0 193c
00000350: 2c13 f4bc 4968 843d 2e86 593a 9615 883c
00000360: a6cb 0f3c 829c 9bbc 9645 6abc 0abc e93d
00000370: 8da5 89bb 6ace 813d 79db 7f3d 43ef 49bc
00000380: bd4b 173d 6860 02bd 2112 603d 5ce1 533c
00000390: eddf 463d ffd4 253d 3ad9 cebc 8788 563d
000003a0: 130d a23c 70ff 3bbd 86b4 1a3d 2436 1e3d
000003b0: 7e7e 353c b8cf 10bc 6e4a ffbc 7edb 6b3d
000003c0: fc0d 4cbd 27b9 c23c f757 cbbc cd94 81bc
000003d0: 9cbd d13c 0a5a 53ba 96f4 7f3d 9e61 fcbb
000003e0: 25b2 f8bc 7c83 503d 3cbf 89bc 7c10 59bc
000003f0: 5c1b a33a 00d4 97bb 3e71 403c 2ca6 c33c
0.014398791 -0.014294066 0.0044590165 -0.03135652 -0.010641679 -0.03707595 -0.020252006 -3.162848e-05
0.067871325 0.057284735 -0.023082478 0.018715775 -0.029939825 0.00024202895 -0.03961447 0.019361768
-0.021371145 -0.056010377 -0.018700754 0.050279703 0.011448785 0.024592316 -0.025899356 0.030799847
-0.022578668 -0.0176825 -0.025442937 0.029470857 -0.03433579 0.03558594 -0.018651178 0.010589431
0.042095076 0.035779163 0.018197127 0.0063797957 0.021716164 -0.022026181 0.010400757 0.027254151
-0.031664338 -0.04518601 -0.02731372 -0.040756054 0.0414112 -0.019856544 -0.012414524 0.006415641
0.020747736 -0.017125223 -0.011226226 -0.039087575 -0.032763023 0.04678816 -0.022407226 -0.016774377
0.018945877 -0.016398853 0.03870141 0.059579052 0.013596113 -0.022998784 0.026246084 -0.013820618
0.03040751 -0.021956462 0.03614463 0.028937567 0.004262164 0.002904753 -0.012148503 -0.03271373
0.06830532 -0.03416065 -0.011643555 0.037161775 -0.053588897 0.028386815 0.020867573 0.047882184
0.012472635 -0.02006757 -0.005436465 0.09263551 -0.026371237 0.03306268 0.0007223023 0.022745868
0.0071557392 -0.028814508 -0.014884488 0.020653578 0.045761004 -0.046620104 0.016273765 -0.013379239
-0.0009772589 -0.012554421 0.0341251 0.0068793097 0.06835731 -0.04218308 -0.019020617 0.044751998
0.029122986 -0.0482337 0.01591392 0.0017315864 -0.01980476 -0.028391223 0.010768859 0.056938417
-0.012273861 0.029919036 -0.01385494 0.08246763 -0.02057476 -0.017085312 -0.0026680771 -0.025264377
-0.0023655642 -0.019399395 -0.052364346 0.03205867 0.034518108 0.043900736 -0.024750432 -0.041519593
0.035114184 -0.024264004 0.00050887186 0.014212969 -0.025825376 0.0325804 -0.008951573 -0.032005828
-0.024841037 -0.01527878 0.042905517 -0.012134022 -0.005469892 0.08008961 -0.026119266 0.0048359283
-0.0033961541 0.023120658 0.077098295 -0.036075875 -0.0018195034 -0.025880694 -0.024510538 -0.015235572
-0.043032564 0.021065775 0.011587083 -0.034687325 -0.003943035 0.03893289 0.07569119 0.032775205
0.012604282 0.02453149 0.04663851 -0.023143938 0.03339351 -0.014040598 -0.01704851 -0.033024814
0.056520537 0.02449467 0.011221412 0.03275521 -0.047447633 0.037648726 -0.030120963 -0.03543478
-0.031882677 0.030148717 0.0015049191 0.018842515 0.0007038472 0.0038998155 0.023928734 0.0058472706
0.0145747205 0.03280503 -0.026184238 -0.015164336 0.036355246 0.005128277 -0.026038535 0.019850433
-0.022324653 0.0038167282 -0.014898684 -0.019360607 0.0083746 -0.014495106 0.0020953272 -0.007851484
0.00904674 -0.038811523 0.050866704 -0.016244732 0.016221225 0.018308591 -0.031221677 0.09364653
-0.028365154 -0.006386553 -0.032733344 0.009388194 -0.029794298 0.06465203 0.00082978874 0.016611855
0.008776581 -0.018995527 -0.014298817 0.11412819 -0.0042006434 0.063381985 0.062465165 -0.012325111
0.036937464 -0.03183022 0.05470479 0.012932148 0.048553396 0.040486332 -0.025250066 0.052376296
0.019781625 -0.0458979 0.037769817 0.03862585 0.011077521 -0.0088385865 -0.03116342 0.05758237
-0.049818024 0.023769928 -0.024822218 -0.015818024 0.025603108 -0.0008062428 0.062489115 -0.0077020666
-0.030358383 0.050906643 -0.01681482 -0.013248559 0.0012444067 -0.0046334267 0.011745749 0.023882948

network_body.linear_encoder.seq_layers.0.weight f4 [256, 20]
00000000: ba53 ac3e 10ee d7be ac5e b3bd d1d1 20be
00000010: 9e97 8d3e d6c0 18be 84f7 d7be 2476 1e3f
00000020: bda5 14be 085f 7abe b682 9f3d fcf0 ecbd
00000030: f30f 7dbe a434 1e3e ca92 d83d ff7e 81be
00000040: 27fd 03be db32 e53d f049 a7be e208 08bf
00000050: c246 dcbd 0d08 00be b0cc a8be d951 87bd
00000060: 2eba 8cbe 8db9 c2be e80c 36be 8e7d d33b
00000070: 2f4e 2dbd 1be2 583e 2cbd b23e 0c59 40be
00000080: e014 4cbd 55e9 143d 08ae 9dbc aee0 fd3c
00000090: 3b0f 49be 6c8a 1c3e 610e 81bd 9328 d13c
000000a0: 79ac 02bd 1b19 4d3e 955d 91bd b39c 133e
000000b0: 663d b2be 2620 923d c83b 42bd 93e5 5fbe
000000c0: 219a a2be 977b d1bd 47e1 42be 7ff6 9f3e
000000d0: 1eca 4dbc 9438 b0be 0645 c93d 1371 973d
000000e0: 8538 883e b6e9 463d 1bcf 133f 803e 733e
000000f0: 5d49 043e 47bd 39be 4bc4 52be 67ef a5be
00000100: c9d4 b1be 7efb a5be b151 c2bd 982a 0b3d
00000110: e8c6 c33e 9e9a a8be e685 4c3e 0c22 e73d
00000120: 705e bc3e f10c 3bbd 3f0d 7bbe 7c08 34be
00000130: c0c3 26bd ef83 1e3e 2bc6 2f3e f39f e6be
00000140: 45a4 15be a721 f2bc 2e5c 9cbe 04a3 f1bd
00000150: 9a26 2abe d215 b4be 59d4 823d e34f 123e
00000160: edc3 b73e 599e 133b b042 6cbd 33d2 f2be
00000170: 6e92 2e3e 3d2d a7be 8ee0 70bb 22e8 a13e
00000180: a83e 3d3d 1d01 ebbe 3310 8dbe c94f 00bf
00000190: b625 6d3d c91c aabe 3300 a8be 122c d53e
000001a0: 2f13 81be 2945 5a3d 0771 f1bc 2b5d a7be
000001b0: 92ed 53bd 865d 8bbd cff3 00bb 6060 87be
000001c0: 16ef 8f3e 5230 e6bd 3e51 14bd d1da 0f3e
000001d0: 4f22 393e da05 5ebe 3b8e d5be fe81 bf3d
000001e0: e47a f3be b3b0 0abe 68cf 8fbd 8464 6bbc
000001f0: e573 643e 8c73 6c3e 36bb d73e 5292 9f3d
00000200: 7259 b43e bb2d d6be 92d2 87be 3258 f7be
00000210: e5bc 903e 7933 a2be 62ea d5be 5773 2cbe
00000220: d762 ab3d 4e6c 9fbd 536e 953d f8a3 8abd
00000230: dbdf 90be 8f35 74be 2165 59be 819e 303e
00000240: 5fae 323d 216e a13d 12ab ffbe d9d0 50be
00000250: 1e4e a03d d43d 18bd d6d1 2f3e 8a8c b4be
00000260: 394c e13e 3ae0 ccbc 221d 62be c254 b5bd
00000270: 0c74 bfbe 010f 9f3d 2b3d 61bd d640 3dbe
00000280: 62f6 c1be bed9 8bbe b7de 87bc f1f2 1c3e
00000290: 106c 813e 78a8 483d 9dfb a13d 99c2 ac3e
000002a0: 8a82 cfbc 6fa0 15bd 68ba 243e d79d 23bd
000002b0: 533b aabd 7c28 70bd 8929 393d b706 393e
000002c0: 08b8 6abd 4c3a 2e3e 07a9 e2be 0ef9 26be
000002d0: 49d0 34be 89d0 d23d f924 f3be 355e 15be
000002e0: ae6d 943d 0410 9a3e 4480 823e 33b2 37be
000002f0: a0ec a7bd 1017 923e 565e 8e3c 093a 71be
00000300: 1f1b d03e 6460 533e 66c5 af3b 05bb 35bc
00000310: ad4b ac3e 0562 c63e b0ff 0cbe c8b0 a53d
00000320: e85b 8dbd a790 8e3e 1a07 733e 5dbf 23bd
00000330: 4aef 40be 5d24 a9be a025 b23d 455b c4be
00000340: 49f4 a63d 3eff e4bd aa06 6dbc 46b1 74be
00000350: b224 e8be d4e2 0ebf 0463 b8be 771e 87be
00000360: 7e6d 06be 6b05 84bd e07f 6abe 8fd9 b73d
00000370: f974 6abe 1fde 24bf cf34 2cbe 352c da3d
00000380: b41f bbbd 056b ccbe 79c0 853d 2946 05be
00000390: eb7d 01be 5e16 b0be 225b f93e 93c3 5b3e
000003a0: 60a7 653e 7559 e33d 38d1 c43d 203c 7cbe
000003b0: f319 2a3e 04f3 c93d 5787 e0bb 3f0d 4fbf
000003c0: 1b3d 38bd c4b7 683e e9da c03e 678f 9ebe
000003d0: c3b4 94bd 1a05 30be 6d16 3abd 828f 203e
000003e0: 27b1 983e d366 b7bd 255e 4c3d 4f3b 28be
000003f0: 1ab1 613d fc8d c9bd 379c c2be 1688 febd
0.33657628 -0.42173815 -0.087582916 -0.15705039 0.27654737 -0.14917311 -0.42181027 0.6189902
-0.14516349 -0.24450314 0.07788603 -0.115694016 -0.24713115 0.15449768 0.10574873 -0.25292203
-0.12889539 0.111913405 -0.32673597 -0.53138554 -0.107556835 -0.12503071 -0.32968664 -0.06607408
-0.27485794 -0.3803219 -0.17778361 0.0064541763 -0.04231089 0.21180002 0.34909952 -0.18783969
-0.049824595 0.036355335 -0.019248024 0.030990925 -0.19634716 0.15287179 -0.06301571 0.025532043
-0.031902764 0.20029108 -0.070979275 0.14415245 -0.34812468 0.07135038 -0.047420293 -0.2186492
-0.31758216 -0.10228651 -0.19031249 0.3124275 -0.0125603955 -0.34418166 0.09827618 0.07394614
0.2660562 0.048562728 0.5773789 0.2375431 0.12918611 -0.1813861 -0.20582692 -0.32409212
-0.34732655 -0.32418436 -0.09488238 0.033976167 0.3823769 -0.32930464 0.19972953 0.11285791
0.367908 -0.04566664 -0.24516772 -0.17581362 -0.040714025 0.15480016 0.17165439 -0.45043907
-0.14613445 -0.029557062 -0.30539078 -0.11798671 -0.16616288 -0.35172898 0.06388158 0.14288287
0.35891667 0.0022524802 -0.057680786 -0.47425994 0.17048046 -0.32651702 -0.0036754939 0.31622416
0.04620233 -0.45899287 -0.27551422 -0.5012174 0.057897292 -0.33225086 -0.32812652 0.41635185
-0.25209948 0.053288613 -0.029472841 -0.3268827 -0.051740237 -0.068049476 -0.0019676571 -0.26440716
0.28112096 -0.11239685 -0.03621029 0.14048316 0.18079494 -0.2168192 -0.41710076 0.09350966
-0.47554696 -0.13543968 -0.070219815 -0.0143672265 0.22309835 0.23090953 0.42135018 0.0779158
0.3522449 -0.41831765 -0.2652784 -0.48309475 0.28269115 -0.31679896 -0.41780382 -0.16840874
0.083684616 -0.07784329 0.07296433 -0.06769556 -0.28295788 -0.23848556 -0.21229984 0.17247964
0.043623324 0.078823335 -0.49935204 -0.20392169 0.078274 -0.03716834 0.1716989 -0.35263473
0.44003466 -0.025009263 -0.22081426 -0.08854057 -0.37393224 0.07766534 -0.054989975 -0.18481764
-0.37883288 -0.27314562 -0.01658569 0.1532705 0.25277758 0.04898879 0.079093195 0.33742216
-0.0253308 -0.036529955 0.16086733 -0.03994545 -0.083120964 -0.05863236 0.045205627 0.18068968
-0.057304412 0.17014426 -0.44269583 -0.16305944 -0.1765758 0.10293681 -0.47489145 -0.14586718
0.07247482 0.30090344 0.25488484 -0.17939071 -0.081994295 0.2853322 0.017378967 -0.23557295
0.40645692 0.20642239 0.005364108 -0.011091952 0.33651486 0.38746658 -0.13769412 0.08090359
-0.06902295 0.27844736 0.23733178 -0.03997742 -0.18841282 -0.33035555 0.08698583 -0.38350883
0.081520624 -0.11181496 -0.014466921 -0.2389575 -0.45340496 -0.5581486 -0.36013043 -0.2639043
-0.13127705 -0.06446346 -0.22900343 0.08977043 -0.22896184 -0.6440143 -0.1681702 0.10652963
-0.09136906 -0.399254 0.06530852 -0.13015045 -0.1264569 -0.34392065 0.4870234 0.21461324
0.2242713 0.11101047 0.09610218 -0.24632311 0.16611461 0.09860805 -0.0068520713 -0.80879587
-0.04498015 0.22726351 0.37667015 -0.30968782 -0.0726104 -0.17189446 -0.045431543 0.15679744
0.29822657 -0.08955159 0.04989447 -0.16428874 0.055100538 -0.098415345 -0.38009807 -0.124283

network_body.linear_encoder.seq_layers.2.bias f4 [256]
00000000: 2cda f63c 8cd2 28bd 8ab4 903c 9801 e7bc
00000010: f9c9 ddbc a2e1 ce3c 634b b3bc d1d7 363d
00000020: 2c26 84bb 91c6 50ba 2e11 f33c 463b 863c
00000030: e1ad 7cbc ee85 02bd 4356 373c 4d19 25bc
00000040: d5c9 db3c 4e27 36bc ced0 993c 0cdb 0bbd
00000050: 1cac 14bd 138a 90bc 7213 6ebc b3cc 043c
00000060: d2a7 893c 8a74 c33c 507b 71bc 4c11 9b3c
00000070: 7b63 e23c 65b3 083d bb81 1d3d fb0f 2f3d
00000080: 294d 173c 9352 8fbc 1fdd 7bbc 7f7e 303d
00000090: d195 cb3c 4f24 00bd 9948 d53c f204 0abd
000000a0: b267 8ebc 0665 973c 889b 86bc e056 3cbb
000000b0: 863e d8bc 8db4 003c 4cb7 69bd 1162 52bd
000000c0: 4af2 723d f078 f5ba a8fc 21bc 605a 8fbc
000000d0: 06e7 c73b ff92 c83c 9458 8dbc b50f a1bc
000000e0: 9146 073d 60e8 893c 08dd d83c 0e49 1bbd
000000f0: a3e9 2abc 1008 abbc 0745 073d a4b9 203d
00000100: 98c0 efbc 6ff4 37bd 0f03 9abc e745 243d
00000110: 04ba 963c 50e8 f23b d5d9 113b f859 083d
00000120: ac22 4bbd 0011 2cbc 17e4 753b 0296 213d
00000130: c397 b9bc 19e8 06bc 1735 953c 3cca d33c
00000140: ea30 47bc 06db bc3c 3b34 213d 1acf 293d
00000150: 54a2 e5bc d426 18bd 3661 133d 0fda 373d
00000160: b810 f83b b170 3a3d 28c8 1dbd 3383 5dbc
00000170: 953e 6f3c 6153 cabc a9b4 6bbc b44e 01bd
00000180: 53d5 2fbb 38a0 82bc 4a1e 11bc 3fb7 c23c
00000190: 436f dbbc a4ce c63c 3e45 2f3c 4d34 1ebb
000001a0: ccae b83c 43af 4bba a616 15bd 7425 d6bc
000001b0: 25c6 03bd c558 153d aad5 c93c ea2f 27bb
000001c0: 98ea 1b3d 65bf 0bbd dcf1 6139 39f1 9c3c
000001d0: 672a c53c cd47 8cbc 6fcb 9b3c 33f1 0b3c
000001e0: ba45 00bc 067c 09bb 8405 11bd c02a 44bd
000001f0: 1caf dabc f6a6 04bd 767f 88bc 6fac ffbc
00000200: aa3d fdbc e138 19bd c792 d3bc 6c65 333d
00000210: bf58 45bc abff 183c f257 8639 a3f8 f23a
00000220: ddca d9bc da6c 7a3d eba4 fdbc 4c48 603c
00000230: 5945 363c be54 b0bc 630c 413c 8e3c 5fbc
00000240: 66ba b13c c0a6 b9bc 6379 a3bc f6ff 1a3d
00000250: 69ae c63b 5478 f6bc 916b 8f3c 7779 033d
00000260: f1ec 133d 1dc7 093d 1f6e 043d a451 bbbc
00000270: c82b b03c 228e 693b 7fd2 083c f414 0bbd
00000280: a8c6 5c3c fdc1 fd3c 259a 8b3a 00be 20bd
00000290: a1fc 663c 7042 6fbc 1ca7 d33c 143c bebc
000002a0: 61b8 04bd 6991 e3bc ca4e 0cbd f40c a8bc
000002b0: 150c 243c fcbf 89bc 9b23 0d3b 7264 1a3d
000002c0: 4c20 e53c b153 213c f2d0 083d e5f6 e93c
000002d0: 9eaf 193d 3b07 3fbd 5509 693c bb54 89bb
000002e0: 0acf babc 97a8 c33b e544 4c3d a833 63bc
000002f0: 45ab 3339 6981 85bc 891c 03bc 552c 66bc
00000300: 6827 c73c d139 353c 8cf9 bebc 28ae 82bc
00000310: 0edc d8bc 595e 213c abdd da3b f4b2 a1bc
00000320: b511 2bbd 6c4f a0bc dfea c13c d4bc 7bbc
00000330: 9668 11bb 5224 53bd d21a 003d 6779 77bc
00000340: 3f4f 1abd 1868 f23b 96e3 1ebd 5d9a 71bc
00000350: 6132 a8bc 6d81 a2bc bc1c fdbc 9b08 1ebd
00000360: 72b1 953c ba8f 16bc 4b76 813c fd9f 6c3c
00000370: 9e56 a03c f454 c33c db04 7cbc f838 0b3b
00000380: 0712 aa3c 8367 463d 0c19 003d e0d8 a13c
00000390: c98a e5ba 18ac 5c3c b3cf febc 3ae1 0a3d
000003a0: ea83 cc3c 1aed aabb cf29 19bc 6214 17bc
000003b0: 5115 d23c 9063 e23c 5870 d7bc 2e8f a9bc
000003c0: 9f22 84bc e133 1c3d 286a c4bb 9914 05bd
000003d0: 1f2a 1dbd 8857 b0bc ae9d 0ebd 5600 263d
000003e0: 3f0c afbc 002c 21bd dc4e 0fbd 0888 3ebb
000003f0: 7299 103d 379a e6bb cbec 4a3d 7cda 02bc
0.03013333 -0.04121642 0.017664213 -0.028199002 -0.027073847 0.025254074 -0.021886533 0.044639412
-0.0040328708 -0.0007964159 0.029671278 0.016385686 -0.015422315 -0.031866007 0.01119 -0.010076833
0.02682964 -0.011117769 0.018776324 -0.034144446 -0.03629695 -0.017643964 -0.014531003 0.008105445
0.016803656 0.023859281 -0.014738873 0.018929146 0.027635327 0.03337421 0.0384538 0.04273985
0.009234705 -0.01749543 -0.015372544 0.043089386 0.024851711 -0.031284627 0.026035594 -0.033696122
-0.01738343 0.018480789 -0.016431585 -0.0028738305 -0.026397001 0.007855547 -0.05705957 -0.051363055
0.059313096 -0.0018728059 -0.009886898 -0.017499149 0.006100538 0.024484156 -0.017254151 -0.01966081
0.03302628 0.016834438 0.026472583 -0.037911467 -0.01043168 -0.020877868 0.033024814 0.03923954
-0.02926664 -0.044910844 -0.018800287 0.040105727 0.018399246 0.0074129477 0.0022255082 0.033288926
-0.049593613 -0.0105021 0.0037519985 0.0394497 -0.022655373 -0.008234047 0.018213792 0.025853269
-0.012157658 0.023053657 0.03935645 0.041457273 -0.028031506 -0.037146404 0.03598138 0.04488569
0.0075703524 0.045517627 -0.038520962 -0.01352005 0.014602323 -0.024697961 -0.014386334 -0.031569198
-0.0026830032 -0.015945539 -0.008857319 0.02376902 -0.026786452 0.024268456 0.010697661 -0.002414006
0.022544287 -0.00077699515 -0.036398552 -0.026140906 -0.032171387 0.03646161 0.024638016 -0.0025510737
0.038065523 -0.034118075 0.00021547772 0.019157993 0.02406807 -0.017124081 0.019017903 0.008541393
-0.007829124 -0.0020978465 -0.03540565 -0.047892332 -0.026694827 -0.03238579 -0.01666234 -0.031210152
-0.030913193 -0.03740776 -0.025826825 0.043797895 -0.0120450845 0.0093383 0.00025623996 0.0018537234
-0.02658599 0.061138965 -0.030962428 0.013689112 0.011124932 -0.021524783 0.011782738 -0.013625277
0.021695327 -0.02266252 -0.019955343 0.03784176 0.006063272 -0.030086674 0.017507346 0.03209826
0.036114637 0.033637155 0.032331582 -0.022866078 0.021505252 0.0035637696 0.008350967 -0.03395553
0.013475098 0.03097629 0.0010650797 -0.039243698 0.014098317 -0.014603242 0.02583652 -0.023222007
-0.0324024 -0.027779298 -0.034254827 -0.020513989 0.010012646 -0.016815178 0.0021536115 0.03769345
0.027969502 0.009846614 0.03340239 0.028560111 0.037520997 -0.046637755 0.014223416 -0.004191009
-0.022803802 0.005971025 0.04987039 -0.013867296 0.00017134573 -0.01629706 -0.008002409 -0.0140486555
0.024310783 0.011061148 -0.023312353 -0.015952185 -0.026472118 0.009849154 0.006679257 -0.019738652
-0.041764934 -0.019569121 0.023671566 -0.015364844 -0.0022187582 -0.05154831 0.031275578 -0.015104628
-0.03767323 0.007397663 -0.03879126 -0.014746276 -0.020531835 -0.019837106 -0.03089749 -0.038582426
0.01827309 -0.0091895405 0.015803477 0.014442441 0.019572552 0.02384422 -0.015382017 0.0021243673
0.02076055 0.04843856 0.031273887 0.019756734 -0.0017512675 0.013468765 -0.031104898 0.0339062
0.024965245 -0.005216253 -0.009348347 -0.009221168 0.02564493 0.027635366 -0.026298687 -0.020698156
-0.01612979 0.038135413 -0.0059941 -0.032490347 -0.038370248 -0.021526113 -0.034818344 0.040527664
-0.021368144 -0.039348602 -0.034987316 -0.002907278 0.035302587 -0.007037427 0.04954223 -0.007986661

network_body.linear_encoder.seq_layers.2.weight f4 [256, 256]
00000000: bc28 e9bd e269 863d ae61 1cbd 11dd 15bc
00000010: 5350 613d 2f2a 3fbd 4cf3 ba3d 6404 093e
00000020: a726 983d 3003 873e b89d c63c f530 db3c
00000030: 8228 91bd ddf3 fcbb c84c d7bd 44de 6dbd
00000040: e6ec 003c 9aee 94bd 935b 7cbc be1e 303d
00000050: e355 ec3d 9662 f53d e6b6 4cbc 335e 513d
00000060: 289e 853c b3a0 10bd ac47 583d 6de0 53bd
00000070: da51 243c bc29 a0bc e10d acbc 67cd 513d
00000080: e9ac a03c 18c1 d83d dd2d cd3d f32a 11bd
00000090: 2f2f cb3c 3028 393c 6cbd 253e 53ed e03b
000000a0: 7ae4 bb3c 0c33 a13d 2c6a 9ebd 2368 ae3c
000000b0: e233 6d3c 5519 fc3d 03a1 00bd 21f5 d1bd
000000c0: 0849 f9bc b44d 733d 50f8 c7bd 2091 98bd
000000d0: a2a5 f43c bc50 7f3d 420a 943d 88b4 96bc
000000e0: 5893 42bc fc82 cabd 9331 163d 1a9b 31bd
000000f0: 6024 ecbc 0690 e0bd cc82 10be 5201 7ebd
00000100: 41a2 513c f1de 1c3d cce7 60bd 8bfc babd
00000110: b82a 403d aad1 063c 4f29 393d 2e2a 22be
00000120: a172 683c 0123 2bbd 4671 a63d ccee 703c
00000130: 90ac 21bd 17f3 47bd 89a1 f33d a96c ca3d
00000140: e779 84bd 821b 0ebd c8b0 363d 7ab4 29be
00000150: bbbc 9dbd 66df adbc e93f f03d 2606 f7bd
00000160: 4ba3 1abd 6e5c 193d a628 7ebd b0dc a3bb
00000170: 5e34 b23d 9fd1 a8bc e5fe 83bd ea9e 1f3d
00000180: 19e6 a53d 56c1 33be da29 a5bd f925 293b
00000190: 5a95 5abd f05c 5e3c ef30 68bd a5f6 1ebd
000001a0: 9f63 cd3d 8d91 ad3b 6009 103b 4492 2a3d
000001b0: 3b61 d6bc 57a9 643c 8673 583c ff6f 43bd
000001c0: bc25 4abd f9fe a8bd 5eaf c93a 3965 903d
000001d0: 8dbe 983d 021d 57bc 4db2 9abd 269b 0e3e
000001e0: 14a3 a1bd c70a 05bd 6d73 4b3c cf7e cebc
000001f0: 53b9 033e 5014 31bd d036 2b3c 26cb 763d
00000200: eff3 c53c bb76 04be 0628 d8bd 66b2 493d
00000210: 62bd 2a3d 23fc 913c 7c01 f2bd 9fc1 c43d
00000220: 3833 cbbb dcc8 023d 4ece a1bc 933f 8a3c
00000230: f329 083e 0226 a03c 5bc6 febb 517c 41bd
00000240: 2359 01be 9fa9 773d 609b 1bbe dc16 37bd
00000250: 4d85 13bd 6436 cb3b a967 d4bc ec64 3e3d
00000260: aa09 c9bd 3633 e73d 6399 69bd c5c6 1abc
00000270: d0f2 68bd 1677 0cbe d29b 9e3c 1214 123e
00000280: 3aec 3dbc 3d99 e13c 96c0 683d 9144 6dbd
00000290: 6abc 373d 5665 153c 03ea 373d d928 aabb
000002a0: 1473 c13d e1eb 543d c5ac a5bd 2ec7 15bd
000002b0: de0b 223d fde4 e7bc d819 053c 7460 a3bd
000002c0: 09fb c83c 1ea9 7d3d ad6a 553d 8fc3 b2bd
000002d0: 6794 813c 1e65 5bbc 1ec4 00bc f559 d3bd
000002e0: 4473 49bd 04c0 0f3e 6dc6 6b3c cd97 3ebe
000002f0: b9e8 6bba e00d 783e 97c5 75bd 064c cf3d
00000300: 394e 0b3e 05bb 0b3e 79ba 443e 29cb 813d
00000310: fd01 03bc cb74 a8bd b602 f63d 51e6 c7bc
00000320: 64af 79bc b6dd 783d 9090 cd3b 7a87 953c
00000330: 1703 8a3d e0de 803c d2ad f13c 58c8 ad3d
00000340: 4d57 30bd 859d f13d 451e 413d 5792 233d
00000350: b13c 0cbd 5189 0e3c 1189 e5ba 3a7e bc3d
00000360: 09e9 4f3d 4752 a1bd 2bd8 7f3d ee0b 13be
00000370: c5e4 3c3d 9bf3 1bbc 0567 53bd f571 343c
00000380: 19fd 023e 5cf1 983b e8e8 a6bc 6243 e53b
00000390: 533b b73d 522c 1bbe 5e5e 1dbe 9b4a b83c
000003a0: 2920 c03d 4259 6bbd 57a2 65bd 3714 42bd
000003b0: 69d2 ba3d 3b52 77bc 0ea4 653d 0cc0 a1bd
000003c0: 0c33 743c 51b9 57bd a619 84bd 4812 6d3d
000003d0: e062 01be 9686 b33d e854 153d 7e42 1dbe
000003e0: dfe4 92bc 0906 a1bc 7f58 2bbd b681 77bd
000003f0: be98 c3bc 79b7 3ebd 9a8b 1f3d 5567 923d
-0.113847226 0.06563164 -0.038179092 -0.009146945 0.055008244 -0.04667109 0.091284364 0.13380581
0.07429247 0.2636962 0.024245128 0.026756743 -0.070878044 -0.0077195005 -0.10512692 -0.058073297
0.007868981 -0.07272072 -0.015402692 0.042998068 0.11539819 0.119816944 -0.012494778 0.051115226
0.016310766 -0.035309505 0.052802727 -0.0517277 0.010029281 -0.01955115 -0.021002712 0.051221278
0.0196137 0.10583705 0.10018513 -0.03544135 0.024802772 0.011301085 0.1618554 0.0068642288
0.022936095 0.078710645 -0.077350944 0.02128989 0.014477702 0.12309519 -0.031403553 -0.10251833
-0.030430332 0.059400275 -0.09764159 -0.074495554 0.029864136 0.062332854 0.07228519 -0.01839663
-0.01187595 -0.098882645 0.03666837 -0.043360807 -0.028825939 -0.1096497 -0.14112395 -0.062012978
0.012795032 0.03829855 -0.05490856 -0.091302 0.04691574 0.008228699 0.04520541 -0.15836403
0.014187486 -0.04178143 0.08127074 0.014705371 -0.03947121 -0.048815813 0.11896045 0.098840065
-0.064685635 -0.034694202 0.044602185 -0.16572753 -0.07702013 -0.021224689 0.1173094 -0.120617196
-0.037753385 0.037441663 -0.062050484 -0.0050006732 0.087013945 -0.020607768 -0.06445102 0.03896991
0.08100528 -0.1755422 -0.08064623 0.0025809987 -0.05336509 0.013571963 -0.05668729 -0.038809437
0.10028767 0.005296892 0.0021978244 0.041643396 -0.02616941 0.013956389 0.013211137 -0.04771423
-0.049352393 -0.08251757 0.0015387347 0.07050557 0.0745822 -0.013129475 -0.075535394 0.13926372
-0.07892433 -0.03248098 0.012417656 -0.025206951 0.12863664 -0.043232262 0.01045008 0.06025233
0.024164168 -0.12935917 -0.10554509 0.0492424 0.041684516 0.017820423 -0.11816689 0.09607243
-0.006201174 0.031929836 -0.019751694 0.016876018 0.13297252 0.019549374 -0.0077751107 -0.047237698
-0.12631659 0.060464498 -0.1519599 -0.044699535 -0.036015797 0.006201552 -0.025928335 0.046482965
-0.098162964 0.112890646 -0.057031047 -0.009446804 -0.05687219 -0.13717303 0.01936141 0.14265469
-0.011591965 0.02753889 0.05682429 -0.05792672 0.04485742 0.009118399 0.044900905 -0.0051928577
0.094457775 0.051982764 -0.08089594 -0.036566906 0.0395621 -0.028307432 0.008123837 -0.07977381
0.024533765 0.06192886 0.052103687 -0.08728706 0.015817834 -0.013390807 -0.007859258 -0.10319892
-0.04918219 0.14038092 0.01439057 -0.18612595 -0.0008999217 0.24224043 -0.06000289 0.10121922
0.13604058 0.13645561 0.19211759 0.06337578 -0.0079960795 -0.082254015 0.12012236 -0.024401816
-0.01523957 0.060758315 0.0062733367 0.018253077 0.067388706 0.015731275 0.02950183 0.08485478
-0.043052007 0.117976226 0.047148008 0.039934482 -0.034237567 0.008699731 -0.0017512162 0.09203763
0.05075935 -0.07877021 0.062462013 -0.1436002 0.04611661 -0.009518529 -0.05161192 0.011013498
0.12791862 0.004667444 -0.02037473 0.006996558 0.08946862 -0.15153626 -0.1536803 0.022496512
0.09381134 -0.05745817 -0.056063022 -0.04738256 0.09122164 -0.015095289 0.056064658 -0.07897958
0.014904749 -0.052666966 -0.064502046 0.057878762 -0.12635374 0.087659046 0.036457926 -0.15357396
-0.0179314 -0.019656198 -0.041832443 -0.060426436 -0.023876544 -0.046561692 0.038951494 0.07148615

network_body.linear_encoder.seq_layers.4.bias f4 [256]
00000000: d5d5 d43c b8be 3dbd e239 2abd e3b3 8fbc
00000010: 9939 e43b a294 3dbc 9c04 5c3c bdc7 7e3b
00000020: 926d c63b 4ecd 05bd 1f21 c4bb 83cc 313d
00000030: 6cea 1dbd 7a2d a7bc 917b c9bc b98d 96bc
00000040: 31c0 11bd 07d7 89bc d15d f4bc e561 0dbd
00000050: 48b2 7dbc d8e6 02bd f5da 063b 75c0 413d
00000060: 417a 1dbd 25c7 363b b8ca 8abc 4f2c 1ebd
00000070: 3e09 17bc 54d8 d5bb 870b eabb 2ae9 e33c
00000080: 3844 353d 7e55 07bd d79a a2bc ccf7 8f3c
00000090: 2806 2a3c 7adb 113d 4d54 1fbd fd0c 7f3b
000000a0: cdd6 97bc 03a2 4cbc 5c5a 29bc 0b7a e4bc
000000b0: 34fa 9d3c 575d febc f492 2dbd 33e3 14bd
000000c0: 4a0e 17bc 16fa 18bd 2a04 adbc 1226 30bc
000000d0: 3e7d b9bc 4b47 8f3c d7d5 98bc b411 00bd
000000e0: 35a5 853a e640 d93c 9f51 8ebb ae6f aabc
000000f0: 6197 833c 0d24 6fbc 8b7a d9bc 49df 22bc
00000100: e586 8f3c 1aa9 1abc bcfa 8fbc e30b a1bc
00000110: 3a79 fe3c da7f fabc ac68 97bc 5b8f 7a3c
00000120: 7c97 97bc 03bc 6f3c 71bd a23c e84b 753c
00000130: 044e bfbc 04f8 f5bc 1231 2f3c 1ac2 523b
00000140: 3941 aabc 7819 ffbc 2674 a9bc c121 713b
00000150: 605c a43c e70f 87bc 23cf 01bd 090b 0e3c
00000160: 88a5 353c 5bdb 97bc 7536 3d3c c27b c5bb
00000170: 1809 c63b 6879 403d be00 07bd f5b0 ecbc
00000180: fd4f 5cbc a097 0abd 0208 10bc 4d6e ce3b
00000190: 8ada cbbc 9ec0 d4bc e249 21bd 1470 13bd
000001a0: 2644 933c e665 113b 5d81 3ebd eb06 f13c
000001b0: 809d cebc 2a60 edbc 3475 86bc 0307 ffbc
000001c0: ea0e 17bd 9892 96bc 1675 89bc ab42 37bd
000001d0: 6244 29bb 16cd 97bc 197d 57bc be8b b53b
000001e0: c52f 98bc 1eb0 15bd 366b a6bc 8422 71bb
000001f0: cfb4 883c d301 d53c 5d8c 653d 4d48 cebc
00000200: f541 47bc f58f 24bd 4618 50bc abfb f9bc
00000210: efce 54bd d188 28bd 64a7 fabc 4201 e9bc
00000220: 2f51 253d 9c97 3bbc b68d 9d3c 4612 ee3b
00000230: 1c59 48bc 0496 9abc ec19 d1bc 9e6a fabc
00000240: 7e68 d1bc e1ed 1fbc d7f4 19bc ab11 33bc
00000250: 18e1 c03c db25 e83c 0944 debc 2c61 923c
00000260: 9588 07bd aa93 a83c 625d bbbc 50c1 e53c
00000270: 8983 71bc 6873 1fbd 0c9b 24bd f99d e6bc
00000280: 993f f6bc 4209 06bd 4500 bf3c 5922 19bc
00000290: 9fc2 013d a6e0 da3c d5a4 ddbb 2811 fd3c
000002a0: d81f aebb 01f1 d3bc b5a2 47bc e61f 25bd
000002b0: 68cc 10bd 48f2 b43b ca31 de3c dfc5 013d
000002c0: 6bf3 b93b a87d 1cbd a5dd bebc 185c 61bc
000002d0: 7dd9 503d 90c1 133c 5a90 9dbc 1d2a 7bba
000002e0: d37a 25bd d58e 0b3d 1b4e 1fbd bc65 303d
000002f0: b237 d1bb b47e d0ba e594 cc3a c72e f1bc
00000300: a047 89bc 268b c83c 94d4 b4bc 784d 08bc
00000310: fe18 27bd 00c0 d2bc a210 0b3c e985 d6bc
00000320: 6d56 ad3b bcba 91bc 31d9 ae3c 075a 913c
00000330: 8c36 163d 569c ef3c a901 2a3c a852 8dbc
00000340: ef08 573c 1d73 19bd 14fb 04bd d908 0ebd
00000350: a275 e0bc 57fb fe3c 573f 453d 554a 16bd
00000360: c4a6 d0bc 3f54 bcbc 47f4 483d aa4d 20bb
00000370: b32e 373d 82ca dd3b 03d2 8dbc 9dbf 03bd
00000380: 24a0 a2bc 7cf5 d8bc b67a 8bbc 30a8 513c
00000390: 4b8f 293d ec22 bebc d7e9 c23c 2c50 92bc
000003a0: 2364 00bd 4e60 433d 54ae 8ebc 0a46 b03c
000003b0: b110 51bd a0a4 2bbd fc55 a6bc 9633 d4bb
000003c0: 7399 e1bc 0dcc ab3c 838e 1ebd 79c0 0c3d
000003d0: 8dca 07bd 1915 eebc 7703 d7bc 6450 f7bc
000003e0: d682 2bbd 780c 34bd 1eeb b03c 3020 e0bc
000003f0: a871 a5bc aeba f2bc 6b23 b83c 8c08 833c
0.02598087 -0.04632446 -0.041559108 -0.017541831 0.006964874 -0.011571081 0.013428833 0.0038876378
0.0060555423 -0.032666497 -0.0059853937 0.04340793 -0.03855364 -0.020407427 -0.024595054 -0.018378126
-0.03558368 -0.016826166 -0.029829891 -0.034517188 -0.0154844 -0.03195843 0.0020577286 0.047302682
-0.03844667 0.0027889695 -0.016942367 -0.038616475 -0.009218512 -0.0065260325 -0.0071424874 0.027821142
0.04425451 -0.033040516 -0.019849224 0.017574213 0.010377444 0.0356097 -0.038898755 0.0038917654
-0.018535042 -0.0124897985 -0.010336485 -0.027890226 0.019284345 -0.031050367 -0.042376474 -0.036349487
-0.009219715 -0.037347876 -0.02112015 -0.010751264 -0.022642728 0.01749005 -0.018656654 -0.031266883
0.001019633 0.026520204 -0.004343226 -0.020805206 0.016063394 -0.0145959975 -0.02654769 -0.009940931
0.017520377 -0.009439731 -0.017575614 -0.019658988 0.031063665 -0.030578543 -0.018482529 0.015292968
-0.01850485 0.014632228 0.019865723 0.014971711 -0.02335263 -0.03002549 0.010692852 0.003215915
-0.020783054 -0.031140074 -0.020685267 0.00367938 0.02006358 -0.016487075 -0.03169168 0.008669623
0.011086829 -0.018537214 0.011548628 -0.006026716 0.0060435645 0.046990782 -0.032959692 -0.028892973
-0.013446805 -0.033836007 -0.008790972 0.00629977 -0.024884481 -0.025970753 -0.0393771 -0.035995558
0.017976832 0.002218598 -0.04651009 0.029422244 -0.025221586 -0.028976519 -0.016413309 -0.031131273
-0.036879458 -0.018380448 -0.016779464 -0.044741314 -0.0025828113 -0.01853041 -0.013152384 0.00554034
-0.018577466 -0.03654491 -0.020314794 -0.0036794255 0.016687779 0.026001846 0.056042064 -0.02518096
-0.0121617215 -0.04017635 -0.0127011 -0.030515512 -0.05195516 -0.041146103 -0.030597396 -0.028442983
0.040360626 -0.011449721 0.019232612 0.007265362 -0.012228277 -0.018870361 -0.025525056 -0.030568417
-0.025562521 -0.009761305 -0.009396753 -0.010929505 0.023544833 0.028338363 -0.027132051 0.0178686
-0.03308924 0.020578224 -0.022871677 0.02804628 -0.014740833 -0.03892842 -0.040186927 -0.0281515
-0.030059623 -0.032723673 0.023315558 -0.009346568 0.031679746 0.026718449 -0.0067640343 0.03089197
-0.0053138547 -0.025871756 -0.0121847885 -0.040313624 -0.035351187 0.0055220462 0.02712335 0.031682845
0.0056747696 -0.038205773 -0.023299048 -0.013754867 0.050988663 0.009018317 -0.019233871 -0.00095811655
-0.040400337 0.034071762 -0.038892847 0.04306577 -0.006384813 -0.0015906901 0.0015608339 -0.02944125
-0.016757786 0.024480414 -0.022074021 -0.008319251 -0.04079532 -0.025726318 0.008487852 -0.0261869
0.005289844 -0.017789237 0.0213438 0.017743124 0.036673114 0.029249351 0.010376372 -0.017251328
0.0131246885 -0.037463296 -0.03246601 -0.034676407 -0.027399842 0.031125708 0.04815611 -0.036691982
-0.025470145 -0.02298939 0.049061086 -0.0024460354 0.04472227 0.0067685256 -0.017312055 -0.03216516
-0.019851752 -0.026484244 -0.017026287 0.012796447 0.04139642 -0.023210011 0.023793144 -0.017860495
-0.031345498 0.047699265 -0.01741711 0.021517772 -0.05104131 -0.041905046 -0.020304672 -0.006475876
-0.02753899 0.020971322 -0.03871013 0.034363244 -0.03315215 -0.029062795 -0.02624677 -0.0301897
-0.04187282 -0.043957204 0.021596488 -0.027359098 -0.020195797 -0.029630031 0.022477826 0.015995286

network_body.linear_encoder.seq_layers.4.weight f4 [256, 256]
00000000: 31b9 fe3b 335e 15ba c5a7 b13c b1a4 92bd
00000010: be4a c73c 84ca 08bd 22f6 06bc c3a1 0abd
00000020: 44b7 9fbd 7759 043e ec7f a439 03a5 6e3d
00000030: 0077 9bbc 8013 d7bd eb5e 14bd d2d0 db3d
00000040: 2518 233d 66ca d03c 9be6 8abd b2ae 903c
00000050: e8a7 b9bd b37c 913d 0c17 ccbd 3851 7bbd
00000060: 3345 85bd a82f a8bc 12d8 8f3c 6d9f af3c
00000070: 22b4 293d f05c 963a 1cc1 7ebc 029e 503b
00000080: d980 0ebc 7938 21bd 2a25 403c 9d4e b5bd
00000090: de43 bcbd ebce adbd 1140 65bd b089 103d
000000a0: 6fe3 b2bd 3d0a c1bd 05df 563d c86d 233d
000000b0: 8293 b6bb 41ac 033e 558d 48bd e117 44bd
000000c0: c86d b23d ff2d 143c f60e d03c fa87 a6bd
000000d0: d355 afbd 4d29 ea3c 1789 abbd 5206 943d
000000e0: fbde 863c 68bb 4a3c 0e1a 1d3e ca9a d1bc
000000f0: 9fa8 c7bd 53cf 04bd c5d0 d0bd c4b8 613c
00000100: 1547 cabc bef9 583d 14cb d33b 5a79 e03c
00000110: c059 453c f59f 8a3d 3028 1c3d b433 02bd
00000120: 8da9 933c 98f4 64bd 13f4 5c3d 4b18 433b
00000130: 5982 053c d062 933d 65f2 98bd 5f16 99bb
00000140: ef4c 413e 1c66 90bc 73d7 36bd f445 d2ba
00000150: 252f 223d 53cd d53c 64f6 6b3d 47ae 883d
00000160: 6706 d13d 6d94 1ebc 4767 67bd 42a5 6f3d
00000170: de8e bbbc 6134 79bd 22aa 7dbc a5a0 c0bc
00000180: e9d1 afbd b2b3 08bd aee2 2abe d86f 8ebd
00000190: 40d9 f9bc 4891 04bd 6ede 673d 6d55 d23d
000001a0: 3181 d13d 71d8 013e 30a1 e5bc e3f2 413c
000001b0: 4dd0 993c 30f3 dfbd be13 8c3d 1f0f b73d
000001c0: 44dd ff3b fb03 88bb f87f ddbb 42ee 1c3d
000001d0: 5ed9 fa3b 8c3f 5abe b9e6 383d d6df 37bd
000001e0: 441f 433c 173b cd3c a163 c9bd c236 b8bd
000001f0: 8797 69bd 574d 193d 1bb1 c9bd a478 0ebd
00000200: 2ae7 efbb 0910 82bc 52dc 5dbd 9f7e 9bbd
00000210: 80d9 6d3b fa73 d3bb 4979 2a3d ff6d 933b
00000220: 5103 5c3d d4a6 e9bd 0c73 fe3d 18da 0e3c
00000230: 1294 15bd 5a85 42bc dcee 743d 84e6 43bd
00000240: 3b1e a8bd ffb5 e9bd ee09 2c3d 3c37 583d
00000250: 9791 d53c d723 8abc 1208 083e a5e3 32bc
00000260: 9d36 323c 5f22 6f3d 2b89 6abb 4806 7b3c
00000270: ea07 39bd 1d9d 0bbd fc2b b53d 8da2 323d
00000280: 9146 4b3d f056 b03d 16a4 38bd 1e55 30bd
00000290: 46f8 ea3c 2d59 a4bd f771 81bd 17fa a33d
000002a0: 1965 763d 814d 833d 13ce bebc 1d9b 6d3d
000002b0: 03a7 bf3b 03fe 433d 9920 b53c c6c5 cbbc
000002c0: a85f bcbb b668 333d 3e69 09be 08c0 4c3c
000002d0: de8d e1ba 8a86 9ebd 4cff b8bd 4424 96bc
000002e0: 4702 4f3d 8a73 13bd 5f9e 173d f38c f53d
000002f0: 27b4 b0bd a8f5 913d de80 abbc 7686 83bd
00000300: 1ffd 203d fa25 b33d e72c bbbc c100 3cbb
00000310: 48c2 72bd 7685 c7bd 3183 83bd 379a 6cbd
00000320: 838f fb3b 9272 b83d a55c 7a3b cf52 8bbb
00000330: 2e98 a83c 6062 a23b 7fc2 773d 99b2 1ebe
00000340: dada c23b f3f1 97bd b5d4 45bc a7f9 ffbc
00000350: 6cb4 0dbe d42a 03bd c8ee 09bc 316b aebd
00000360: 5a7e 693c a3f9 adbd 605d c03d 0ec3 953c
00000370: 2452 50bd 0809 c7bc 5877 353e 8edd 8ebc
00000380: a555 b93d cd14 64bc eded 9ebd 908d 0b3e
00000390: 6e7f c13d bd71 9f3d e0be 093a ae3b c63d
000003a0: c0e7 a83c 14a9 a33c a358 e8bd abd7 863d
000003b0: 292d f6ba 8d98 98ba 4533 15bd 8065 4fbd
000003c0: bda6 85bc 3c8e 68bd 1068 c93c 6c76 8a3b
000003d0: b733 cfbc f7d8 cbbc d975 0f3e b213 16bd
000003e0: 2ff5 0cbd dd9b 613d 61b9 cfbd 45d2 bdbb
000003f0: fd5d 173e 8a86 023d c72c 1cbc 7abe c2bd
0.0077735414 -0.00056979357 0.021686444 -0.07160319 0.024327632 -0.03339626 -0.008237394 -0.033845674
-0.07798627 0.12924753 0.00031375827 0.058262836 -0.018977642 -0.10501766 -0.036223333 0.10733189
0.039817948 0.025487136 -0.06782266 0.017661426 -0.09065229 0.071038626 -0.09965333 -0.061356753
-0.06507339 -0.020530537 0.017559085 0.021438325 0.041431554 0.0011471789 -0.015548971 0.0031832461
-0.008697712 -0.039360497 0.011727611 -0.08852885 -0.09192632 -0.08486732 -0.0559693 0.03528756
-0.08734786 -0.09425781 0.05245878 0.039899617 -0.0055717835 0.12858678 -0.04896291 -0.047874335
0.08712345 0.009044169 0.025397759 -0.08131404 -0.085612915 0.028584147 -0.08375757 0.07227768
0.016463747 0.012373783 0.1534197 -0.025586504 -0.09748959 -0.032424282 -0.1019607 0.013776962
-0.024692098 0.052972548 0.006463418 0.027401615 0.012045324 0.06768791 0.038124263 -0.03178759
0.018025184 -0.055897325 0.053943705 0.0029769118 0.008148753 0.07196581 -0.07468108 -0.0046718563
0.18877004 -0.017626815 -0.044639062 -0.0016042576 0.03959574 0.026098883 0.057608023 0.06673866
0.10206299 -0.009678942 -0.056494977 0.05850721 -0.022895273 -0.060840968 -0.015482457 -0.023514101
-0.08584959 -0.033374496 -0.16688034 -0.06954926 -0.0304991 -0.032365113 0.05660861 0.102702
0.102297194 0.12680222 -0.028030962 0.011837694 0.018776083 -0.10935056 0.06839703 0.08938431
0.0078083593 -0.004150865 -0.00675964 0.038313158 0.0076553067 -0.21313304 0.04514191 -0.0448912
0.01190931 0.02505259 -0.09833456 -0.08994819 -0.057029273 0.037427273 -0.09848233 -0.03478302
-0.007321258 -0.015876787 -0.054165192 -0.075925104 0.003629297 -0.0064530345 0.041619573 0.0044991965
0.0537141 -0.11408773 0.12424287 0.00871899 -0.036518164 -0.011872614 0.059798107 -0.04782726
-0.08208891 -0.11411666 0.042001657 0.05278705 0.0260704 -0.016862793 0.13284329 -0.0109185325
0.010877279 0.05838239 -0.0035787325 0.015321322 -0.045173563 -0.03408538 0.0884628 0.04361205
0.049627844 0.08610332 -0.04507836 -0.043049924 0.02868284 -0.080248214 -0.06320565 0.08006685
0.060155008 0.06411267 -0.023291623 0.058009256 0.005848767 0.047849666 0.02211027 -0.02487458
-0.005748708 0.043801032 -0.13419053 0.012496956 -0.0017208417 -0.07740505 -0.09033069 -0.01832784
0.05053928 -0.03599886 0.03701627 0.119897746 -0.08628111 0.07126933 -0.020935472 -0.06422131
0.039303895 0.08747478 -0.02284856 -0.0028686973 -0.059267312 -0.097422525 -0.06421507 -0.05776426
0.00767702 0.090062276 0.0038202193 -0.004251815 0.020580377 0.004955575 0.06048822 -0.15497817
0.0059464993 -0.07419195 -0.012074639 -0.031246973 -0.13838357 -0.032023266 -0.008418746 -0.08516539
0.014251316 -0.0849488 0.0939281 0.018281486 -0.050859585 -0.024296299 0.17721307 -0.01743963
0.090495385 -0.013920975 -0.077602245 0.1362822 0.094481334 0.07785366 0.0005254578 0.09679352
0.02061832 0.019978084 -0.11345031 0.06584104 -0.0018781769 -0.0011642143 -0.036425848 -0.050633907
-0.016314859 -0.05677627 0.024585754 0.004225543 -0.025293214 -0.02488373 0.14009799 -0.036639877
-0.034413513 0.055080283 -0.1014278 -0.0057928883 0.14781947 0.031866588 -0.00953216 -0.09508987
